saved_runs/final_overall_goal_policy_ddpg_agent_target_actor.pkl (torch_old, 508554 bytes, 14 tensors)

linear1.weight f4 [400, 6]
00000000: a79d 3c3e 8b80 953e 5eaf 40be aebd b0be
00000010: bd5c a3bd 94f0 333e e546 e6bd 1c88 b83e
00000020: 9f61 ac3c ea30 e83d 1bd7 5fbb 19f9 42bd
00000030: 719d 25be dd80 6dbe fde2 abbe 910c abbc
00000040: f9e5 463e e041 843e e1d6 aabe 6655 85be
00000050: eae7 dc3d 36b5 593e 3d86 afbd 8d04 a23e
00000060: e7f3 40be 68a1 203c 4972 953e b954 c3be
00000070: 6d7f 88be 31d0 8bbd 594a e6bd 8017 973e
00000080: d51c 9cbe 421c 25be 7d8f b7be 2a81 bebe
00000090: f24c 9bbe 87de 943e 5a68 4f3e bc30 043e
000000a0: cc31 803d 1f01 32be 09f1 3f3e 734c 81be
000000b0: d69c 94be 2bac 9dbe 2231 ae3e 8b41 943e
000000c0: fcea a6be 3f84 f1bd b920 de3d 6884 843e
000000d0: 2a7c cb3d dbe4 4a3d 7258 ed3d 6a97 d0be
000000e0: 53a8 75bd 3904 9abe 4f5b 99be d3e6 4cbe
000000f0: 71ca b43e b067 6b3e e4c7 d6bd 150a 503d
00000100: f274 6f3e 8d6c 71bc 1376 21bc 9267 fabc
00000110: e69d 9b3e 718a 923e bc32 a1be e271 12be
00000120: e68c 2d3e 62ba a33e d6ba c13e 15e5 8f3e
00000130: 7a29 f73d 2f75 a3be 85ab 473e e6ba 80be
00000140: 4b29 d3be cd16 ac3e b87e 843e 218d b5be
00000150: 6761 4c3c 1a94 b3bc 8d9c 9c3d b3d6 edbd
00000160: 965f 1b3e 6ae8 56be a217 473e 6e03 273e
00000170: ae5e 9f3e ff89 a83d df98 c3be db18 8abe
00000180: 1b03 c03e c08b 333e 4001 25be 57e9 6cbe
00000190: 4d15 bd3e 22c3 a23e c542 12bd f638 d4ba
000001a0: 78a3 02bf 0ee5 94bd ea08 98be 3e6f 94be
000001b0: 0ca5 753d d7d9 39bc e8b8 42be 955f 7e3e
000001c0: 2b1b 56be 3a9d ab3e c160 b93e 080e 47be
000001d0: f576 67bd 79ab 453d 3ed4 823d 0bab e93d
000001e0: c1ed ae3e 205a fa3d 4c08 c0bd 0cfb 383e
000001f0: 8869 72be 6bf9 57be a226 cf3d 87ce 00be
00000200: e6f7 67be 7022 acbe be25 c5bb d201 963d
00000210: 4aa9 bfbe ddba 9dbd 573e 073e 6993 13bd
00000220: 4c31 9cbc ebdf 1cbd ece5 bf3c 29b3 303e
00000230: 3ae2 ef3e 9b40 473e e1b2 c93e 98ba 0fbd
00000240: 6ee4 dfbe 9196 a6be cf74 283e 2b8c 2bbc
00000250: b53c 4ebe f36f 95be 2c5e 85be 0fc2 b5be
00000260: b34a 01be e5ee 1a3e 7c0e 913e 55be ccbe
00000270: c0dd 8b3e 40fa d7be b7cc c8bc ba1e 17be
00000280: 6748 9cbd 271b 4cbd b703 edbe 5f8d 8abe
00000290: f852 05bd 2045 963d 4bad 2fbe ee45 0f3e
000002a0: a225 c8be 2dd6 25be 5269 ac3e 9ef0 6fbe
000002b0: 7417 983e d393 f63d 39c5 a3be ecd3 883e
000002c0: 28f0 b0bc 2d38 7ebe 3cda b73e 6c61 acbe
000002d0: 40a5 84bc 0f2e 0fbd fb8d 8c3e 94a0 d83d
000002e0: 9a0b 403e 1b76 4b3e c5a6 ffbd f16a 31be
000002f0: 8c93 9fbe 1d49 7e3e a8db 973e 782e 823e
00000300: 02fc dcbe 75a8 24bd a8a2 02be b5ec 42be
00000310: eb39 89be b288 293e 5a18 95be c187 873c
00000320: 9986 aa3c d998 153e c6db 79be 83b5 55be
00000330: 4f5f 51bd dc8e ab3e b1d0 00be 86e7 8e3e
00000340: be49 123e 08f0 093e 22d1 92bd 7c5e 43bd
00000350: df04 223c 71d0 56bd a0d6 15bd 13c7 c1bb
00000360: 459a bdbe 723c 76be f0e4 8c3e d259 c9be
00000370: 6829 b2bd 3b7f be3e 7f8b b03e 13d0 593e
00000380: 057c 1dbe e260 6c3e af37 32be f63f bebd
00000390: 1bf3 2ebe d0ed e9bd cd56 493c 92ab 833e
000003a0: 77c2 883d 071a cc3e 6fd9 423e c7bd 8cbe
000003b0: 2a47 423e 96a9 c6be b72a 16be fb32 c93d
000003c0: 22dc 643e c803 c53e c15e a1bd 37b4 10bd
000003d0: 9a74 853e 5c8d a1be bcaf 053e 75c9 aebe
000003e0: 1a39 003e 7d44 a2bb ddd2 3abe 3cff 553d
000003f0: 379e 683e a403 3abe 20ce a0be 352a 01be
0.18419515 0.29199633 -0.18816897 -0.34519714 -0.07976673 0.17572242 -0.11243991 0.36041343
0.021042643 0.113374546 -0.0034155312 -0.04760084 -0.1617334 -0.23193689 -0.33571616 -0.020880016
0.19423665 0.2583151 -0.33367065 -0.26041716 0.107864216 0.21260533 -0.08570526 0.31644097
-0.18843041 0.009804107 0.29188755 -0.38150576 -0.26659718 -0.06826819 -0.112446494 0.29510117
-0.30490747 -0.16124061 -0.3585166 -0.3720792 -0.30332142 0.29076025 0.2025465 0.12909216
0.06259498 -0.1738324 0.18744291 -0.2525364 -0.29025906 -0.30795416 0.3402186 0.28956255
-0.32601154 -0.11792802 0.10846085 0.25882268 0.09935792 0.04953466 0.11589135 -0.4074052
-0.05997498 -0.30081347 -0.29952475 -0.20009927 0.353107 0.22988772 -0.10487345 0.050790865
0.23384455 -0.014735353 -0.009854811 -0.030566964 0.30393904 0.28621247 -0.3148402 -0.14301255
0.1694828 0.31978136 0.37837857 0.28104463 0.12068458 -0.3192534 0.19499023 -0.25142592
-0.41242442 0.33611146 0.2587793 -0.35459235 0.012474394 -0.021921206 0.07647047 -0.11613216
0.15173182 -0.20987096 0.19442609 0.16309902 0.31126922 0.08229446 -0.3820257 -0.26972088
0.3750237 0.17533779 -0.16113758 -0.23135887 0.36930314 0.317895 -0.035708208 -0.0016191292
-0.51030684 -0.07270251 -0.296943 -0.2899112 0.059971854 -0.011343441 -0.19015849 0.24841149
-0.20908801 0.33518392 0.3620663 -0.19438946 -0.05650993 0.048259232 0.06388138 0.11409577
0.34165767 0.12224221 -0.093765825 0.18064517 -0.2367307 -0.21091239 0.101147905 -0.12578784
-0.2265316 -0.33620024 -0.006016462 0.07324566 -0.37433845 -0.07701657 0.13207375 -0.036029253
-0.019066475 -0.038299482 0.023425065 0.17255844 0.46852285 0.19458239 0.39394286 -0.03509006
-0.43728966 -0.32536748 0.16450809 -0.01047043 -0.20140345 -0.29186973 -0.2604841 -0.35499617
-0.12626152 0.15130194 0.28331363 -0.39988962 0.2731762 -0.42183113 -0.024511678 -0.14757815
-0.07630997 -0.049830582 -0.46291897 -0.27060983 -0.03254983 0.07337403 -0.1715595 0.1399152
-0.39091212 -0.16194983 0.33674103 -0.23431632 0.29705393 0.12039914 -0.31986406 0.26724184
-0.02159889 -0.24826117 0.35908687 -0.33668077 -0.016192079 -0.034956034 0.27452073 0.10577503
0.18754426 0.19869272 -0.12482981 -0.17325951 -0.31167257 0.24832578 0.29659772 0.25426078
-0.43161017 -0.040199716 -0.12757361 -0.19035609 -0.26802 0.16556051 -0.2912014 0.016544225
0.020816134 0.14609088 -0.24400243 -0.20870022 -0.051116284 0.3350743 -0.1257961 0.27911013
0.14285943 0.13470471 -0.07168795 -0.04769753 0.009888857 -0.05244488 -0.036581635 -0.005913624
-0.3703176 -0.24046496 0.27518415 -0.3932634 -0.08699304 0.37206444 0.34481427 0.2127078
-0.15379341 0.23083833 -0.17404054 -0.09289543 -0.17084925 -0.11422312 0.012288761 0.25716835
0.06677716 0.39863607 0.19028257 -0.2748854 0.1897246 -0.3880126 -0.14664732 0.09824177
0.22349599 0.38479447 -0.07879401 -0.035328116 0.26065522 -0.3155316 0.13055319 -0.34138075
0.12521783 -0.004952012 -0.182445 0.052245364 0.22716604 -0.18165451 -0.3140726 -0.12613757

linear1.bias f4 [400]
00000000: 3672 143f 80a8 13bd f521 85bd 90e1 80bb
00000010: f62e 65bd 211f 00bb c2f1 33be cb33 a0bd
00000020: 57e8 1fbf 61ab 34be c978 8dbd 731b f33e
00000030: a5ae 0d3e ce60 99bd c924 a23e 3ef0 5ebe
00000040: 6da6 263c 05e1 883e a063 babe 23bd bb3e
00000050: cb01 953e dee6 1abe fe05 33bf ba1a ec3d
00000060: 2e56 a6bd 71d9 1fbc 01be b2be 37d3 78be
00000070: 994f 33bd 37f6 563d ebc8 733e 5554 d7bd
00000080: 0ac2 8cbd 9758 b23d c4b6 133f 9e55 d33e
00000090: 7128 8a3e 300f 343e 39cb 89bd e451 0dbc
000000a0: a386 8b3e 3931 c63e 368d a5bd 7dc8 27be
000000b0: 45bb 8bbe 7180 243f c1dc 9e3b 51eb bfbb
000000c0: 050b 32be 17e1 0a3e 46fe f93d 1e55 5d3e
000000d0: 8297 0fbe 97e3 75be b8ec fb3e 6394 0abf
000000e0: f684 68be 30ca f23c 6c38 d93e 97d7 123e
000000f0: 9046 e2bc 1257 853e 4691 0a3f 3d5d bb3c
00000100: 90b3 c83b a5d1 fdbd ac3e 673d 551f 033e
00000110: afef 84be 9265 c83e 4557 9e3e 4540 99be
00000120: 225a 5fbe abe5 8cbd e02b 823e 4e73 afbd
00000130: 126d 263f 283f 8abe 4544 2dbf 864d e23e
00000140: bd66 b5be 8f6b 78bd 72c9 623e b6bc 85be
00000150: 9766 e5be 0671 0ebf 67bc 143e 4f4e 823e
00000160: 812f 67be d900 133e a5d7 71be fb5e 3b3e
00000170: f5d3 8b3d 5f96 373f 6c02 02bf 413e 4d3d
00000180: bc9d a7bc 40a4 f83e 2e8a 51be 2182 e53e
00000190: 4cb4 fb3e 203b 0f3f f27e e5bd f2cc d23e
000001a0: 6510 7c3a aeea 9dbd ac8d 103e e731 0c3f
000001b0: 6f26 19bf 99e2 10bd b9cf 86be 66ef 593e
000001c0: e24f fdbc dbd1 ee3c 6961 9fbe befd bebe
000001d0: 84a8 2b3e b7e2 24be b5df b13a 3dd9 99be
000001e0: c4c8 98bd 56c3 5c3e 8f70 28be 19f7 0bbe
000001f0: 0632 1cbd b881 b7be e64a cd3e bbf9 78bc
00000200: 0351 2b3e e8b7 723e 25d1 c93d bb00 7abe
00000210: 2c7f 423e 5c19 dd3e 8c12 993e 24e8 c1be
00000220: 4c8d 1bbe 558f 313e e0f4 883e 0a58 debe
00000230: a05e c8be 5ef0 87be b440 09bf cac3 08bd
00000240: 91b5 59be 865c e8be 471a 5a3e 652f 3a3e
00000250: e734 90be 2bbc b83e df39 b53c b17a c83e
00000260: e539 dfbe 16cc 073e 28a6 e73e 1523 b73e
00000270: 52fe 9bbe d456 ae3c b165 d53e 58b6 46be
00000280: aeba dbbd 6efd 04be 615f d43e 497b 3abd
00000290: 1497 083e d34b 8d3d 3c62 84be dff5 df3d
000002a0: f52f a73e 4eb0 78be 346e adbd 5c7c b4bb
000002b0: 27b7 d13e e5e6 ed3e 934c 0d3d 5fcc bb3e
000002c0: 444b 93be 803c 6f3e 71f9 903e e517 63bc
000002d0: 61d6 06bf 842c 0e3f 18b2 fb3d 74d6 653e
000002e0: 0d21 a4bd bfed dc3e 793b 893e 14fd 813e
000002f0: c555 4c3c 1237 003f 14fb 333e f175 743e
00000300: 017d 15bf 0324 553d ae82 05bf 17f0 f23e
00000310: 234b 183f edba 66bb f75b 033d b211 e53e
00000320: 77be 143f 5bf6 80be abc1 d0bd 8b6b babe
00000330: 7a63 2f38 7d7e e53d ee47 f1bc 9291 fdbd
00000340: a88a 8d3d a34e 0fbe dd7b 7ebe 4a5b fb3d
00000350: 73ee c6be f3de 653e fb78 ddbd 64b8 f9bd
00000360: 60d9 613d 7b8b 71be 639d 273e 7e59 173f
00000370: 6704 d9bd 7d01 a43e 5883 bb3e 4c0d b33e
00000380: 1061 263d 5f3b df3a 278c e33d 2f49 abbe
00000390: 7541 233e 2ce7 b1bd a2cd cebd 8116 d33c
000003a0: 881f 16be cac6 ffbc 59ee debd 0bab 433e
000003b0: ca56 5e3d b845 f23e c32d 313d 75bd 79be
000003c0: 5958 67be b60d ad3d c9dd c53d 0d56 88bd
000003d0: 3a9e ab3e 3898 f03e 5c4a 2abe e95e 9d3e
000003e0: 6558 ac3e 0125 1b3e 9e8d 9b3e 876c a23e
000003f0: 0b82 0d3f b38f 1ebf a6ab e8bd 75b1 b73d
0.5798677 -0.036049366 -0.065006174 -0.003933139 -0.05595299 -0.0019549804 -0.17572692 -0.07822379
-0.624639 -0.17643501 -0.069078036 0.4748188 0.13836153 -0.07489167 0.3166869 -0.21771333
0.010171515 0.26734176 -0.36404133 0.36667737 0.2910293 -0.15127131 -0.6993102 0.11528535
-0.08121906 -0.009756432 -0.34910586 -0.24299322 -0.043777082 0.052480903 0.23807113 -0.10514132
-0.068729475 0.087083034 0.57700753 0.41276258 0.2698398 0.17583919 -0.06728215 -0.008625481
0.27251157 0.3870943 -0.080835745 -0.16385074 -0.27291313 0.64258486 0.0048480933 -0.0058569093
-0.17387016 0.13562427 0.12206702 0.21614501 -0.1402264 -0.240126 0.4920404 -0.5413267
-0.2270697 0.029637426 0.4242586 0.14340053 -0.027621537 0.26042992 0.5412792 0.022871608
0.006124921 -0.12393502 0.056456253 0.12804921 -0.25964114 0.39139992 0.30925956 -0.29931846
-0.21811727 -0.06879743 0.254241 -0.085669145 0.6501018 -0.2700131 -0.67682296 0.4419977
-0.35429946 -0.06064945 0.22147158 -0.26120538 -0.44804832 -0.5564121 0.14524995 0.2545037
-0.22576715 0.14355792 -0.23617418 0.18297951 0.06827537 0.71713823 -0.50784945 0.050108198
-0.020460956 0.48562813 -0.20462868 0.44825843 0.49160993 0.5594959 -0.112058535 0.41171986
0.000961548 -0.07710777 0.14116544 0.54763645 -0.5982427 -0.03537235 -0.26330355 0.2128273
-0.03092188 0.029152801 -0.31129006 -0.37302965 0.16763502 -0.1610211 0.0013570698 -0.30048552
-0.07460168 0.2155889 -0.16449188 -0.13668479 -0.038133644 -0.35841155 0.40096205 -0.015196259
0.16730122 0.23702967 0.09854344 -0.24414341 0.18993825 0.4318341 0.29896963 -0.37872422
-0.15190619 0.17339833 0.26749325 -0.43426543 -0.39134693 -0.26550573 -0.53614354 -0.033389844
-0.21260668 -0.4538309 0.21299087 0.18182142 -0.2816536 0.3608106 0.022122322 0.39156106
-0.43598858 0.13261446 0.45243955 0.35768953 -0.30467469 0.021281637 0.41679147 -0.19405496
-0.10728966 -0.12987301 0.41479018 -0.04552773 0.13338882 0.06899228 -0.25856197 0.10935568
0.32653776 -0.24286005 -0.08468285 -0.005507989 0.40960047 0.4646522 0.034496855 0.3667936
-0.2876836 0.23362923 0.2831531 -0.013860677 -0.52670866 0.55536675 0.12289828 0.22445089
-0.080141164 0.43150136 0.26803187 0.25388396 0.012471621 0.5008403 0.17576247 0.23873116
-0.58393866 0.052036297 -0.52152526 0.474488 0.5948965 -0.0035206631 0.032070126 0.44740063
0.58103126 -0.25187954 -0.10193189 -0.36410174 4.1815896e-05 0.11205766 -0.029453244 -0.12381281
0.06911212 -0.13994841 -0.24851938 0.122732714 -0.38853797 0.2244833 -0.10814091 -0.12193373
0.055138946 -0.23588364 0.16368632 0.5912093 -0.10596543 0.32032385 0.36623645 0.34971082
0.04061991 0.0017031244 0.11110716 -0.33454272 0.15942939 -0.08686671 -0.10097815 0.025767567
-0.14660466 -0.03122272 -0.10885305 0.19108216 0.054281987 0.47318816 0.043256532 -0.24388678
-0.22592296 0.08449881 0.09661443 -0.06657038 0.33519155 0.46991134 -0.16629928 0.30736473
0.3366119 0.15150835 0.30381483 0.31723425 0.55276555 -0.6193802 -0.11360864 0.08969394

linear2.weight f4 [300, 400]
00000000: 9ac9 32bd df89 aa3c 7f68 93bd 81ae 9a3b
00000010: 5623 1e3c 5dea 33bc f561 a93c b1f5 40bc
00000020: 34ca 1a3c 1760 003d 025b cf3d f316 d3ba
00000030: 17ca 0bbd 90a6 0fbd 8982 2bbd 6311 86bc
00000040: 9c1f 09bd 1536 693c 7c5a 84bd 0f4c 06bc
00000050: 0ac1 bebc a1d8 9a3c ef36 463c 7e5e b73b
00000060: 52ed 493d d9e5 84bd 2df7 53bd caac a43c
00000070: 5c7f e5bb 42a5 2dbc 205b e0bc 6c8a 0bbc
00000080: b392 663d f881 233d 4e49 a03d c742 37bd
00000090: b81a 55b9 83f3 c73c eb60 103c b1db edbc
000000a0: 9a4f e23c d67d 2abe 04ff b2bc 0c73 7bbb
000000b0: 65cb a1bd eaf8 6abd 8e23 8ebc 7c07 333d
000000c0: 4e03 a2bd 54aa e3bc 6d86 cfbc ac03 173b
000000d0: bf49 1ebd d5ed 843c a160 3bbc 6174 143d
000000e0: d021 8e3c d30a a9bc 05f0 05bb e8cb b63c
000000f0: 7fa4 b6bc 9484 353d a886 02bd 13cb f2ba
00000100: 0d2f 353d 193e d9bc 62bc 123d b1fe 52bd
00000110: 88e7 383c 399a 8dbd d8bd 92bd 851f eabc
00000120: db79 87bd 2d93 293c 3073 98bb 93e9 32bd
00000130: 7d97 4c3d d7bc f5bc 1f91 1f3d 4200 58bd
00000140: 3c76 87bc 6786 e2bc 90e0 ad3c d336 c23c
00000150: 8c6b 1bbb 30d5 583d ea37 90bc 462e 2e3d
00000160: c73f fe3c e960 73bd 9fcd f53c fdd0 603c
00000170: bf3a 4d3c 5a61 6f3c 02b8 9a3c 0cf1 353d
00000180: 05f9 f2bb fccb 84bc 5a78 fc3c 53ab f63a
00000190: d7ad 403d dcfd 783d 225c c73c a5e1 7c3c
000001a0: 0cc2 b23c 9332 0bbc aac0 7abc f633 92bc
000001b0: b6aa 813c 3f93 913b 0b1e 133c 4eb3 55bd
000001c0: 8537 773d b833 72bd d11a 97bc eebb a73c
000001d0: e24f 87bd 17c7 283d 0fe9 62bd 9abc 0fbc
000001e0: 752f ae3c e7e4 48bd 95f2 c23c e515 99bc
000001f0: cf55 6fbc e258 05bd d340 d5bc d9f8 3d3d
00000200: 8dac 573d b475 94bc 7107 ad3c 3288 21be
00000210: 7016 fb3c 357c 5dbc 88dc 9ebc 7951 89bd
00000220: e974 a2bd 40cc 8e3b b479 f33c a129 88bd
00000230: 1a57 c2bc aabb f6bc 702c c73c f65e db3a
00000240: 9815 44bc 8158 643b e983 323d ab6f 443c
00000250: a50d 8abd dc6d 803d bc30 a4bc de9a 14bd
00000260: 488a 023d dc85 0bbd 9ee1 323c ac84 283c
00000270: a727 88bc f45b 60bd cad6 d93c 12af 3fbd
00000280: 2a4b 513d 1ecb f0bc ae2c bd3b a38d 86bd
00000290: 6983 d03c f629 bb3c 5914 bd3d 2e0b b5bd
000002a0: 3f09 02bc b01c a13c 0f15 063d 6b1c 713d
000002b0: 0e4e 183c 0b56 a2ba 9b07 dfbc 7a32 9dbc
000002c0: ce5a e43c d908 64bb 59f5 82bc 5197 8b3b
000002d0: 60fb 323c a0fd 353c bae1 1b3d d474 aabd
000002e0: fe68 25bc 98f1 ba3c 0e70 b638 a6bb 63bd
000002f0: 55ef 1a3d 07e2 9b3d b17b 943c 9702 cabc
00000300: 42f8 c23c 7f5e 8cbc 3549 a23c 0008 37bd
00000310: 03b5 9b3d 43d9 c6bc b9eb 34bd 23d0 38bd
00000320: 351e aabc e861 633b 2a34 ec39 c08f 5a3d
00000330: ac95 583d 8c39 08bd f7fd 58bc c247 053b
00000340: e180 253d ac05 10bc 60cb 293d 27c1 e4bb
00000350: 2b9c 10bd 3967 a03c c8e5 bcbc 5c56 a33d
00000360: a257 443d 38e3 c3bc 9f12 c13c dd41 f73c
00000370: 9994 5c3d 9326 a8ba 4001 323c 9b8e c7bc
00000380: 8268 403c b9eb bdbc db52 1c3d f746 a1bb
00000390: f88c 2e3d c672 0bbd 1c4c 3e3c aa0e 91bd
000003a0: 489d 933c 718d 07bc 4b6e 05bd 15c2 7b3c
000003b0: d9c9 3abd fc62 94bd 3e24 d83c b198 993c
000003c0: b191 ebbc a36f ec3c 2178 4dbc 5099 92bd
000003d0: 5500 c63c 1d4b 62bc 8d86 883c ccdb bb3b
000003e0: a9c9 0cbd d9d8 2cbd 62b4 0dbd fb3e b9bc
000003f0: 9996 97bc 22d7 013d 0139 4b3d c0bc 083a
-0.043649293 0.020817695 -0.071976654 0.0047205095 0.009651979 -0.0109811695 0.020676592 -0.011777327
0.009447623 0.03134164 0.1012478 -0.0016104862 -0.034128275 -0.035070956 -0.041872535 -0.016365713
-0.03347741 0.014234086 -0.06462571 -0.008196845 -0.023285408 0.018902125 0.012098058 0.005595981
0.049298592 -0.064891525 -0.051749397 0.020101923 -0.007003708 -0.010598483 -0.027387202 -0.008516889
0.056292247 0.03991887 0.07826482 -0.04474142 -0.00020323216 0.024408108 0.00881217 -0.029035421
0.027625848 -0.16649565 -0.021850117 -0.0038368134 -0.079001226 -0.05736629 -0.017350938 0.04370831
-0.079107866 -0.02779118 -0.025332654 0.002304296 -0.03864455 0.016226688 -0.011436612 0.0362438
0.017350107 -0.020635044 -0.0020437252 0.022314027 -0.022295235 0.04431589 -0.0318667 -0.0018523656
0.044234324 -0.026518868 0.035824187 -0.051512424 0.01128567 -0.06914181 -0.07165116 -0.028579483
-0.06615039 0.010350031 -0.0046524033 -0.043679785 0.049949158 -0.029997272 0.038956758 -0.05273462
-0.01653587 -0.027651979 0.021225244 0.023707783 -0.0023715226 0.052937686 -0.017604787 0.0425246
0.03103627 -0.059418593 0.030005274 0.013721702 0.012526213 0.014610613 0.01888657 0.044419333
-0.0074149393 -0.016210549 0.030819107 0.0018819369 0.047040787 0.060788974 0.024335925 0.015434657
0.021821044 -0.008495945 -0.015304724 -0.017847043 0.015828472 0.004442602 0.008979331 -0.05217295
0.060355682 -0.059131354 -0.018445404 0.020475354 -0.06607033 0.041205492 -0.055398043 -0.008772993
0.021262864 -0.049046423 0.023797313 -0.018687198 -0.014607861 -0.03255547 -0.026031887 0.046379898
0.05265479 -0.018122531 0.021121712 -0.1577461 0.030650347 -0.013518383 -0.019392267 -0.06704993
-0.07932455 0.0043578446 0.029721119 -0.06648565 -0.023723174 -0.030118782 0.024313182 0.0016736675
-0.011968039 0.0034842792 0.04358283 0.011989514 -0.06740884 0.06270954 -0.02004277 -0.036280505
0.031870157 -0.034063205 0.010918049 0.010285538 -0.01662047 -0.054775193 0.026591677 -0.04679782
0.051097073 -0.029393729 0.0057731485 -0.06569984 0.025453286 0.022847157 0.09232397 -0.08840023
-0.007936775 0.019667 0.032734927 0.058864992 0.009295953 -0.0012385262 -0.027225306 -0.019189108
0.02787533 -0.0034795313 -0.015986132 0.0042599817 0.01092419 0.011107832 0.038057067 -0.083230644
-0.010095833 0.022820279 8.699308e-05 -0.055598877 0.0378259 0.07611471 0.018125387 -0.024659438
0.02380002 -0.017134903 0.019810298 -0.044685364 0.076028846 -0.02427352 -0.044170115 -0.04512037
-0.020766357 0.0034695808 0.00045052293 0.053359747 0.052877113 -0.033258006 -0.013244144 0.002033696
0.04040611 -0.008790415 0.04145372 -0.0069810334 -0.035305183 0.01958047 -0.023058787 0.07975456
0.047935136 -0.023912057 0.02356845 0.030182773 0.05385265 -0.0012828879 0.010864556 -0.024359992
0.011743667 -0.02318369 0.038164955 -0.0049217897 0.042614907 -0.034045003 0.011614826 -0.07082875
0.018019333 -0.008273468 -0.032575887 0.015366097 -0.045602653 -0.07245442 0.02638447 0.018749567
-0.028755995 0.028861826 -0.012540848 -0.07158148 0.02417008 -0.013811854 0.016665721 0.005732989
-0.034372006 -0.04219899 -0.034595855 -0.02261304 -0.018504428 0.031699307 0.04961491 0.0005216114

linear2.bias f4 [300]
00000000: 7979 18bd d297 babc 6d97 e1bd 34df 36bd
00000010: b9ed b6b9 ef67 04bd bee5 81bd 8f2d 0fbd
00000020: 1092 adbc 7c82 dabd c243 68bd c86b d6bc
00000030: 451f aabc 2806 10bd 3d32 6fbd ed3c 4ebd
00000040: 4497 d7bd 46a0 7bbd c9e8 a3bd cd89 a9bd
00000050: 4679 75bd 4fd6 a1bc af7b 40bd 3cab 9fbd
00000060: af6c d2bd f59a 48bd 551b 6ebd 4fce 81bd
00000070: bcf4 d9bd 9338 cdbd ff96 0bbd 5f2a f2bc
00000080: 2471 6c3d bd9c a4bc 710b 3b3c ab1e c0bd
00000090: 60b5 8439 eb80 d6bc 3f77 c9bd 94df dfbd
000000a0: 6e2e bfbd 125e 74bd 6ccb 50bd 8dae a6bd
000000b0: 539a 44bd c941 eabd 183b 94bd 2821 58bd
000000c0: 6ca6 d2bc 4704 cdbd efc0 8abd 0643 c8bb
000000d0: 80f9 0ebb a7c3 dc3b 57d0 86bd e73d a6bd
000000e0: d70d 43bd 7b58 c0bd de4d 89bd 2fa1 85bc
000000f0: 218d b6bd c5bb 1abd 65e0 aabb 8ac4 b7bd
00000100: db63 54bc 605d 12bd 3a93 31bc 230d bd3a
00000110: 0337 8dbd b6dd bdbd b490 1cbd e8d6 1abd
00000120: 795a afbd d2db 37bd d0e5 afba 62b8 b9bd
00000130: 7752 8fbd d85d 7b3d 1ddd abbd 94f6 083d
00000140: abbe 8fbd 84b5 13be d720 44bd dc46 e2bd
00000150: 941b 83bd 9f15 46bc 6c77 743d fbb7 87bd
00000160: 9055 f7bb d539 303d 94ee d0bd 1285 12bd
00000170: bf9e d8bb 07b2 f0bd 75d9 acbd d833 1ebd
00000180: 7a41 1cbd 035f e4bc 6970 e9bd 9dd1 6fbd
00000190: 537f efbb 07b5 83bd acd0 34bd 4b25 8ebd
000001a0: d9a0 69bd e3a3 4bbd 650d de3c bd2a e9bc
000001b0: 62fb b2bd 2044 51bd 2206 bb3c c050 5ebc
000001c0: eb32 b2bb a1e3 ef3b 5f60 c5bd 7d2a a9bd
000001d0: 8981 6fbd a02e 46bd e15c a9bd b4b5 dabd
000001e0: 2c71 b93b d8fa 1abd 9130 b7bc 86f6 adbd
000001f0: 9b76 48bd e6c2 09bd e410 87bd 0c99 36bd
00000200: e629 70bd cc46 d7bd c0ae 9fbd 63d9 c0bc
00000210: 75cd 2ebd 8372 7cbc 0eff fcbd 6d58 38bd
00000220: cf00 84bd 3401 bd3d 7f1a 18bd 0689 c1bd
00000230: e470 20bd fea2 00bd 494e 6abd 665c b2bb
00000240: 3138 ffbb 3754 04bd e6b0 10bd be98 79bd
00000250: c066 07bd 268b fcbc f855 5dbd 3744 88bd
00000260: fde4 783d 1068 33bd 8a2b 7abd b5a9 02bd
00000270: b62a 573b baab e8bc 1f79 44bd 65cc bcbd
00000280: 890e bfbd 7004 5fbd 42e5 f1bd 49be 28bc
00000290: 92a1 1ebc a619 d8bc dd0f efbc c857 9ebd
000002a0: df8d 023d 84d1 33bd 071a 5bbd 466d f7bc
000002b0: 1ac8 ddbc c95e 96bd 7771 4ebd 5679 06bd
000002c0: dc01 90bd 9bad 03bd 91b0 94bd 0af6 bfbd
000002d0: 0fc8 41bd 6b8b 4abd 1820 5abd 95a9 d13c
000002e0: 8ca4 d0bd 667d 39bd 31e6 22bd ef1d 8b3d
000002f0: 2bf0 8dbd 091a a1bd ed35 853d c75f 4cbd
00000300: d838 083d e5e0 d8bd e4d3 9cbd cb46 69ba
00000310: e7d0 88ba 754a afbd 821d 1ebd 8e66 b2bd
00000320: 17ac 553d b04b 90bd 3594 aabc 280f 28bd
00000330: a802 1bbd d211 44bd 6c47 7e3d 4b33 ebbb
00000340: 69f2 a4bd cf65 c8bd 3902 babc 8637 a0bd
00000350: 9157 cdbd 8997 a3bd bf3d 4ebc 9976 afbd
00000360: 535d cabd 699d aebd e90a e3bc 2a5c 34bc
00000370: a393 15bd 0760 cdbd 303c 9dbd 5e26 bebd
00000380: fd57 02bd c053 21bd f243 7cbd bc65 9cbd
00000390: d7cb cdbd 6300 3ebd 4ae6 b2bd d7bf 3ebd
000003a0: 0b9c c93d 4a40 3dbc fba5 0abc 9660 70bd
000003b0: 8cfa dc3d 57a6 cdbd 4e12 bfbd 26b7 183d
000003c0: 7733 ec3b 676b d53a b2f0 33bd 9d76 a3bd
000003d0: a2bb edbc d642 76bd 6d60 a6bd 39f0 6ebd
000003e0: 6dea 28bd af95 0cbe 4c3d e5bd 8ee1 433d
000003f0: dd65 69bd 72e5 b8bd 7d9b abbd e045 58bc
-0.03722522 -0.022777472 -0.1101521 -0.044646457 -0.00034890862 -0.03232568 -0.06342648 -0.034955557
-0.021187812 -0.10669419 -0.056705244 -0.026174441 -0.020766864 -0.03516212 -0.05839752 -0.050351072
-0.105268985 -0.061432146 -0.080033846 -0.082782365 -0.05993011 -0.01975551 -0.046992954 -0.07796332
-0.10274636 -0.048975904 -0.058131535 -0.06338178 -0.106423825 -0.10020556 -0.034079548 -0.02956122
0.057725087 -0.02009427 0.011416302 -0.093808495 0.00025312137 -0.02618452 -0.098371975 -0.10931316
-0.09335028 -0.059660025 -0.05097525 -0.08138762 -0.047998738 -0.11438329 -0.07237834 -0.052765995
-0.025714122 -0.100105815 -0.067750804 -0.0061115054 -0.0021816194 0.0067371908 -0.065827064 -0.08117276
-0.04762062 -0.09391876 -0.06704305 -0.01631221 -0.08913637 -0.037776727 -0.005214738 -0.08973034
-0.0129632605 -0.03573358 -0.010838324 0.0014423471 -0.06895258 -0.09270804 -0.038223937 -0.037802607
-0.08562178 -0.04488737 -0.001341993 -0.09068371 -0.06998151 0.061368793 -0.083917834 0.03343828
-0.07018789 -0.14424711 -0.04788288 -0.110486716 -0.064017445 -0.012090116 0.059684202 -0.06626888
-0.0075480416 0.043023903 -0.10201755 -0.035771437 -0.006610721 -0.11752706 -0.08439914 -0.03862366
-0.03814838 -0.027877336 -0.11398394 -0.058549512 -0.0073088794 -0.064310126 -0.044144318 -0.06940707
-0.057038162 -0.04971684 0.027105996 -0.028462762 -0.08739354 -0.05109036 0.022830073 -0.013569057
-0.005438199 0.0073208367 -0.09637522 -0.08260057 -0.058473144 -0.04838431 -0.08269668 -0.10679188
0.005659243 -0.03783688 -0.022362025 -0.08494286 -0.048941236 -0.033633135 -0.065950185 -0.04457955
-0.058633707 -0.1051155 -0.07797003 -0.023541158 -0.042676408 -0.015408161 -0.12353335 -0.045006204
-0.06445467 0.09228745 -0.037134644 -0.09449963 -0.03917016 -0.03140544 -0.057203565 -0.0054431437
-0.007788681 -0.032306876 -0.035324953 -0.060936682 -0.033056974 -0.03082807 -0.054037064 -0.06653636
0.060765255 -0.043800414 -0.06107668 -0.031900126 0.0032831854 -0.028402198 -0.047967073 -0.09218673
-0.09328944 -0.05444759 -0.118113056 -0.010299274 -0.009682076 -0.026379418 -0.029182369 -0.07731587
0.03187358 -0.04390098 -0.05349162 -0.030203473 -0.027072955 -0.073422976 -0.050401177 -0.03283056
-0.07031605 -0.032147985 -0.0726024 -0.093731 -0.04730993 -0.049449366 -0.053253263 0.025593558
-0.10187635 -0.045285605 -0.03977031 0.06792819 -0.06930574 -0.07866294 0.06504426 -0.049896028
0.033257335 -0.1058977 -0.076576024 -0.00088987936 -0.0010438234 -0.085591234 -0.03860236 -0.08710967
0.05216607 -0.07045686 -0.020822624 -0.04103008 -0.03784433 -0.047868557 0.062079832 -0.0071777455
-0.080540486 -0.097850434 -0.022706138 -0.0782309 -0.100264676 -0.079878874 -0.012587964 -0.085675426
-0.098810814 -0.08526117 -0.027715163 -0.011008302 -0.03651775 -0.100280814 -0.076774955 -0.09284662
-0.031822193 -0.03938651 -0.061588235 -0.07636592 -0.10048645 -0.046387088 -0.087353304 -0.04656967
0.09844216 -0.011550972 -0.008462424 -0.05868586 0.107899755 -0.100414924 -0.09329663 0.03728404
0.0072082835 0.0016282619 -0.043930717 -0.07981608 -0.029020134 -0.060122333 -0.081238605 -0.058334563
-0.04123919 -0.13728975 -0.11193332 0.047822528 -0.05698191 -0.09028138 -0.083792664 -0.013200253

linear3.weight f4 [2, 300]
00000000: 3306 02be d7b5 a3be 43d1 e33d 3d4e d43d
00000010: b280 cd3d 3f31 65bb 4692 24be 4bc9 82be
00000020: 84c3 ae3c 7cfb d03c afd5 f2bc fc92 903d
00000030: 8806 1cbe 4d35 6fbe a843 11be 1f64 af3e
00000040: 470d bdbe 7fb5 013e 969a 4ebe 1aee 2abe
00000050: 4ae2 d0be 697c ef3e 6a22 9f3e fafb 77bd
00000060: 46e1 1b3e 0a86 c13e bbac a3be d96e 8cbe
00000070: fa20 633e 4f94 3ebe 9255 42be 94ae 40be
00000080: 6a4b 9dbb 2a25 923d 46b6 acbe 340c d8be
00000090: 90c3 6ebe 0eca f93d 22fe 093f 8449 473e
000000a0: c39f abbe b0b6 3dbe b4be a5be 1dc0 963e
000000b0: ea31 913d 2338 c73d 5418 30be 5f12 a43d
000000c0: 6167 c5bc 2acd c5be f82d 92bd 1adb 293e
000000d0: 8fa3 953d 02e3 93be d8cf 21be c0e7 a93e
000000e0: e46e a4be bc2f 933e 9569 7dbe 9af9 3c3e
000000f0: 960b 3a3b c0e4 933e 0b6d 0c3e 54b9 ce3d
00000100: 8715 653e 205b b6be 1737 e83d 2cc9 aebd
00000110: 76e2 adbe d11c 763d e9b2 5ebe d511 54be
00000120: b758 ccbd 2120 59be bb95 0d3e 5b3e 9bbe
00000130: 7bfc 863e 7204 acbb 72ec 08be 9609 11bb
00000140: 74a3 363e ec99 073d d70f e53e ec1b 83bd
00000150: c013 1f3d ee05 68be b897 83be 04e7 c43d
00000160: ba38 87bd a2a2 323d 277b 16bd f494 df3a
00000170: 2198 113d 56a7 fe3d 0937 e1bd 70fa 203e
00000180: 330a 83bd e0b1 d23d 533f 9ebb 9d3a a0be
00000190: 5187 14be 3858 633e afae 253e bfda f23e
000001a0: 846d 93bd f211 dcbe 2afd 9bbe 1121 0d3d
000001b0: c195 473b 4f23 41bd 4b22 ecbd e391 67be
000001c0: 2356 b6bc b74a c3be 2b5a 0f3e 9f43 09be
000001d0: 9256 113e eed9 82be 30a9 04be 7c00 bfbd
000001e0: e152 e5b9 672c ddbe 211f 113e 2b5f d73d
000001f0: e64a 43be 0516 7d3d d534 42bd 0c16 b9bc
00000200: 1ac1 393e e567 1bbd 6b4b a1be 7283 1fbe
00000210: 0668 5dbe cc22 153e 2205 1dbd f00a debe
00000220: b735 15be 7303 493c ccb0 113e a651 063f
00000230: 6d30 6ebe 1f27 1fbd d429 123f b709 f63c
00000240: 9889 0f3e 7f58 603e 8095 dfbd 827e 4abd
00000250: 715e 8a3e 8da3 c3bd 4a27 43be 4d5b c8bc
00000260: 1bbe 083d ae08 bdbe ea63 87be ee8a d83d
00000270: c418 bbbd 7f12 b13e ac60 41bc 458d 413d
00000280: ad75 01bd b471 2abd 1dc9 803e 8289 d1be
00000290: d7b7 ae3d 537e fabd 45e3 943c d034 3f3d
000002a0: 9901 c73c 6d18 8cbe 8313 a53e 90a7 5dbe
000002b0: 8a85 09be 94df b93d aae8 86be beda 17be
000002c0: 4c93 ecbe 9e35 b7bd 3103 00bc 68fd e73d
000002d0: 80fa a0be d278 cbbe 3701 c2bd 8d52 923d
000002e0: d4cc 4b3d 45c3 97be c870 123e a62c 673e
000002f0: 6e0e e7be a896 18be a2b0 ff3c ba48 c9be
00000300: c399 ab3d db2d 193c ee95 00be 18e3 4b3e
00000310: c47c 1cbe 71b6 9bbe 7191 7bbe dac3 b7be
00000320: a288 6c3e 5f5a 5d3d 1411 85be 0293 a1be
00000330: 6406 57be db26 a6be 1b8a 173e a953 1f3f
00000340: 4014 f53d abf0 283e 0f9c ac3d b832 5bbe
00000350: 8cde 503e dfb4 a13e adae c6be 407b 23be
00000360: 41c4 313d 4e86 3dbe f893 58be 3fa8 933e
00000370: ac95 81bd 3cdf 793e 2b72 f73d 775d 58bd
00000380: e17f 0f3f da5a f8bd 1850 b3be bc34 dfbd
00000390: a669 7cbe b3bd ff3d a5ad b2be 9592 22bd
000003a0: e8b1 43be 5b0f b4bc b786 513e d949 debe
000003b0: 96fa 10be d413 03be 068a 43be fec3 cbbc
000003c0: 1713 073e 540c c7be 4bb3 333e 0775 503e
000003d0: 4117 f03c 17d9 b6bd 7d53 873e ae31 fdbc
000003e0: 3546 11be e622 b93d 3000 adbe 8bda e0be
000003f0: 8467 66be 89c4 293c 2102 46be 3e0e 04be
-0.12697677 -0.3197467 0.11123898 0.10366485 0.10034312 -0.003497198 -0.16071424 -0.255442
0.021333463 0.025510542 -0.029642908 0.07059285 -0.15236866 -0.23360176 -0.14185965 0.34256074
-0.36924192 0.12666892 -0.20176157 -0.16692391 -0.40797645 0.46774605 0.31080943 -0.060543038
0.15222654 0.37797576 -0.3196772 -0.2742832 0.22180548 -0.18611263 -0.18977955 -0.18816596
-0.00480025 0.07135995 -0.33732814 -0.4219681 -0.23316789 0.12196742 0.539034 0.19461638
-0.33520326 -0.18526721 -0.32372057 0.29443446 0.070895985 0.09727504 -0.1719678 0.080113165
-0.024097146 -0.3863309 -0.07137674 0.16587487 0.07306587 -0.2888413 -0.15801942 0.33184624
-0.32115853 0.28747356 -0.24747308 0.1845459 0.0028388253 0.2888546 0.13713472 0.10093942
0.22371493 -0.35616398 0.113386326 -0.08534464 -0.33961838 0.060086075 -0.21747936 -0.20709927
-0.099778585 -0.21203662 0.13826649 -0.3032101 0.26364502 -0.0052495534 -0.13371447 -0.0022130958
0.1783579 0.033105776 0.44738647 -0.0640181 0.038837194 -0.22658512 -0.2570169 0.09614375
-0.066026166 0.04361213 -0.03673854 0.0017057941 0.035545472 0.124342605 -0.10996825 0.15720534
-0.0639843 0.10287833 -0.004829326 -0.31294718 -0.14504744 0.22201622 0.16179918 0.47432515
-0.07198623 -0.4298244 -0.30466586 0.034455363 0.003045425 -0.047152814 -0.11529978 -0.22614245
-0.02225787 -0.3814294 0.1399924 -0.13404702 0.1419318 -0.25556892 -0.12955165 -0.09326264
-0.00043740033 -0.4319794 0.14172031 0.10516199 -0.1907154 0.061788578 -0.047413666 -0.02259352
0.18140069 -0.03794088 -0.31502852 -0.15577486 -0.21621713 0.14564055 -0.038334973 -0.4336772
-0.14571272 0.012268889 0.14227599 0.52468336 -0.2326066 -0.03885567 0.57095075 0.03003393
0.14017332 0.21908759 -0.10917187 -0.049437054 0.27025178 -0.09552679 -0.19057956 -0.024457598
0.033384424 -0.36920685 -0.26443416 0.10573374 -0.09135583 0.34584424 -0.0118028335 0.047253866
-0.031606365 -0.041612342 0.25153437 -0.40925223 0.085311584 -0.12231126 0.018174777 0.046681225
0.024292754 -0.27362385 0.3224145 -0.21645951 -0.13429847 0.09075847 -0.26349384 -0.14829537
-0.4620613 -0.089457735 -0.007813261 0.1132763 -0.31441116 -0.39740616 -0.09472888 0.071446516
0.049755886 -0.29641166 0.14300835 0.22575626 -0.45128196 -0.14901221 0.031212155 -0.39313298
0.08378937 0.009349312 -0.12557194 0.19910848 -0.1528197 -0.3041263 -0.245672 -0.3589161
0.23098996 0.054041263 -0.25989592 -0.3155747 -0.20998532 -0.3245152 0.14798777 0.6223703
0.11966753 0.16498058 0.08428203 -0.21406066 0.20397395 0.31583306 -0.38805142 -0.15964985
0.043400053 -0.18508264 -0.21150196 0.288393 -0.06327376 0.24401563 0.12082323 -0.05282351
0.560545 -0.121267036 -0.35022044 -0.1089873 -0.24649677 0.12487354 -0.34898105 -0.039690573
-0.19110835 -0.021979978 0.20461546 -0.43415716 -0.14158091 -0.12800533 -0.1909562 -0.02487373
0.13190876 -0.38876593 0.17548864 0.20357142 0.029307963 -0.08928125 0.26430884 -0.030907478
-0.14186938 0.090398595 -0.33789206 -0.43916735 -0.22500426 0.010361799 -0.1933675 -0.12896058

linear3.bias f4 [2]
00000000: 452f 233e 906f ad3d
0.15936 0.084685445

norm1.weight f4 [400]
00000000: 7506 223f 2db6 8f3e 4edc 123f 98e1 863e
00000010: 7d79 703f 69f2 4f3f a260 b03e 89d0 5a3f
00000020: 7a8d 1b3f bf2a fa3e 1c71 593f ba28 1b3f
00000030: 8404 7c3e 4b65 5a3f 0481 993e 5430 ef3e
00000040: 3e16 dc3e 90b4 e53e 5b6c c03e e200 513e
00000050: 5ae6 a73e 2e6d c83e a26b ea3e 2145 0b3f
00000060: 1756 583f 901a 333f 36de 2f3f 69cc 0f3e
00000070: 7c9f db3e de72 6e3e e736 fe3e 0cc4 b73e
00000080: 2977 e23d b529 033f d2f7 593f 3fd0 653f
00000090: d0b3 583f 9f0b ea3e f5b0 443f abc1 4d3f
000000a0: 14e0 c8bd d47b fc3e ce92 af3c 810c 743f
000000b0: 3a39 8d3e 55f3 283f fd92 5b3f f2c6 fa3e
000000c0: 8716 383f c20f c33d 6610 103f be75 213f
000000d0: f794 193f b2df 9f3e 8a24 ce3e ba97 043f
000000e0: ef65 413f bfe2 56bd 6627 553f c43c 4d3f
000000f0: 20eb 593f a638 d13e a2a5 143f 3602 e03d
00000100: e957 6abc 93f1 ad3c e98a 963e 5472 543f
00000110: 8913 1a3e 8c88 423f 772e 023e 0d51 6a3f
00000120: 6c15 623e fab9 873e 0cc2 513e 5b23 263f
00000130: 83fc 5d3f 32d7 cb3e 45c3 3c3f e7f5 ff3e
00000140: 1993 013f ea35 133f 630c d03d 0ce3 333e
00000150: 0b59 713f d19e 7f3f b64a 183f 5121 693f
00000160: 3fd6 d83e 7834 033e df58 a4bd e51a 553f
00000170: 8367 1f3f b12c 9f3e 182b 6b3e e810 233f
00000180: 193d 3a3f 2cb4 4c3f e1d7 253f dc29 4b3f
00000190: d06e 453e ab60 083f d38b a83e ab4b 413e
000001a0: 748e 933e 263d 643e c584 233f a485 893e
000001b0: 6b2e 443f 04d7 353f b48d 233f 4171 c93e
000001c0: 1c40 a5bc 00ae 453f c555 e33e dda8 393f
000001d0: ae80 793e 1765 a73e 1fa5 1d3f ec9d 733f
000001e0: 1d8c fc3e 7b4a 403f c651 cb3d ef58 d23e
000001f0: ce51 6f3f 1f5e 1f3f 688b 8d3e 9aa2 c13d
00000200: 2959 aa3e 7cc6 dd3e c819 513f 8257 873e
00000210: 64a2 473f 4f2c 203e 03b1 133f 3781 003f
00000220: a6a6 483e ca34 623e e280 e23d 94cf e53e
00000230: 14b2 623f db26 a03d 18de 073f 0302 603f
00000240: 5ffe 583f 56c4 113e 9253 c13e df82 293f
00000250: 3b18 d23e 5163 3e3f 3af2 163f f6df 393f
00000260: 258c 8c3e e1ba 253e f438 443f fb54 343f
00000270: 398b 3c3f 2fc4 4b3f 99fe ce3e 7e92 543f
00000280: 7985 223e 72b8 5b3e 6fde bebd 42be 1a3e
00000290: 4bf0 923e 7dfc 0b3e decf 483f 52ed fc3e
000002a0: 37b3 703f d6c7 2b3f b54f 343d 1690 683e
000002b0: df06 583e ea22 2b3f 62ef 013f e7ff 313e
000002c0: 5f84 f43e 0cfb b63e 7f2e 6e3f d311 2b3e
000002d0: d59f 4d3f 152d 063f 0940 463f bcae 933e
000002e0: 3a4a 093d 10dc 973e f923 ae3d 1d1e 503f
000002f0: 4a29 363f c547 5e3d 8cc3 bc3e 4282 9b3e
00000300: 253e 133f 1ad9 473f fdff 6b3f bd90 3d3f
00000310: ad83 4b3f 3082 643d 767d 693f 2b3d ce3d
00000320: 8c5e 0f3f 5114 353e de30 333e 333d 053f
00000330: bec4 c4bc 54ae 8c3e 4c50 523f f016 6f3e
00000340: 5825 803e b307 2d3e b61a 8a3e adda 373f
00000350: 5dc2 923e 8918 043f 98b0 cf3e c292 a73e
00000360: 0332 933e 5b36 a63e 8b77 173f a919 2c3f
00000370: 0b83 3a3f d012 433f 48f5 8b3e afdb a3bc
00000380: 5bbd 253f 6a5e d53c 6aeb 383f 2b47 3f3f
00000390: 7f64 683f bf17 2a3f c616 493f aa43 1c3f
000003a0: 25ec 0a3f d6bf ab3e 73c8 613f a314 193f
000003b0: 6911 1d3e a182 5a3f 264a aa3e 8f54 a93d
000003c0: 71ed 8b3e 7b6c 393f ce3c 433f c28e 453f
000003d0: adf3 b8bb dbe4 6a3f 8c7b 603d 2075 fc3e
000003e0: 1001 9e3d 18ed 743e b108 ec3e 2f01 843e
000003f0: 4b2a 333e 2e0b 5e3f b6a7 c33d 8ef2 4e3f
0.632911 0.28068677 0.5736741 0.2634399 0.93935376 0.81229264 0.34448725 0.8547445
0.6076275 0.48860738 0.84938216 0.6060902 0.24611098 0.8531081 0.29981244 0.4671656
0.4298572 0.4486432 0.3758267 0.20410493 0.32792932 0.39145797 0.45785242 0.5440236
0.8450636 0.69962406 0.6869844 0.1404282 0.42895114 0.23286006 0.49651262 0.3589176
0.11057884 0.51235515 0.8514377 0.89770883 0.8464937 0.4571199 0.76832515 0.8037364
-0.098083645 0.49313223 0.021432307 0.9533158 0.27582723 0.65996295 0.8577116 0.48979908
0.71909374 0.0952449 0.5627502 0.63070285 0.5999293 0.31225353 0.40262252 0.51794016
0.75546163 -0.052462336 0.8326324 0.80170846 0.851244 0.40863532 0.58065236 0.10937922
-0.014303186 0.021233356 0.29402855 0.8298695 0.15046515 0.75989604 0.12713037 0.91529924
0.22078484 0.26509076 0.2048418 0.648977 0.8671343 0.39812618 0.7373546 0.49992296
0.5061508 0.5750414 0.101586126 0.1756708 0.94276494 0.9985171 0.59489 0.9106646
0.42350957 0.12812984 -0.08024763 0.8324416 0.6226732 0.31088784 0.22965658 0.6369767
0.7274948 0.7996242 0.6478253 0.7936075 0.19280553 0.53272504 0.32919177 0.18876521
0.2881962 0.22288951 0.63874465 0.26859772 0.7663333 0.7103121 0.63888097 0.39344218
-0.020172171 0.7721863 0.44401374 0.7252329 0.24365494 0.32694313 0.6158008 0.95162845
0.49325648 0.7511365 0.099277064 0.41083476 0.934842 0.6225299 0.2764542 0.09454842
0.3327115 0.43315494 0.81679964 0.2643395 0.77982163 0.15641902 0.57691973 0.50197166
0.19594821 0.2209045 0.11059739 0.44884932 0.88552976 0.07819911 0.53073263 0.8750307
0.8476314 0.14235052 0.37759072 0.6621532 0.4103411 0.74370295 0.5896336 0.7260736
0.27450672 0.1618457 0.76649404 0.7044217 0.73649937 0.7959623 0.40428618 0.8303603
0.15871228 0.21457079 -0.093197696 0.1511164 0.28698954 0.13670535 0.7844218 0.4939981
0.9402346 0.671018 0.044021327 0.22711214 0.21096371 0.6685015 0.50755894 0.17382775
0.4775724 0.3573841 0.930397 0.16706018 0.8032201 0.5241254 0.7744146 0.2884425
0.033518054 0.29660082 0.08502955 0.8129595 0.7115675 0.054267664 0.3686794 0.30372816
0.575167 0.78065646 0.9218748 0.7404898 0.79497796 0.05578822 0.91207063 0.100702606
0.5600364 0.17683531 0.1749911 0.5204651 -0.024019595 0.27476752 0.82153773 0.23348594
0.2502849 0.16897468 0.26973504 0.7181805 0.28663912 0.5159994 0.40564418 0.32729155
0.28749093 0.32463345 0.59166783 0.67226654 0.72856206 0.7620058 0.27335572 -0.020002214
0.6474206 0.026045997 0.72234213 0.7471797 0.90778345 0.66442484 0.78550375 0.6104075
0.5426658 0.33544797 0.88196486 0.59797114 0.15338673 0.85355574 0.33259696 0.082680814
0.2732959 0.72431153 0.76264656 0.77170956 -0.005644283 0.91755456 0.054805323 0.4930811
0.077150464 0.23918569 0.4610038 0.25782153 0.17496602 0.8673581 0.09553473 0.8083886

norm1.bias f4 [400]
00000000: 606d dbbd 6326 a7bd 0caf 543d ac77 10bd
00000010: 2bff 96bd 7ed2 4e3d 2e4f dcbd 1e36 40bd
00000020: be68 24be 1867 19bd 1ff7 01bc b26b 09be
00000030: 9604 86bd a510 abbb 15b9 30be caaa b9bd
00000040: 7b07 a63d 320a f23d 7b16 7a3d b367 843e
00000050: 33eb 3ebe 9a1c d53d 1d4b 1dbe 6cd9 aabd
00000060: 6f52 edbc 3053 083e 4714 bc3d 453c 16be
00000070: 20d8 08be a246 24bd e1a0 12be a6c0 3abe
00000080: c742 03be 005a c9bd 44ef a23d 5a5c d3bc
00000090: f027 a8bd 58b2 96bd a346 57be 3f3c d6bc
000000a0: 3ed4 4bbe 3f71 04be d68a 39be d313 a5bd
000000b0: 0d87 a53d 7dce 42bd 9916 9c3a 2a84 c1bd
000000c0: 9099 193d b0a1 71be c9b9 10bd cff8 f5bd
000000d0: 810c 7bbd b7e7 e6bd a9fe 53be 6c0a c8bc
000000e0: fc3b 1bbe e215 64be ab91 a6bd df5f afbc
000000f0: 92d5 4ebe b23b dbbd a57e 32be 6466 63be
00000100: 1d4f 42be eab9 79be fc4d 363d 2f84 b0bd
00000110: c522 eabd 1100 9ebd 31cd 23be 9492 eabd
00000120: 4acf 0d3e 3702 e2bc f6bb 6ebe acd5 47bd
00000130: 76cb aa3d 35e0 60bd 27ce 8bbd 493e 37be
00000140: f627 76bd 9c6c c3bd 0d78 51be e1dd 76be
00000150: a65f 99bd 6831 6fbd 776b 0cbe b3bb bbbd
00000160: 314f d0bd 6986 1e3e 4ddc 2bbe 8b1b dbbc
00000170: 75d6 ebbd f760 5dbe 51ea e9bd d703 10be
00000180: 21d1 aabd 0246 f5bb 12ce 233d ae12 a0bd
00000190: 0027 4b3e 8aee d23d d9ac 0dbe 3b87 27be
000001a0: e174 3fbe 1791 38be 6bf2 e7bd dc68 223e
000001b0: cdad e33b fab0 4d3d bc7a a4bc e7f6 36bd
000001c0: 7d5b 4abe 36a8 06be 31ca dabb 194a 90bd
000001d0: 5692 fdbd b0ce d23d 7278 033d 49b9 84bd
000001e0: 95cb 273e d2e8 b4bd 3e10 163e d14d b23d
000001f0: 8530 cdbd e8d0 5abe e729 60be 97be 61be
00000200: fe42 5cbe 3e16 edbd 02c3 87bd 523b 0fbe
00000210: 7b42 83bd 8f87 4dbe 1908 abbc 82c7 66be
00000220: 76cd 123e d0d9 a53b de51 42be 9579 05be
00000230: 8fb6 b43b 99e0 d53d 815f a8bd d01e cbbd
00000240: 0fd1 c63d 6769 07be 25dd c6bc b922 d2bd
00000250: 13fb 173d 0f3b 933d a9f7 22bd 8083 ccbd
00000260: 34b0 4abd d78a 10be 8cae d0bd e10d aebd
00000270: d363 8cbd ac22 8b3d 987f 48bd 5b06 50bc
00000280: 87c5 e6bd 57ab 51be ce37 81be 651b 153e
00000290: 06a6 32bd 2329 0cbd 3af8 e1bd 0dcc 933d
000002a0: 6025 e0bd 5fd7 a0bd f3d6 8ebe 5be0 fdbd
000002b0: d6b0 d33d d18e 17be ffa1 fabd 07cd 56be
000002c0: be39 ebbc 9a30 24be 8080 453d aa43 1e3e
000002d0: 3bdf f0bd e44b 4a3d 4bce dbbd 3a9b e73d
000002e0: 3a7d 1bbe c324 1f3e fa12 54be 9772 19bd
000002f0: 98fc 853d fda6 47bb 6099 25be 0af1 18be
00000300: d3bc 7fbd e64c 93bd f37c c5bd f6a7 15bd
00000310: 2312 093e 20c4 75be 0f23 08be 654f 7dbe
00000320: 1e6d e9bd a994 f4bc 9129 ddbd bc85 28bd
00000330: 4f8a 30be e6b2 2abe c8e3 37be 37b7 ee3d
00000340: 9f8d dcbd 15d2 58be 114c 5fbd 89ba 28bd
00000350: 8bfe 14bd 6509 8abd 35c7 96bd 4311 82bc
00000360: e549 1fbe b229 dbbd 9059 aebd 2153 4cbe
00000370: 8d60 353d faa5 87bd 6496 74be 8da9 85be
00000380: 010c 00be 0b67 7dbe 71fd 2bbe 2e7b 33bd
00000390: 9d5b 18be f400 4e3d be74 c1bd 6525 933c
000003a0: 1af7 99bd 9567 dfbd 5e15 62bd dd35 0bbe
000003b0: b098 ff3d 3b40 95bc 52b9 a0bd f7e0 13be
000003c0: fb28 d2bd 6ff4 10be a73d bebd 012e cb3c
000003d0: 822f 28be c0f2 dabc 3411 383e bf1d 82bd
000003e0: 927c a8bc 6f06 4fbd 6fc7 2bbd 112a bd3d
000003f0: 92bf adbd 880d 1dbe 950c 8dbe b113 f6bd
-0.10714221 -0.081616186 0.05192475 -0.035270378 -0.07372888 0.05049371 -0.1075729 -0.04692661
-0.16055581 -0.037451833 -0.007932453 -0.13419989 -0.065438434 -0.00522049 -0.17258103 -0.090657786
0.081068955 0.11818351 0.061056595 0.25860366 -0.18644409 0.10405846 -0.15360685 -0.08342251
-0.028969971 0.13312984 0.09183555 -0.14671429 -0.13363695 -0.040106423 -0.14319183 -0.18237552
-0.12818442 -0.09831619 0.079557925 -0.025800873 -0.082107425 -0.07358235 -0.2102304 -0.026151774
-0.19905183 -0.12933825 -0.18119368 -0.08060422 0.080823995 -0.047560204 0.001190859 -0.094490364
0.037499964 -0.23596835 -0.03533343 -0.12010347 -0.06129122 -0.11274665 -0.20702614 -0.024419032
-0.15159601 -0.22273973 -0.08133253 -0.02140802 -0.20198658 -0.10704745 -0.17431124 -0.22207028
-0.18975492 -0.24387327 0.044507965 -0.08618962 -0.11432413 -0.077148564 -0.15996243 -0.11453739
0.13848606 -0.027588947 -0.23313889 -0.048787758 0.08339588 -0.05490132 -0.0682643 -0.17894854
-0.060096703 -0.095422 -0.20455952 -0.24108078 -0.074889466 -0.058396727 -0.1371287 -0.0916666
-0.101713546 0.15480961 -0.16783257 -0.026746532 -0.11515514 -0.2161902 -0.114216454 -0.14063965
-0.083406694 -0.007485152 0.039991446 -0.07816063 0.19839096 0.10299404 -0.13835467 -0.1636018
-0.1869693 -0.18024097 -0.113255344 0.15860313 0.006948209 0.050217606 -0.020078056 -0.04466906
-0.19761463 -0.13150105 -0.006676935 -0.07045383 -0.12381427 0.10293329 0.032097287 -0.06480653
0.16386254 -0.088334695 0.14654633 0.087062486 -0.1001902 -0.21368754 -0.21890984 -0.2204536
-0.2150993 -0.11576508 -0.06628992 -0.13987473 -0.064091645 -0.20071243 -0.020877885 -0.22537044
0.1433619 0.0050613657 -0.18976542 -0.13034661 0.0055149267 0.10443229 -0.08221341 -0.099179864
0.097078435 -0.13223802 -0.024275372 -0.10260529 0.037104677 0.07188999 -0.03978697 -0.09986019
-0.049484447 -0.14115463 -0.10189542 -0.08498741 -0.068549775 0.067937225 -0.048949808 -0.012696828
-0.11268144 -0.20475517 -0.25237888 0.14561231 -0.043615364 -0.03421892 -0.110336736 0.07216654
-0.10944629 -0.07853579 -0.27898368 -0.12396308 0.10336463 -0.14800574 -0.122379296 -0.20976649
-0.028714057 -0.16034165 0.04821825 0.154555 -0.11761328 0.04938878 -0.10732707 0.11308904
-0.15184489 0.15541367 -0.20710364 -0.037462797 0.06542319 -0.0030464523 -0.16171789 -0.14935699
-0.062435936 -0.071924016 -0.09642973 -0.036537133 0.13385825 -0.24000597 -0.13294624 -0.24737318
-0.113977656 -0.029856043 -0.10798944 -0.041143164 -0.1724026 -0.16669807 -0.17957985 0.11656039
-0.107691996 -0.2117389 -0.054515902 -0.04119352 -0.036375564 -0.06740073 -0.073622145 -0.015877372
-0.15555532 -0.10701312 -0.085131764 -0.19953586 0.04428153 -0.066234544 -0.23885494 -0.2610592
-0.12504579 -0.24746339 -0.16795899 -0.043818645 -0.14878698 0.050293878 -0.09446095 0.017962167
-0.07517834 -0.109084286 -0.05519616 -0.13594766 0.12480295 -0.018219104 -0.07847847 -0.14441286
-0.10261723 -0.14155744 -0.09289103 0.02480221 -0.16424373 -0.02672708 0.17975312 -0.0635333
-0.020567212 -0.050543245 -0.04193824 0.09236539 -0.08483805 -0.15337193 -0.27548662 -0.120154746

norm1.running_mean f4 [400]
00000000: 841d e741 d44c c73f 8b9c 4142 4680 7a40
00000010: 6300 5241 1fc5 3242 22de 1141 8da0 2a42
00000020: 316e 7640 f63b 0a41 1f14 8741 4f6e 6541
00000030: 789c 9741 d61a 7242 0f64 6f40 7891 7641
00000040: 38f7 c741 8e42 9542 bb42 de41 4d20 1641
00000050: 8895 7441 65d2 0442 4ab9 9940 74ae b241
00000060: 78fa c140 0b87 8c41 0a63 7740 ccc9 6a40
00000070: 89e6 6341 b8b1 4440 e395 4c41 d620 3442
00000080: b1db 8c41 b229 083f 8550 9941 8838 cf3e
00000090: c9a2 3841 aa6b c041 ef24 a83e 1a0b 0f41
000000a0: 187d 5541 1775 b940 6f23 3942 45bd fb41
000000b0: 0e86 d83f 2188 7642 4090 1441 88bb bb40
000000c0: 7f20 2542 99db 3441 f178 0842 a7a4 1841
000000d0: 9b77 5541 3267 0e40 6d61 6141 18a5 dc40
000000e0: b0e5 ae41 c154 b141 3982 a241 6803 ae41
000000f0: 30be 1042 babd e041 7e15 6e42 49db 8e41
00000100: c30b 8541 ff17 d841 b802 0242 0f17 f340
00000110: 3758 f041 f91e 1442 4605 bd3e 9272 3341
00000120: d410 e841 60f7 7742 bd09 e740 c7e4 a641
00000130: c0bf db41 ba6d 5b40 c74f 1340 3eed 3642
00000140: d461 c941 fda9 c040 213f 3841 13e1 9142
00000150: 9b04 1340 efe0 2141 50c4 b940 898b ca41
00000160: 5df6 8c41 ee48 0142 41fe 9541 35ae 0242
00000170: 6c42 3740 f7b8 e041 415f 3f41 94c9 3d41
00000180: 9729 7640 b76d 9040 b95d 5f41 1793 ef41
00000190: 4372 7742 df3e 9541 bcdc 3b41 b374 a741
000001a0: 15f4 8341 8158 1241 3729 5d42 4bfd 9d41
000001b0: 7ced 3340 0ff7 f03f ba07 0d41 70f8 8441
000001c0: 7bb7 7940 afb7 9641 b3a3 4141 fd61 0041
000001d0: aa6e 8340 4847 7842 3955 9a41 eb47 4440
000001e0: 0b7e b740 8414 0341 207c 6142 35be 4542
000001f0: 8d5c ad41 daa1 4441 24e7 6c41 a756 1941
00000200: 5493 b240 b244 9441 f325 f73e f86c d43d
00000210: a20d 9e41 f588 9d40 1474 a241 25f9 7f41
00000220: ddb3 f33f 9f90 b640 316d bf40 408c 933d
00000230: f3e1 413f c718 8540 9ecd bf3f 132e 5041
00000240: 0b0e c540 4348 0f42 f3ed b541 c3b6 4441
00000250: 6e0c 2c42 5f87 f541 6aea ab41 1753 1541
00000260: 6a4d 6641 a642 3041 e93a 0f41 3f42 7242
00000270: 9969 5941 74ba ac41 2dbd a441 7247 f740
00000280: 69bd 5f41 6c3f d040 93d4 b641 3f4b 1b42
00000290: b4c6 2542 f777 8c40 1273 2741 ddab 773e
000002a0: 26dc c43f 684f 9241 26de cb41 792a ca41
000002b0: 9e39 333f f8dc 0a42 47f4 9b41 8d9b 6141
000002c0: a4f7 a141 ef82 d341 1dbf b940 d5eb 2d42
000002d0: 8034 5f40 2a9c 1c40 8223 5d41 aa79 6d40
000002e0: 1312 ff41 35b6 1c42 657a 1b42 480e 8a42
000002f0: ea7d 2b42 8080 963e a734 e941 09f6 df40
00000300: 23c8 bb40 bf2d e041 36c7 5640 0bd8 db41
00000310: 7123 8940 2b3b 1b42 b6d3 2440 1098 1e41
00000320: 6533 8841 2107 4c41 7f45 5f42 d4bd 0441
00000330: 3912 2642 c95a a841 cf64 7241 e99f e241
00000340: dc45 4141 d073 8d41 e4b7 5541 efba 8741
00000350: 93c6 ea40 2367 0742 3504 3041 5604 8e41
00000360: df6e 4a41 c247 5941 1f79 5441 2103 ff41
00000370: cc9a ed40 f78d fa40 487d 9d41 0f1d 8641
00000380: adf2 4841 38fd 9241 d66c 5b40 77a0 df40
00000390: 8dd7 e341 1fed e73f 1a5e 8740 ca3e 2942
000003a0: b2f4 7541 2a63 3940 d8ee 6e41 843b 6e41
000003b0: 57a4 fc41 2c54 9642 4d80 0f42 d28d 0140
000003c0: eb79 043e b4ed 9440 09b0 2641 27a3 1042
000003d0: 7473 c640 2a75 a641 056e 3441 8958 a741
000003e0: 82be 6e41 f7f2 ac41 f84b bd40 5d7b ab3f
000003f0: 93a0 1941 b7de 5340 ab36 9842 f0b3 9841
28.889412 1.5570321 48.402874 3.9140792 13.125094 44.6925 9.116732 42.656788
3.8504755 8.639639 16.884825 14.339431 18.9514 60.526207 3.740482 15.410515
24.995712 74.62999 27.782583 9.382886 15.286507 33.205463 4.8038683 22.335182
6.061825 17.565939 3.8654199 3.6685667 14.243783 3.073347 12.786593 45.032066
17.607271 0.5318862 19.164316 0.40472817 11.539742 24.05257 0.32840678 8.94021
13.34304 5.795543 46.284603 31.467417 1.691591 61.63294 9.285217 5.866642
41.281734 11.303613 34.118107 9.540198 13.341701 2.2250485 14.086286 6.895153
21.862152 22.166384 20.313585 21.751663 36.18573 28.09264 59.52099 17.857073
16.630743 27.011717 32.502655 7.596565 30.043074 37.030247 0.36918086 11.215471
29.008217 61.991577 7.2199388 20.861708 27.468628 3.4285722 2.3017442 45.73168
25.172768 6.0207505 11.515412 72.9396 2.297156 10.117415 5.805214 25.318132
17.620295 32.32122 18.749147 32.670124 2.863429 28.090315 11.960755 11.861713
3.8462884 4.513393 13.9603815 29.946821 61.861584 18.655699 11.74139 20.931982
16.49418 9.146607 55.29025 19.748678 2.81137 1.8825396 8.814386 16.621307
3.9018238 18.83969 12.102466 8.023923 4.107259 62.06961 19.291613 3.0668895
5.734136 8.192509 56.371216 49.43575 21.67019 12.289515 14.806431 9.583655
5.5804844 18.533543 0.4827114 0.10372347 19.756657 4.9229684 20.306679 15.998326
1.9039265 5.705154 5.982079 0.07204485 0.75735396 4.1592746 1.4984624 13.011249
6.157964 35.820568 22.741186 12.29462 43.01214 30.6911 21.48946 9.332786
14.3939 11.016272 8.951882 60.564693 13.588281 21.591042 20.592371 7.7274714
13.983743 6.507742 22.853796 38.823483 41.444046 4.389644 10.465593 0.24186654
1.5379684 18.288773 25.48347 25.270739 0.7000979 34.71579 19.494276 14.100476
20.245918 26.438932 5.8045793 43.480305 3.4875793 2.4470315 13.821169 3.7105508
31.883825 39.177937 38.869526 69.02789 42.872963 0.29394913 29.15071 6.9987836
5.8681808 28.022337 3.3559089 27.48049 4.2855763 38.80778 2.5754218 9.912125
17.025095 12.75174 55.817867 8.296345 41.517796 21.044329 15.149611 28.328081
12.0795555 17.68155 13.357395 16.966276 7.33674 33.85072 11.001027 17.752117
12.652068 13.580019 13.279571 31.876528 7.425146 7.8298297 19.686172 16.764189
12.559247 18.373642 3.4285178 6.988338 28.48025 1.8119239 4.230237 42.311317
15.37224 2.8966775 14.933311 14.88953 31.580244 75.1644 35.875294 2.024281
0.12937133 4.6540165 10.417977 36.15933 6.2015934 20.807209 11.27686 20.91823
14.921511 21.618635 5.9155235 1.3397022 9.601703 3.3104684 76.10677 19.08786
