saved_runs/final_option_2_ddpg_agent_target_actor.pkl (torch_old, 508419 bytes, 14 tensors)

linear1.weight f4 [400, 6]
00000000: 7ce3 d63c 1850 733e 5fcb 82be 5547 77be
00000010: 0972 51be ca42 1b3e ebff 333e a838 b33e
00000020: f348 6e3b 567a 0fbc f34b d33b 3888 92bd
00000030: 1b11 cabe eb32 ffbe 6bc7 83bc 78fd 083e
00000040: 5a34 a63e f101 9c3e 6360 f0be 7cad adbe
00000050: 9273 83ba dfcb 9f3e 42a1 a6bd df96 673e
00000060: 65a9 95bd f7eb 083e f7c7 b03e d57c c8be
00000070: c957 99be 25d8 7ebd a826 ca3b 5390 ae3e
00000080: 8b1c 0abe e2cc 01be cdb1 e7be 15e6 dcbe
00000090: 717c 8bbe 5ae6 f93e 3c8b 57bc 434f af3d
000000a0: 67ba 303d 86ff 34be b585 f33d c37b a6be
000000b0: 040f 9fbe 2770 83be 328c 273e a6e1 573e
000000c0: 9371 83bc b475 b23d f36d 6b3e cc60 063f
000000d0: a350 3e3e 068b 9f3c f8c1 983e 4238 1cbe
000000e0: 2ca3 9f3d 8061 9cbe 1d65 a6be f8eb 25be
000000f0: 18dd 463e 011b 0d3e 8af4 80be eacc de3d
00000100: f8dd be3d c55f 1e3d d1a5 0dbd 2705 603e
00000110: b5fa c63d 348f f73e b129 babe 1618 e6bd
00000120: 87e5 1c3e c462 c43e 3844 803e cf5f b13e
00000130: 9a58 8b3d 5f7e febe e027 943d 1933 bdbe
00000140: 0bd3 99be 2b50 be3e e99e a83e c13e f4be
00000150: d886 153e 9aa6 e3bc cea9 ec3c 1e97 25be
00000160: 8d25 523e 5c37 6cbe 7f5e a23d 6bca 693e
00000170: a711 c33e 2182 ba3d f82f abbe ad8d 3cbe
00000180: dfa9 853e 07e8 873e 4253 52be 988a 54be
00000190: 21c4 ff3e 9d85 4e3e c32d ed3c c001 53be
000001a0: 75ba e2be 5981 523d 693a b9be 9aa9 68be
000001b0: 2083 c03d e074 843d cd48 93bd a2a5 2c3e
000001c0: ff95 cdbe 85f1 bb3e f74f a73d 9b29 11bf
000001d0: 41af 6c3c 1734 343e cdad ffbd 02c2 b13d
000001e0: 3913 ac3e 83a2 423d 71b4 e7bb 7bde 443e
000001f0: 2a89 03bf fd6d 92be e826 0ebe e1cf ecbd
00000200: f085 0ebe c397 b9be 5916 e5bd 52a6 fe3d
00000210: a0cd 65be 1427 a73d 2a31 963e 3925 12bd
00000220: 5c20 bf3c 2497 1ebd 41a2 b7bc 5386 983e
00000230: dce4 a33e 8911 993e a597 ea3e 5cc5 8d3d
00000240: a571 b3be 8336 4fbe 1a60 903e 7a9f ef3a
00000250: 4bcd 45be 0a7c 5ebe bf45 f8be ada8 fabe
00000260: 5d41 963a c931 9a3e 690d e23d c28f b2be
00000270: b227 833e ef18 a5be 010d eebd 8dc2 6dbd
00000280: 8dfc 24bd 0228 12be d2a8 04bf 0aa3 8fbe
00000290: 3e06 133b 58bd 41bd 987b 20be 9007 cb3d
000002a0: 8192 e6be 4d17 08be 7868 683e 6b2d 05be
000002b0: 3284 d83e 9e47 5d3e 7e2a ecbe 8c7a 3c3e
000002c0: 9920 183d 9b55 0abe a18f 2d3e f6e0 a6be
000002d0: 3c52 dcbc 39d7 94bd 063e 523e 10ff 093e
000002e0: dd86 653e ab7a 6e3e d01c ee3b 10c6 debd
000002f0: fcc0 adbe 6515 323e cacd 5c3e e4a8 9c3e
00000300: f9c2 8cbe e180 283e 86fc 81be b87c a1be
00000310: 15f7 9bbe d382 123e 3579 d5be bdd4 0bbe
00000320: 74ea eebb 6bc0 303e 65d4 95be f9a5 7ebe
00000330: e405 35be 0080 c13e 32cc 2fbd 5dc7 a03e
00000340: d1c5 1c3e 87e6 ae3d ef73 193d 8a21 ba3d
00000350: de6a ad3c 0d88 0dbe 9ccd 4fbd 9b6b dc3b
00000360: 33b0 7cbe be2a 84be e009 c53e b528 b9be
00000370: 9a10 763c 5cc6 8e3e d72a 5b3e 9321 c8bd
00000380: 5ac3 3dbe a003 673e 8ba8 cfbe 35d0 fbbd
00000390: 0ced 25be def2 233d 2fd7 423c 772f a93e
000003a0: f722 163e 4b55 d03e ae4d 8e3e 2b3a 8cbe
000003b0: 3ce9 413e aaad 56be d025 cabd ffbd 1c3e
000003c0: 3871 5f3e 3d57 c53e 836f b6bc d58b 5a3d
000003d0: 014e 9e3e 0311 cfbe be52 193d 8617 c0be
000003e0: 8d24 e5bb 656f b63e 985c d5bd f2ae 42bc
000003f0: 3ed4 f23e e495 943c 2a80 babd f12f 78be
0.02623152 0.23761022 -0.25545785 -0.24148305 -0.20453657 0.15162197 0.17578094 0.35004163
0.00363594 -0.0087571945 0.006448263 -0.07154888 -0.39466175 -0.49843535 -0.0160863 0.1337794
0.32461816 0.3047023 -0.46948537 -0.3392142 -0.001002895 0.3121023 -0.08136226 0.22616147
-0.073077 0.13371263 0.3452756 -0.3915774 -0.29949787 -0.06221785 0.006169159 0.34094486
-0.13487451 -0.12675813 -0.4525284 -0.4314429 -0.2724338 0.48808557 -0.013155755 0.0856004
0.043146517 -0.176756 0.11890737 -0.32516298 -0.31066144 -0.25671503 0.16362074 0.21082172
-0.016045367 0.08713856 0.22991161 0.5249145 0.18585448 0.019475471 0.29835486 -0.15255836
0.077947944 -0.30543137 -0.32499018 -0.16203296 0.19420278 0.13779832 -0.25186568 0.10878928
0.09319681 0.03866555 -0.034581963 0.21876965 0.09715787 0.48351443 -0.36359933 -0.11235063
0.15321933 0.38356602 0.25052047 0.3464341 0.06804009 -0.49705788 0.07234168 -0.36953047
-0.30043826 0.37170538 0.3293374 -0.47704127 0.1460222 -0.027789403 0.028889563 -0.16170928
0.20522137 -0.23067993 0.0792818 0.22831123 0.38099405 0.09106851 -0.33435035 -0.1841342
0.26106164 0.2654421 -0.20539573 -0.20755994 0.49954322 0.20168157 0.028952485 -0.20606136
-0.4428288 0.051392887 -0.36177376 -0.22720948 0.0940001 0.06467605 -0.0719162 0.16860059
-0.401535 0.36707702 0.08169549 -0.5670411 0.014446081 0.17597996 -0.12484322 0.08679582
0.33608416 0.047518265 -0.007071071 0.19225495 -0.5138117 -0.2859954 -0.13882029 -0.11563087
-0.1391828 -0.36248598 -0.11185903 0.12434067 -0.22441721 0.081617504 0.29334384 -0.03568003
0.02333086 -0.038718358 -0.022416236 0.2978998 0.32010543 0.2989619 0.4581882 0.06922409
-0.3504764 -0.20235638 0.2819832 0.0018281781 -0.19316594 -0.21727005 -0.48490712 -0.48956814
0.0011463572 0.30116108 0.11037714 -0.34875304 0.25616223 -0.32245585 -0.11623574 -0.058046866
-0.040279914 -0.14273074 -0.518201 -0.28054076 0.002243414 -0.047299713 -0.15672147 0.09913552
-0.4503365 -0.13290139 0.22696102 -0.13005607 0.42288357 0.21609351 -0.4612617 0.18406123
0.037140463 -0.13509218 0.16949321 -0.32593507 -0.026894681 -0.07267613 0.20531473 0.13476205
0.22414728 0.23288982 0.0072666183 -0.10877621 -0.33936298 0.17390974 0.21562877 0.30597603
-0.27492502 0.16455413 -0.25387973 -0.31540465 -0.30461946 0.14307718 -0.41694036 -0.13655372
-0.0072911326 0.17260902 -0.29263607 -0.24868001 -0.17678028 0.3779297 -0.042919345 0.31402102
0.15309836 0.08540063 0.03746408 0.09088428 0.021169122 -0.1382143 -0.050733194 0.0067266948
-0.2467659 -0.2581386 0.38484097 -0.3616387 0.015018607 0.2788571 0.21403061 -0.09772029
-0.18531552 0.22559977 -0.40558276 -0.12295572 -0.16203707 0.040026538 0.011892124 0.33044025
0.14661776 0.40690073 0.2779364 -0.2738813 0.18936628 -0.20964685 -0.098704934 0.15306853
0.21820533 0.3854312 -0.02226997 0.05335601 0.30918887 -0.40442666 0.037432425 -0.37517947
-0.0069928826 0.35631862 -0.104180515 -0.0118825305 0.47427553 0.01813788 -0.091064766 -0.24237038

linear1.bias f4 [400]
00000000: f0b4 ed3e 8d31 a23d e788 95be 1792 bdbc
00000010: ecf7 b1bc b2a8 433e a242 f1be 874c 82be
00000020: 0d6e 15bc 81a3 acbd 3af7 9bbe 0fc7 f53e
00000030: 571d a1bd ae3b 40be 0aa9 5b3e 9d32 84be
00000040: 25db dcbd ee37 813e 96f1 7dbe 0165 593e
00000050: c5d9 fc3d 9637 74be 3887 e5be 5322 283e
00000060: f4fb bb3e 2262 17bd b491 34be 698a 5abe
00000070: b5cf c1bd e5f9 c8bd 1201 df3d 876e 923d
00000080: 8c14 70bc abd2 2f3d 5f4c e83e 8605 fa3e
00000090: e5e2 fb3e a848 a4bd 7224 11be 5412 a5be
000000a0: a6e1 5d3e c8c0 823e 6206 b23d 75c1 adbe
000000b0: d5f4 20be 1af8 163f 7a3b ddbc c6fb 70be
000000c0: a3ec a0be 083d 8ebe 27f9 7c3e 18ba 5c3e
000000d0: 80e5 66be 2286 87be f779 693e 6f69 95be
000000e0: 4cee 58be 900f cabc 5a6c 153f 353c 993e
000000f0: 3d0e db3d 5e7a 013e 4962 c03e 6c5c 90be
00000100: 0604 013f f6d5 0c3e d717 453e 9b24 9fbc
00000110: e923 5ebe 4162 083f 3d2d 843e 8df9 86be
00000120: a1c1 9dbe 82d5 96bc 8e37 ad3e 2556 6bbe
00000130: 7f09 013f 340e debd 0c6c 16bf 9bc9 8d3e
00000140: e376 76be c658 96be 4e81 d1bc 0550 a7bd
00000150: e568 e7be f667 cbbe 3651 ca3c 91b9 003a
00000160: 8a65 a1be 0e8f e0bd e121 94be ffac 203e
00000170: a827 053e 1623 c43e d9ab 9bbe 83eb c23d
00000180: 4972 993e 2d35 cb3e d919 debe 8d59 b83e
00000190: 978c 1d3e 6a4e 143f ae6b a4be 7a3a 143f
000001a0: c4c8 01be d458 d5be 5c6d 293e 9a1b c23e
000001b0: 1002 1cbf b728 143d 6e96 6fbd 7cc9 a33e
000001c0: f267 933e 3cc1 c63d c5ee cbbe 35ad 2dbe
000001d0: e989 2e3d dbfe 9cbe c11d 9e3b 50f5 c0be
000001e0: 65e5 043e ff5c 023e caaa c8be 7290 acbe
000001f0: 9e22 813e 84f2 79be 2f98 973e f1b0 12bf
00000200: b894 38bd 6273 1a3e b0ca f5ba 6f32 98be
00000210: 5a14 793e 5490 9f3d bad6 e73e b961 f1be
00000220: d9e4 5dbe e4f3 b83e 462c d83d 0113 e7be
00000230: 100b 6dbe dc78 42bf d177 a3be ef0a a8bd
00000240: 1844 a8be 2db3 cabe cde6 6f3e 549f 9b3e
00000250: 87aa 2fbd 1a3c 1a3e cb24 ca3c ba06 813e
00000260: 88f4 82be d811 483d c1dd ce3e ba3e a33e
00000270: c6dd c7be eab3 9a3d 2814 443c e16e 36bf
00000280: bdd0 1ebf d76d fbbd c255 b03e d461 f9bd
00000290: 2cc4 bb3d 73cc 953e 9e8b 9bbd 6a8e 6f3e
000002a0: 8326 b03d bd7e 29be df9f 0c3e 79e6 f83d
000002b0: dfcf ab3e 2bfb bd3e 6b05 873d 3b07 b13d
000002c0: 1186 e6be 7315 b73e 63f1 ad3d 36c6 ffbd
000002d0: 18ef b0be abce 813e 3290 ce3d 5f80 103e
000002e0: dcba dcbd 7260 133f 01df f43e 0850 c23e
000002f0: 9a0e 12bd 85eb f03e ffbf 733e 8a8e 81bd
00000300: 5550 d1be 4342 05be a2f6 d7be 4ef8 cd3e
00000310: bc39 293f e035 733e 3e90 593e 0146 f53c
00000320: 2576 ce3e e359 3cbe ff64 fbbd ae89 fabe
00000330: 2c7d 28bd 23b0 6e3e 749b 193e 6bad 1cbe
00000340: 2ea8 393c a37f bbbe bb50 46bf c89b 563e
00000350: d28e d7be d43a 4c3e dc8c f9be b944 55be
00000360: 404e 1abe 6a81 bebe 3b66 9c3d ba89 033f
00000370: f4fc efbb fbb4 433e f8fb c53e 1194 493e
00000380: f37b bfbc 6f8f b4be 421b c83e 1d34 05bf
00000390: eb8d 613e 24ed d7bd 3488 85be 3a5d ebbd
000003a0: 4d76 9dbe d77a 2bbe e89a 14bb 46c3 c53e
000003b0: e04b bbbd 335b e83e 2730 a7bb 56ef 3abe
000003c0: bdeb d2bd dbf2 1bbd b80b e3bc ad80 2a3d
000003d0: f012 d93d 07d3 a63e 7713 223b cc90 2c3e
000003e0: 2e9c a93e b667 28bc 9275 763e 5824 703e
000003f0: f918 d53e c4fa 95be 989e 2f3e 464f 97bd
0.46427107 0.07919607 -0.2920601 -0.02314095 -0.021724664 0.19107321 -0.4712115 -0.2544901
-0.009120476 -0.084296234 -0.30462056 0.48003432 -0.07866924 -0.18772766 0.21451202 -0.25819865
-0.10783986 0.25237983 -0.24799189 0.21229936 0.12346224 -0.2384933 -0.44829726 0.16419344
0.36715662 -0.03695882 -0.17633706 -0.21341862 -0.09463445 -0.098132886 0.10888876 0.07149988
-0.014653336 0.042925518 0.45370767 0.4883234 0.49196544 -0.080216706 -0.14174059 -0.32240546
0.2166811 0.25537705 0.08692624 -0.33936659 -0.15718396 0.5897232 -0.0270059 -0.23533544
-0.3143054 -0.27780938 0.24704419 0.21555364 -0.22548485 -0.26469523 0.22800432 -0.29182002
-0.21184653 -0.024665624 0.58368456 0.29928747 0.10696075 0.12644336 0.37574986 -0.28195512
0.50396764 0.13753495 0.19247375 -0.019426635 -0.21693386 0.53274924 0.25815764 -0.26362267
-0.3081179 -0.018412355 0.33831447 -0.2298208 0.50405115 -0.10842553 -0.58758616 0.27692875
-0.24068789 -0.29364604 -0.025574353 -0.081695594 -0.45197216 -0.39727753 0.024696928 0.0004910464
-0.3152278 -0.109647855 -0.28932098 0.15690993 0.13003409 0.38308018 -0.30404547 0.095175765
0.29970005 0.39689007 -0.43379095 0.36005822 0.15385662 0.5793215 -0.32113403 0.5790173
-0.12674242 -0.41669333 0.16545624 0.37911683 -0.6094065 0.03617164 -0.05849307 0.31989658
0.2879024 0.09704825 -0.39830604 -0.16960604 0.04261199 -0.3066319 0.0048253243 -0.3768716
0.12978132 0.12730788 -0.39192802 -0.33703953 0.25221723 -0.24408919 0.29608294 -0.5730124
-0.045063704 0.15083078 -0.0018752422 -0.29725978 0.2432417 0.077912 0.4528101 -0.4714487
-0.2166933 0.36123574 0.105553195 -0.45131686 -0.23148751 -0.75965667 -0.3192735 -0.082052104
-0.3286445 -0.39589825 0.23427887 0.30394995 -0.042887237 0.1506199 0.024675747 0.25200444
-0.25577188 0.048845142 0.4040356 0.31883794 -0.39036387 0.07553847 0.011967696 -0.7126294
-0.6203726 -0.1227681 0.34440428 -0.12176862 0.09168276 0.29257545 -0.07594989 0.2339417
0.086010955 -0.16552253 0.13732861 0.12153334 0.3355703 0.37105688 0.0659283 0.08643957
-0.4502416 0.35758552 0.084933065 -0.124889776 -0.34557414 0.25352988 0.10086097 0.1411147
-0.10777828 0.5756904 0.47826388 0.37951684 -0.035658456 0.47054687 0.2380371 -0.06326015
-0.408816 -0.13013558 -0.42180353 0.40228504 0.6610372 0.2375102 0.2124643 0.029940607
0.40324512 -0.18393664 -0.12275123 -0.48933166 -0.041135 0.23309378 0.15000707 -0.15300529
0.011331601 -0.36620817 -0.77466935 0.20957863 -0.4210115 0.19944316 -0.4874028 -0.20826997
-0.15068913 -0.3720811 0.076366864 0.5138203 -0.0073238555 0.19112007 0.386688 0.19685389
-0.023374533 -0.3526568 0.39083296 -0.52032644 0.22026794 -0.10543278 -0.26080477 -0.11492391
-0.3075432 -0.16746078 -0.002267534 0.38625544 -0.091453314 0.4538208 -0.0051021758 -0.18255362
-0.1029887 -0.038073402 -0.027715549 0.04162662 0.10599315 0.32582876 0.002473084 0.1685211
0.33126968 -0.010278633 0.24068287 0.23451364 0.41620615 -0.2929288 0.17150342 -0.07388167

linear2.weight f4 [300, 400]
00000000: b1f3 a6bc 6004 25bd 0f28 cbbc c278 013c
00000010: ddda bbbb 8d7c 3f3c ef03 dd3c 4c14 2e3c
00000020: 96de 8dba 64fd 933c 0666 8c3c 67eb 083c
00000030: 614e 3abc 264f c83c d677 42bc 800c a0bb
00000040: 2d4f acbd e11e ebbc 8ac7 cd3c 04ee adbb
00000050: f804 1ebd f336 933d daa3 cebb eb76 033c
00000060: bb68 0f3d 2c06 5bbc 7e7e 34bc 84be de3b
00000070: b134 b1bb 5af5 363b c404 65bc ea31 823d
00000080: df4d 5f3d b11c 753d d3dc 543d b331 57bb
00000090: 259b 33bc 14fe 9cba f1c7 a63c 62a4 8dbc
000000a0: 7f27 cf3d 5de8 26bd eca2 f6bb ad56 b13c
000000b0: 4f34 0abc c287 b2bc 89eb aebc 8ce8 143d
000000c0: 10b0 debc 5227 3a3c 0b1f 8ebc 3531 2e3c
000000d0: 7d80 3cbd 54ca d53b 794b feb9 6737 4d3c
000000e0: 77f4 4d3c 23c9 0a3d da37 873c c9c8 793c
000000f0: 5ae5 013d 546a e53c 99a9 f33c e421 503d
00000100: 0331 ce3d 3a99 f03c 8e01 873d e848 61bd
00000110: 572d 1d3c 2808 d8bb b7cb 993c cc22 9dbd
00000120: fadf 38bd c18f 393d d058 5fbd c607 4abd
00000130: 2917 a2bc c2f8 cdbb e80f 9e3c e5f4 23bd
00000140: 1dca 6abd 05a3 edbc 0132 603d d0ef 233d
00000150: ba36 f63a d177 b73d e9cf b0bc 7a14 c33c
00000160: f2d6 303d 91ef 3b3c da5c 6cbd fdb6 753c
00000170: 60d1 20bc 4dfe 393d 6084 18bd 7ea6 be3c
00000180: 54f9 22bb 3051 66bc 5595 3bbc b68d 423d
00000190: 630c 9e3d aa15 0e39 1f69 0f3d 9803 653b
000001a0: ba76 bc3c a26b 4b3b e65f 403c e59d e5bc
000001b0: 6c87 2cbc f3a8 19bc 60cb e1bb 86f3 83bd
000001c0: a69c e03d 27e3 59bd ab37 d93c 4f26 c43c
000001d0: 76d3 46bd f17b bb3d 6dfb 3abd 8791 0bbd
000001e0: 0989 343d 24de ecbc 9323 04bd 87ec 40bd
000001f0: 8659 8cbc 07ed 1bbd 2b45 9d3c 1b89 c73d
00000200: 662e 823d a4fa 21ba 9752 033d d332 4fbd
00000210: 298e 3c3c 389a 9b3c 2238 05bd 550c 3dbd
00000220: 5c1b d23d 730d 033d 4324 8d3d 332f 0d3d
00000230: 2ef0 7fbc 61a8 6bbd 9734 883b 8be5 083c
00000240: ac62 2f3d 7625 b1bd e2d3 433b b002 583c
00000250: a467 d4bb fb24 533d 857b bebc a025 d43c
00000260: 20c3 193d e680 c7bc e935 203d 312a 793d
00000270: 51d5 36bc a14f e6bc 68ec a539 205e 55bd
00000280: ece6 5a3d abc6 96bb 512d a03d aec7 f3bd
00000290: 1fa3 963d 47b3 d53d 0c3f d13c f291 08bb
000002a0: 1130 eb3c f25a 343c deac 8b3d 8b73 9b3d
000002b0: 8c5e d23c b4b4 96bc ac36 aebc 13fa 4c3b
000002c0: 38e4 d73c d988 2dbd bc6f 6bbb e748 883d
000002d0: 4688 bf3c 3d8c f9bb 6839 15bd b01d 60b8
000002e0: 99a1 ecbd d546 2dbc 891f b73c 1b88 43bd
000002f0: 4399 1f3d 5442 db3d 42de 473c e202 b83b
00000300: 9fc3 9bbb c8a5 d1bc 3556 ac3c 539a 04bd
00000310: 6af0 f53b 37ca 933c 87a9 07bd 6b3b 4f3c
00000320: 8907 7bbc 2624 0b3d 68b5 aa3c 3c1b de3c
00000330: da6c ba3d 4a9a 6ebd 6c66 a5bc f7b2 5a3d
00000340: 4747 8e3d b7ec c73b 4c66 183d ccf8 23bc
00000350: 1fd5 563c 1a52 f33c 4367 46bd fd9f 243d
00000360: 43bd 403d 2104 fdbb 0587 613c bd0f 3b3d
00000370: dba4 d23c ad07 7a3c 6680 c53c 3027 143d
00000380: 5aee 733a 31dc 6c3d d323 053d 8835 ebbc
00000390: 3af0 073a 6323 16bd 5500 3fbc 00b8 2b3d
000003a0: 7c2a d03c fc7a 26bc a888 26bd 1a5a 3a3c
000003b0: ef56 8bbd 4d44 e6bc b121 303d 338a 1b3d
000003c0: 973b 8bbd 74b0 1e3d 7135 74bb ed39 e2bc
000003d0: c771 893d 2cb0 a0bc ed15 28bd c783 463c
000003e0: cd52 ee3c 9bcf 4ebc 449b 27ba 4328 843c
000003f0: 8d66 f23c cada b63c 4d4a 7e3d 7aac b23b
-0.020379873 -0.040287375 -0.024799375 0.007902326 -0.0057328776 0.01168741 0.026979415 0.010624956
-0.0010823782 0.018065162 0.017138492 0.008356906 -0.011371226 0.024451803 -0.011869391 -0.0048843026
-0.08413539 -0.028701248 0.025119562 -0.0053079147 -0.038578957 0.07188215 -0.0063061537 0.008023958
0.035011988 -0.013368171 -0.011016486 0.0067976136 -0.0054078926 0.0027917237 -0.013978187 0.063571766
0.054517623 0.059841815 0.051968407 -0.003283602 -0.010962282 -0.0011977577 0.020359011 -0.017290298
0.10114955 -0.040748943 -0.007526746 0.021647776 -0.008435323 -0.02179325 -0.021352546 0.036354586
-0.027183563 0.011361914 -0.017348787 0.010631849 -0.046020973 0.0065243635 -0.00048502887 0.012525416
0.012570492 0.033883225 0.016506124 0.015245625 0.031712867 0.028004803 0.029743956 0.05081357
0.10067942 0.02936994 0.065920934 -0.05500117 0.009593329 -0.006592769 0.018773897 -0.076726526
-0.045135476 0.04530311 -0.054528058 -0.04932382 -0.019786434 -0.0062857578 0.019294694 -0.04002847
-0.057321656 -0.029008398 0.054735187 0.040023625 0.001878462 0.089584 -0.021583514 0.023813475
0.043173738 0.011470691 -0.057705738 0.014997241 -0.009815544 0.045408536 -0.037235618 0.023272749
-0.002486785 -0.014057443 -0.011449178 0.047498427 0.07717206 0.00013550246 0.03501236 0.003494477
0.023005832 0.0031039496 0.011741614 -0.028029392 -0.010530334 -0.00937866 -0.0068906993 -0.06442933
0.10967378 -0.053195145 0.026515802 0.023944048 -0.04854151 0.09154499 -0.045649935 -0.034074333
0.044076 -0.028914519 -0.03226049 -0.04710057 -0.017132532 -0.038067844 0.01919802 0.09742948
0.06356506 -0.0006179011 0.032061186 -0.05058558 0.011508503 0.018994436 -0.032524236 -0.04615434
0.10259125 0.031995248 0.06891682 0.03446884 -0.015621228 -0.057533626 0.00415666 0.008355509
0.04281871 -0.08649723 0.002988093 0.0131842345 -0.0064820815 0.05154894 -0.023252258 0.025896847
0.0375396 -0.024353456 0.039113913 0.060831252 -0.011159257 -0.028114142 0.0003164739 -0.052091718
0.05344288 -0.00460132 0.078211434 -0.1190332 0.07355332 0.10434585 0.025542758 -0.0020838943
0.028709443 0.011008011 0.06820081 0.075903974 0.02567985 -0.018396713 -0.021266304 0.0031276986
0.02635394 -0.042366836 -0.0035924753 0.0665453 0.02338041 -0.0076155947 -0.0364317 -5.343341e-05
-0.1155426 -0.01057597 0.022353904 -0.047737222 0.03896452 0.107060105 0.0121989865 0.005615578
-0.0047535445 -0.025591746 0.0210372 -0.032373738 0.007505466 0.01804076 -0.03312066 0.012648444
-0.015321621 0.03397002 0.020838454 0.027112596 0.09102793 -0.05825261 -0.02019044 0.05339333
0.06947189 0.0061012167 0.037206933 -0.010008048 0.0131123355 0.029702235 -0.04843832 0.04019164
0.047055494 -0.0077214395 0.013765101 0.045669306 0.025713375 0.015260619 0.024109077 0.036170185
0.00093052315 0.05782718 0.032504868 -0.02871205 0.0005185638 -0.03665484 -0.011657794 0.041923523
0.025410883 -0.010161158 -0.04065767 0.011374021 -0.06803691 -0.02810874 0.04300088 0.037973594
-0.06798475 0.038742498 -0.00372633 -0.027615512 0.067111544 -0.019615255 -0.041036535 0.012116379
0.029092217 -0.012622739 -0.0006393681 0.01613248 0.029589916 0.022321124 0.062082577 0.0054526897

linear2.bias f4 [300]
00000000: d575 a1bd 1a6e bfbc 9289 b3bd 03d4 90bd
00000010: cef2 55bd 09ff 71bd 5eb7 51bd 94c3 d3bd
00000020: 520d f6bd f780 11be 9886 24bd 7c84 dabd
00000030: 0f9f 8cbd 15c7 a1bd 7d62 2abd 2337 fcbb
00000040: 02d0 a3bd d4ab d8bd fd05 edbd 69a1 e5bd
00000050: e3e2 cdbd 21ee 2fbd d595 a4bc 6137 69bd
00000060: d194 eebd 7652 b6bd b581 abbd dc50 73bd
00000070: c01b c7bd bea6 bfbd d89f 6dbd df01 02bd
00000080: e8c3 eabb c772 8dbd e925 2bbd 5704 8fbd
00000090: 5727 2f3c 300e 14bd d6ea c1bd a5d5 a3bd
000000a0: 51ad 00bc 76fa 143e eab5 833d 0a94 47bd
000000b0: 9cfc e3bd 8917 00be 72ca 00be 714d 3ebd
000000c0: aa73 4f3c b7a0 03be b3ba 05bd bf91 8fbc
000000d0: 6db0 a1bd 6fbf 84bd 85c8 adbd f7e0 cabd
000000e0: e892 323e 0740 c23d b7fc f2bd 761b ab3a
000000f0: 0196 e0bd e129 25bd a8c2 7f3d 0224 f3bd
00000100: 637e 8bbd e890 15bd 110c 313c bef1 bfbd
00000110: 04f1 17bd 04b0 96bd 19ba 2abd c76a 7f3c
00000120: 4b6f 213e f092 9abc 63e7 06bd ba36 ebbd
00000130: fd3d 2cbd 6545 21bd 0044 ddbd 05b2 443e
00000140: 65f0 aabd 5e52 bfbd 99c6 abbd 5655 b5bd
00000150: 7b19 0a3e 22ca 35bd 18fa 57bd 4067 d4bd
00000160: a52a ad3c b822 98bd 85f2 e6bd d80a 00be
00000170: dace b2bd e0c8 ccbd 8381 0bbe 2625 f6bc
00000180: e974 a2bd 69e8 aebd 95d0 d3bd 7e92 03bd
00000190: 35b2 e5bb 7133 acbd e66f 0e3c 6d3b e8bc
000001a0: f814 93bd 009c 9fbd 56ea b1bd 8119 22bd
000001b0: 8c72 17be 589c 97bd 5891 9dbd 8760 8fbd
000001c0: d818 96bd 03ef 1b3c 18a8 14be 96f6 b0bd
000001d0: a09c 95bd 62dc 8cbd 40ae 1dbe 814c e6bd
000001e0: 4283 b9bd d0df 55bd 75a5 24bd d9f1 c6bd
000001f0: 6627 3fbc ad17 afbd d226 f6bd 71c0 61bd
00000200: 3df3 6cbd b3e2 06be 7bfb c2bd 90c2 62bd
00000210: 9bf4 5b3c 1fdd 9d3c e986 603d 987e 9dbd
00000220: ffc7 87bd d7e0 003e 04de 9fbd 9719 b1bc
00000230: cb23 48bd 469f c3bd 5a6a 30bd 7002 9ebc
00000240: 3a60 37bd 313f eebc 7437 2ebd cae1 b9bc
00000250: 556b 17bd 99e5 a9bd abc9 49b8 9ec8 3dbd
00000260: 62b3 7ebd ea47 36bd dae1 b3bd 1fb8 86bd
00000270: 3db9 a5bd c883 303c ee62 70bd 4511 a5bd
00000280: 6b22 18bd fe7f babd f6e6 f0bd 6c92 26bd
00000290: 97b7 87bb d32a 88bd 447c 28bd 19b6 53bc
000002a0: 09ae f2bd 9f74 66bd e4a8 5fbd 33b7 87bc
000002b0: f384 46bd 5286 ffbd c7e1 87bd a8f0 9dbd
000002c0: d3c6 c7bd 60ff 7ebd 2a72 f0bd 9975 abbd
000002d0: e516 2fbd 756c 21bd ecd7 80bd b8c1 09bd
000002e0: 84ae 90bd c175 3dbd 60a8 52bd 4abb 66bc
000002f0: 5484 80bd d8e1 1abe c5a0 24bd fb3b cbbd
00000300: aabd 85bc 2cc6 fdbd 1fad ccbd 23b0 5fbd
00000310: fdca a1bd a49f 35bd 93cd fc3d a2a5 b9bd
00000320: 1cbe 2cbd 4251 f9bd dd57 23bd d2f3 b3bd
00000330: 8203 453b 5f4d 04be d372 473d 8e37 7ebd
00000340: 6a14 b0bd bad4 b4bd 5def 29bd aa8b b2bd
00000350: d68e babd 87c7 c2bd 1b7b c1bd f8d8 9cbd
00000360: f84c d2bd 8f58 45bd 5ed8 35bd 3dee 7bbd
00000370: c145 e4bc c476 7ebd eda4 a5bd a482 adbd
00000380: c478 64bb fd3b a5bd 806c 90bd 6fa6 a7bd
00000390: b9d3 e0bd af29 45bd 1d87 6ebd c068 a03c
000003a0: b852 b8bc 8a75 31bc f436 2c3b fb34 9cbd
000003b0: 41e3 f3bd f34e cfbd a6fe 233c a5b3 d0bd
000003c0: 40dd 3f3e a7dd c3bb 2850 2ebd 306d b6bd
000003d0: 4e42 77bd 1a70 47bd 9d09 723d 0c73 59bd
000003e0: d621 493b b525 8abd d65b f6bd a626 bcbd
000003f0: 240c c9bd fc46 9ebd 6279 b7bd de29 b3bd
-0.07883803 -0.02336793 -0.08766474 -0.07071688 -0.05223351 -0.05908111 -0.051200263 -0.10340038
-0.120142594 -0.14209352 -0.04016742 -0.10669801 -0.068662755 -0.078993 -0.041597832 -0.0076970025
-0.07998659 -0.105796486 -0.11573408 -0.11212427 -0.10053041 -0.042951707 -0.020090977 -0.05693758
-0.11649478 -0.08902447 -0.08374349 -0.059403285 -0.0972209 -0.093579754 -0.058013767 -0.031740066
-0.007164467 -0.06906658 -0.0417842 -0.0698325 0.010690532 -0.036146343 -0.094686195 -0.07999734
-0.007853822 0.14548668 0.06431182 -0.048725165 -0.11132166 -0.12508978 -0.12577227 -0.046460573
0.012661854 -0.12854277 -0.032648753 -0.017525552 -0.07894979 -0.064818256 -0.08485512 -0.0990619
0.17438853 0.094848685 -0.11864608 0.0013054449 -0.10966111 -0.040323142 0.062441498 -0.11872102
-0.06811216 -0.036515146 0.0108060995 -0.093722805 -0.037095085 -0.07357791 -0.041681383 0.015589423
0.15765111 -0.018868893 -0.03293551 -0.11485048 -0.042051304 -0.03937282 -0.108039856 0.19208534
-0.08346633 -0.09341882 -0.08387489 -0.08854167 0.13486283 -0.044382222 -0.052728742 -0.10371256
0.021138499 -0.07428497 -0.11276726 -0.12504137 -0.0873086 -0.09999251 -0.13623624 -0.03004701
-0.07932455 -0.085404225 -0.10342518 -0.032122128 -0.0070097693 -0.08408249 0.008693671 -0.028348649
-0.07181734 -0.077934265 -0.08687274 -0.039575104 -0.1478979 -0.07402867 -0.07693738 -0.07000833
-0.07328957 0.009517434 -0.14517248 -0.086407825 -0.073052645 -0.06877972 -0.15398502 -0.11245061
-0.090582386 -0.052215397 -0.040196855 -0.097140975 -0.011667108 -0.08549438 -0.12019123 -0.055115167
-0.057849158 -0.13172416 -0.09520622 -0.05536133 0.013425018 0.019270478 0.05481616 -0.076901615
-0.06629943 0.1258577 -0.07806018 -0.021618648 -0.04886226 -0.09551863 -0.043070175 -0.019288272
-0.044769503 -0.029082866 -0.042533353 -0.022690672 -0.036967594 -0.082957454 -4.8109952e-05 -0.0463339
-0.06218279 -0.044502176 -0.08783312 -0.06578087 -0.08091972 0.010773607 -0.058688097 -0.080599345
-0.0371422 -0.09106444 -0.11762802 -0.040666983 -0.0041417587 -0.06648793 -0.041134134 -0.012921833
-0.11849601 -0.056263562 -0.054604426 -0.016566848 -0.048466634 -0.124767914 -0.066348605 -0.07711917
-0.097547196 -0.062255263 -0.11740525 -0.08372039 -0.042746443 -0.039410073 -0.06291184 -0.03363201
-0.07064536 -0.046254877 -0.051430106 -0.014082739 -0.062752396 -0.15125215 -0.040192384 -0.0992355
-0.01632579 -0.12391314 -0.09993958 -0.054611336 -0.07900045 -0.0443417 0.12343898 -0.09064795
-0.04217349 -0.12173702 -0.039878715 -0.087867394 0.0030061905 -0.1292014 0.04869349 -0.0620647
-0.08597644 -0.08829637 -0.04148804 -0.08718045 -0.09109275 -0.09510713 -0.09447309 -0.07658571
-0.10268587 -0.04818016 -0.044395797 -0.0615065 -0.027865293 -0.062124982 -0.08088098 -0.08472183
-0.003486202 -0.080680825 -0.07051945 -0.081860416 -0.10977883 -0.048135456 -0.058234323 0.019581199
-0.02250038 -0.010831246 0.0026277872 -0.07627293 -0.119085796 -0.1012248 0.010009443 -0.101905145
0.18736744 -0.0059773508 -0.04255691 -0.089075446 -0.060365967 -0.048690893 0.0590912 -0.053088233
0.0030690334 -0.06745473 -0.12029235 -0.09187059 -0.09816769 -0.07728383 -0.08958699 -0.0874822

linear3.weight f4 [2, 300]
00000000: 6083 4d3e 320f c5be 16a4 3c3e ca51 753e
00000010: ce27 bc3e a597 ae3e 8884 233e 3334 483e
00000020: f9cf 903e 96b9 a63e 4e1e 64bc 42c0 a03e
00000030: ccdd 183f 4f06 013d 1a03 ac3a cde6 92bc
00000040: 3b0e 56bf de45 d13d 76ab a13d b5f5 babd
00000050: 2d8f 83be 686f 7bbd 5485 e33d 7dc6 89bc
00000060: df5e 513e e837 a43e 857e 0e3e 4c14 de3e
00000070: 1306 8ebd 20ff 933d 8f1d 3c3e d87b 8dbe
00000080: 051d dabe 0098 1d3e 4230 133e 8b85 63be
00000090: 1a08 cdbd 43b7 893e 3493 26bf e8f6 d5bd
000000a0: 7ade 123e bb57 54bd 8982 2dbe 2800 3b3c
000000b0: 9777 853e 58a9 933d 6195 a43d ddfb 423f
000000c0: ed66 93be 5cfe 753d 8b26 39be a959 a63d
000000d0: ae2c 193e 6846 d53e fbbf 933b 5ee7 92be
000000e0: fab9 b9bd 2a0b b8bc b2a8 a73c aa93 dabc
000000f0: a0ce 9abd 8f6d ac3d edc7 b8bd 29e3 8a3e
00000100: fade a33d 5d08 1a3e 059e 51be 05d5 93be
00000110: 06e2 2fbe f9e4 023e f4c1 90be e551 acbd
00000120: 8a1e 54be 15a4 7abd 5192 5c3e 649c b63d
00000130: f4a3 483e 4d4b 0bbd 9d40 eabd 1baa 8cbe
00000140: 2265 b13d 00c2 ba3d 9462 e53d b34e a33d
00000150: 2864 d9bc 23bb d7bd b62a 743e d668 133e
00000160: ca23 97bd b401 c03d 7928 e23d 748a b83e
00000170: 199d 0b3e fab7 ee3d e77c 053f 8348 1fbe
00000180: 7a64 9fbd 64a7 bf3e d8ae 3e3e 66d0 2ebf
00000190: 410f 733d 2da4 04bc 98bb 0bbf cc12 6c3d
000001a0: 9d04 923d bc0c a3bd df84 b13e eefc d0bc
000001b0: 7d3a fc3d 008c 883e 7125 293e 1202 e13e
000001c0: 43a0 273e ee23 da3c 8030 833e c8a8 ba3d
000001d0: 651d d03d 7433 b7be 5854 093f d596 543d
000001e0: 3206 ddbd b5ee d53d c264 f33d 0bae 0d3e
000001f0: f0d4 f5bc faf4 c83e e089 343e 07c0 87be
00000200: a790 953e bdbf b63d 23b3 bd3d 745a 3b3e
00000210: 00f1 53be 08af 373e 847f 45be 2a43 fc3d
00000220: ac50 013e f253 6fbe 2fde 8c3e 7706 903e
00000230: 97eb f6bd e557 9e3d 4744 b53d 8e71 25bd
00000240: a37b 25bf bb28 5f3f ea15 70be 9386 5b3e
00000250: 45c5 2cbe bd59 91bd 95d7 90bd 42d4 3dbd
00000260: 3ec7 443e 26da 9dbe fe25 523e 0893 5a3e
00000270: ad04 06bf 436e 183f 3ce0 603d 5539 dabe
00000280: 0a0d 3fbf a163 57be 3c2a 7cbc dbb0 313e
00000290: 6a90 ce3d 1203 173e 4d32 f3bc 7676 6abe
000002a0: 1f2c 963d 69cb 403e 7598 743d edb2 07be
000002b0: a3b9 e23e 427d a43d 5376 01bd 31a0 3e3d
000002c0: bd40 1dbd 1ba3 f13c 3f18 453e 5c4d 623c
000002d0: 9e27 e03d 5ad3 40be f08c ee3d ca02 47bb
000002e0: 9008 56be ff55 ef3d da6f a7bd f11f 4e3e
000002f0: f86f 03be c40f 1f3e a500 9f3e cb07 933e
00000300: 4b30 1a3d 99d9 cf3e 72f1 823e c53c 253e
00000310: 51d9 023e 61f1 c4ba d1be 2b3d d78f 0fbe
00000320: f9e3 17bd 89fc 8a3d d5a9 4f3d 2025 60be
00000330: bfc8 b5be 1717 9e3d 4f3d 043e 6bea f63d
00000340: 9a62 bd3e 53b3 b93e 075a 783e 5d66 b4bd
00000350: a091 e7bd 8a62 f33d 9f24 a93e 4fc1 093f
00000360: 30c6 9d3d 21c5 ccbd a428 87be 061b 7e3e
00000370: af04 0dbe 6205 d2be 8f77 79be 564a 1cbf
00000380: 7938 003f f863 d1be 9203 bdbe b221 b63b
00000390: 82bf 7ebd ab11 96be f908 803e 10df 01bf
000003a0: d39f 98be 9735 02be 6d78 86bd 2a69 edbe
000003b0: 1146 143f 2b40 1c3e ada9 18bf b9a5 413f
000003c0: b25d 023d b4cf 36bd db65 c03d 7c2f 223e
000003d0: 755e 343d 04ed 8b3d 7bb3 bd3d 83e5 7bbe
000003e0: 0d88 06bf 2865 63be c83c e93d 4e61 c93d
000003f0: 4413 203f b38f 9dbe a9bb d43d 2b15 bd3e
0.20069647 -0.38488156 0.18421969 0.23956981 0.3674912 0.3410007 0.15968525 0.19551162
0.2828367 0.32563466 -0.013923241 0.3139668 0.59713435 0.031500157 0.0013123483 -0.01793232
-0.83615464 0.10218404 0.07894032 -0.09128896 -0.25695172 -0.061385542 0.11109415 -0.01681828
0.20446347 0.32073903 0.13915451 0.4337486 -0.06934752 0.072263956 0.1837065 -0.27633548
-0.42600265 0.15390015 0.14373878 -0.22218911 -0.10011311 0.2689763 -0.65068364 -0.10447484
0.1434268 -0.05184148 -0.16944326 0.0114136115 0.26067802 0.07210034 0.08036304 0.7616556
-0.28789464 0.06005703 -0.18081109 0.0812257 0.1495845 0.41655278 0.00450897 -0.28692144
-0.09068675 -0.022466261 0.020466182 -0.02668174 -0.07558942 0.08419334 -0.09022508 0.27126434
0.08001514 0.15042253 -0.20470436 -0.28873459 -0.17176065 0.12782659 -0.28272974 -0.08414058
-0.20714775 -0.061191637 0.2154019 0.08916548 0.19593793 -0.03400736 -0.11438105 -0.2747353
0.08661868 0.09119034 0.11200443 0.07973995 -0.026537016 -0.1053374 0.23844418 0.1439546
-0.07379873 0.09375325 0.11042876 0.3604313 0.13634147 0.116561845 0.5214371 -0.15555005
-0.07782836 0.37432396 0.18621385 -0.6828674 0.05934072 -0.008095783 -0.5458312 0.057635114
0.07129786 -0.07961413 0.34671685 -0.025511231 0.12315843 0.26669312 0.16518189 0.43946892
0.16369729 0.02662846 0.2562294 0.09114224 0.101618566 -0.35781443 0.53644323 0.051901657
-0.10792197 0.104459204 0.118844524 0.13835923 -0.030008763 0.39249402 0.1763072 -0.26513693
0.29211923 0.0892329 0.09262683 0.18296224 -0.20697403 0.17937863 -0.19286925 0.12317498
0.1262843 -0.23371866 0.27513263 0.28129932 -0.12056654 0.07731608 0.088509135 -0.040391497
-0.6464178 0.87171525 -0.2344586 0.21438055 -0.16872127 -0.07097194 -0.07072369 -0.046345003
0.1921663 -0.30830497 0.20522305 0.2134515 -0.52350885 0.59543246 0.054901347 -0.42621866
-0.7462927 -0.21034099 -0.015390929 0.17352621 0.100861385 0.14747265 -0.029687071 -0.22896752
0.07332634 0.18827595 0.059715707 -0.13251849 0.44282255 0.080317035 -0.031606983 0.04653949
-0.038391817 0.02949672 0.1924753 0.013812389 0.109450564 -0.18830624 0.116479754 -0.0030366653
-0.20901704 0.11686324 -0.08175631 0.20129372 -0.12835681 0.15533358 0.3105518 0.28716883
0.037643712 0.405957 0.25574833 0.16136463 0.12778212 -0.001502555 0.041930024 -0.14019714
-0.037082646 0.067864485 0.050699074 -0.21889162 -0.3550472 0.07719248 0.12914012 0.120564304
0.3698929 0.36269626 0.24253093 -0.08808587 -0.11307073 0.11884029 0.33035752 0.5381059
0.07703817 -0.09998537 -0.26398194 0.24814996 -0.13771318 -0.41019732 -0.24362014 -0.6105093
0.5008617 -0.40896583 -0.36916786 0.005558216 -0.062194355 -0.29310355 0.25006846 -0.5073099
-0.29809436 -0.12715755 -0.06565938 -0.46369296 0.5791941 0.15258853 -0.59633905 0.756435
0.031827636 -0.044631675 0.093944274 0.15838426 0.044035394 0.068323165 0.09262749 -0.2459927
-0.52551347 -0.22206557 0.11388546 0.098330125 0.62529397 -0.30773696 0.10387356 0.36930212

linear3.bias f4 [2]
00000000: bbd4 333d 7481 c4bd
0.043904047 -0.09595004

norm1.weight f4 [400]
00000000: ef94 193f 9451 a03e 97ca 123f d5e1 8a3e
00000010: e004 593f bd6e 403f c8ba a93e 88c7 4d3f
00000020: 1392 0c3f 48c0 d13e b587 3c3f a1b3 0b3f
00000030: 2a3f 1b3e ece3 493f e6e8 983e a3c9 c63e
00000040: 94ee cb3e 2e85 a43e 38c7 7d3e 6035 ac3e
00000050: b8a6 a93e a1af a73e b046 b33e c686 fd3e
00000060: 9f23 473f 669d 2e3f 6171 2c3f 8210 d43d
00000070: 732c 9c3e be43 5f3e d722 bf3e 53d9 b23e
00000080: cfd7 fd3d b798 023f 0376 513f c52b 603f
00000090: e488 3f3f 6b1d c53e fcb0 453f f431 2e3f
000000a0: 7606 57bd df06 e93e b80c 033d e1d8 783f
000000b0: 4650 873e 4894 153f 483f 763f 6213 e93e
000000c0: 4e40 2f3f 1340 603d 4d1a 063f a41c 103f
000000d0: 9591 fa3e 373b 9a3e 9b93 b63e 6b17 d63e
000000e0: eb59 2b3f fffe d2bc d22c 573f 8199 553f
000000f0: ffd4 453f dd41 b83e ca86 1e3f 2613 673d
00000100: 7f24 89ba f59b ac3c 483c 533e 24a3 493f
00000110: ab15 343e 7692 453f 795b 123e c389 6b3f
00000120: dbdc c93d dbe1 833e b4a1 9e3e 65b9 173f
00000130: c819 3b3f 8d27 9c3e 35d6 383f d356 cf3e
00000140: cac8 053f d604 1d3f 5d56 323d 410d 1c3e
00000150: 22e0 593f dd90 6e3f 485e f53e ca83 673f
00000160: 4f03 ac3e da8c 3d3d d9c9 cb3d 9076 5d3f
00000170: 277a 0a3f 6f53 833e fffb 873e a159 313f
00000180: 6f28 173f d596 5f3f 32df 113f e0b0 313f
00000190: b51a 163d ec5b 053f 6064 9a3e dc60 8d3e
000001a0: c385 643e 564f 713e 982a 363f 760b 633d
000001b0: 5cfe 243f 800c 433f 8885 193f 34d4 bb3e
000001c0: 6ebc b2bc c5e0 293f 0b3d d73e 82ee 243f
000001d0: 4035 883e 8c1d 823e 4ae9 203f e998 7b3f
000001e0: e6fd eb3e 062f 323f 0041 7e3d a12f bb3e
000001f0: a35d 573f 7bf2 113f b7de 7a3e b925 173e
00000200: 1df2 c53e 9cba ba3e 4c80 423f 5757 0d3f
00000210: c02a 403f 1700 ba3d 4294 fe3e 3b26 d93e
00000220: 1afc 273e 256a dd3e 0298 3a3d a462 ef3e
00000230: 1dad 5a3f eacd cb3d 0412 db3e 1de5 503f
00000240: 0c2b 793f 60c2 5a3e b9b9 c43e 0da0 1b3f
00000250: 734a aa3e 62ef 1e3f 9cd6 0c3f 6826 3e3f
00000260: 0574 603e cd56 1f3e 0868 3a3f b45a 1e3f
00000270: 77a9 253f 3db5 4a3f 5fd1 b23e 19a5 583f
00000280: 5398 ea3d 60d0 2b3e 6ea2 03bd 4478 033e
00000290: 4a93 6b3e 7ad6 d63d 5864 423f 816e 183f
000002a0: 171d 733f 3e69 1c3f 08fa 3d3d 2635 493e
000002b0: c407 523e 3f3d 2e3f 4923 cf3e 1bfa e43d
000002c0: dbcf cf3e 52b8 ea3e 312f 503f 717c b83c
000002d0: 3d75 323f e6a4 df3e cbf7 2d3f 6024 903e
000002e0: 4266 a83d 39b5 8a3e 8610 9b3d 772f 533f
000002f0: fcb9 103f 82ee bcbd e0a1 a83e 9879 663e
00000300: 8b85 d63e 5685 363f efc1 5a3f f79e 263f
00000310: 94ab 243f d6e6 423d 8f17 773f d3d0 0b3d
00000320: 8155 d73e 4c3c 793e ed08 073e 6399 db3e
00000330: d28e 163c 8ab0 bf3e 0f4f 423f 8e4d 253e
00000340: 0e13 783e c1bd be3d 5e34 7a3e 30e3 253f
00000350: 63bb 753e 9748 0d3f ae01 b93e 5d8e aa3e
00000360: 7742 5d3e ebf7 6b3e 5324 083f e554 313f
00000370: f1e4 353f 12a7 423f a29e ab3e fdf4 5dbb
00000380: 6eb4 113f 2fb6 8639 2533 1c3f f904 2b3f
00000390: 1c16 433f 2862 333f 37c7 553f 8d78 083f
000003a0: 8ab1 d23e 8f96 5b3e d0c9 593f 3820 f23e
000003b0: e145 1d3e ec31 3b3f a922 913e cd74 433e
000003c0: 7bf6 893e 268f 3d3f be19 213f 7975 3a3f
000003d0: b392 a0bb b7e4 4c3f 22d5 373d b1b0 c23e
000003e0: 0229 a5ba 24a8 803e 82a5 df3e adf8 a53e
000003f0: e31a 1a3e 181e 563f 3d72 a93d 036c 3f3f
0.5999288 0.3131224 0.5734038 0.2712542 0.84773064 0.75168973 0.33150315 0.80382586
0.5491039 0.4096701 0.7364457 0.54570967 0.15160814 0.78863406 0.29865187 0.38825712
0.39830458 0.32132858 0.24783027 0.33634472 0.3313501 0.32751182 0.35014868 0.49516886
0.7778873 0.6820892 0.673605 0.10354711 0.30502662 0.21803185 0.37331268 0.3493143
0.12394678 0.51014274 0.81820697 0.87566787 0.74818254 0.38499007 0.7722318 0.6804497
-0.052496396 0.45513055 0.03199455 0.9720593 0.2642843 0.58429384 0.9619031 0.455226
0.68457496 0.054748606 0.5238388 0.562937 0.48939195 0.30123302 0.3565949 0.41814741
0.6693408 -0.025756357 0.84052765 0.83437353 0.7727813 0.3598775 0.6192442 0.056414746
-0.0010463147 0.02107046 0.20628464 0.7876456 0.1758639 0.77176607 0.14292707 0.9200708
0.09856578 0.25758252 0.30982745 0.59267265 0.73086214 0.30498925 0.72201854 0.4049593
0.52259505 0.61335504 0.043539394 0.15239431 0.85107625 0.93189794 0.47923493 0.9043547
0.33596274 0.046276905 0.09950609 0.86509037 0.5409264 0.25649592 0.26559445 0.6927739
0.5904607 0.87339526 0.56981194 0.69410515 0.036646564 0.52093387 0.30154705 0.2761296
0.22316651 0.2356542 0.7115874 0.055430852 0.6445062 0.7619095 0.5996938 0.36685336
-0.021818366 0.66358596 0.4203876 0.64426434 0.26603127 0.25413167 0.6285597 0.982802
0.46092147 0.69603 0.062073708 0.36559775 0.84127253 0.5701062 0.24499021 0.14760484
0.3866128 0.36470497 0.75977015 0.55211395 0.7506523 0.090820484 0.49722487 0.4241198
0.16404763 0.43245044 0.045555122 0.46754944 0.854204 0.09951384 0.42787182 0.815996
0.9733131 0.2136321 0.38422945 0.60791093 0.33259925 0.6208402 0.5501497 0.74277353
0.21919258 0.15560456 0.7281499 0.6185715 0.6471171 0.791828 0.34925362 0.8462692
0.11454835 0.16778708 -0.032137327 0.12838846 0.23005405 0.10490127 0.7593436 0.59543616
0.9496626 0.61098087 0.046381027 0.19649181 0.20510775 0.68062204 0.40456608 0.11180516
0.4058827 0.4584375 0.8132201 0.022520276 0.6971014 0.43680495 0.6795623 0.28152752
0.08222629 0.27091387 0.07571511 0.824943 0.5653379 -0.09225179 0.32936 0.22507322
0.4189876 0.71297204 0.8545217 0.6508631 0.6432431 0.047583424 0.9652032 0.034134697
0.42057422 0.24339408 0.13186999 0.42890462 0.009189324 0.37439376 0.75901884 0.16142866
0.24226019 0.093135364 0.24434039 0.64799786 0.23997264 0.5518889 0.36134094 0.3331174
0.21607386 0.23043792 0.53180426 0.69270164 0.7105246 0.7603618 0.33519465 -0.0033867948
0.5691594 0.0002569421 0.6101554 0.6680446 0.7620561 0.7007165 0.835071 0.53308946
0.41151077 0.21444152 0.85073566 0.47290206 0.15358688 0.7312305 0.28346756 0.19087525
0.26945862 0.7404655 0.62929904 0.728355 -0.0049003004 0.8003649 0.044880994 0.3802543
-0.0012600722 0.2512828 0.4368096 0.32416287 0.15049319 0.8363967 0.08273742 0.7477419

norm1.bias f4 [400]
00000000: c5e1 67bd 7e17 6b3d bfeb 433e 30c9 f6bd
00000010: 10f1 a7bd 83ef f2bd f094 eabd 9aa6 73be
00000020: 6cc8 08be f418 00be aad8 5cbe 23b2 00be
00000030: c082 18be f864 683e 08c5 a7bc b546 bbbd
00000040: 8d7d 323e 4a8c 27be 109b 3ebe f57b 983d
00000050: da12 dfbd 5ad1 77be 72b0 d7bd 4cec 783d
00000060: f41f 5abd 8d6a 0d3e 404c ea3d 9d40 0bbe
00000070: 4d8e 90bd 8fe7 17be 2936 b3bd 4b69 45be
00000080: 4f18 47be cf70 67bd 7ba9 be3c 1481 5f3d
00000090: a06c b1bd c9cf 14be f9c5 13bd 8f72 a7bc
000000a0: b2f1 97be 64df b2bd 447b 6ebe 14ab 69be
000000b0: 63f8 2fbc 2beb 29be 4233 e8bd 8730 96bd
000000c0: 1568 8a3e c145 6ebe 85d5 62be a001 aebd
000000d0: 9af1 4bbd 4b70 2c3d f765 64be 6fba dbbc
000000e0: 9a1e e9bd 8357 90be 4fb8 523e 3c7f ff3d
000000f0: 0a69 b4bd 94bf 19be 91ec 6dbe a3ed 82be
00000100: cc15 94be d357 7dbe b7fe f5bd 0c24 b5bd
00000110: 25e8 51be 3531 6b3d d084 2ebe 1f25 533e
00000120: 4eb2 95be b94b 77be 07d0 263e 829d b0bc
00000130: 5477 11be e3f0 64bd c83d cebd 69be acbd
00000140: 815a 583e a7e1 c7bc 423d 5cbe 30cc 54be
00000150: b4a6 26bd fc45 61be 035a e7bd 19de 213e
00000160: d192 22be eb89 73be 8b04 833e ae38 433e
00000170: 40ba e4bd 91b6 51be 75a0 0c3e c307 85bd
00000180: c195 0ebe 5540 f53d 3d24 bcbd 0c6d c3bd
00000190: 7877 62be 77b5 5abd 1212 1fbe 46dd ae3d
000001a0: 6fa5 60be c343 82be 106f a53d 0807 bdbd
000001b0: afd7 663d 9320 d0bd 76b5 c83c 50e3 4e3d
000001c0: 5b75 85be a7cf 27be abb5 38be 3ba3 90bc
000001d0: b714 a2bc 0b02 88be 396d 4cbd e754 9ebd
000001e0: 785a 9dbd c4bf 5fbc f22d 873e 2c22 543e
000001f0: d91e 43bd 5558 c4bd 19d1 46be 812b 5dbe
00000200: 7cab 3bbe 46f8 95bd ec5b c1bd bea8 ae3d
00000210: aa17 f33d b98d 47be 8faf 39bd f604 70bd
00000220: c2da 38be 6a33 e93c 55d3 75be 70ec cdbd
00000230: b615 60be 8c06 823e 07be d5bd 4cec 02be
00000240: 7945 66be 35fb 803e d987 80bd 2bf3 f7bd
00000250: 5252 93bd 8ac5 4dbe 2b99 80bc 6cf5 983c
00000260: bd1f f8bd 505c 58be 851c d2bd fd90 60bd
00000270: d652 1abd 6b32 c93d fc50 4bbe 94b8 21bc
00000280: 5e20 61be e462 65be 4761 8dbe c9fb 653e
00000290: 7b8b 4ebe 157e a2be 7520 9cbd d428 d13d
000002a0: 7bb5 0fbc 6021 9bbd 7756 7abe 224d 33be
000002b0: b686 29be 348e 813e 3346 8dbd eda9 83be
000002c0: 6a81 fb3c c58d 18be a21f 9ebd 1712 69be
000002d0: 368b 9bbd 78de afbd e2f0 0fbe 27b2 243d
000002e0: 7083 853e fa23 173e 089c 86be c2b2 613e
000002f0: 0603 31bd b1df d1bd b150 debd c100 2fbe
00000300: b64e 1c3d 0967 62be a918 dfbd e395 d8bd
00000310: d587 093e 94fa 89be cb31 893d 652c 85be
00000320: 3c80 2bbe b8b6 19be 1732 7abe b3f3 8e3c
00000330: e900 87be fcd7 96bd 6f38 2bbd 5285 8bbe
00000340: 4e62 7ebe 449a 83be c85b 0cbe 40fd 71bd
00000350: 97a6 55be 6ed0 01be e1c7 ebbc d260 e8bd
00000360: a557 96bd 627d d7bd 3e0d 08be 2b97 b13d
00000370: 7807 7e3d 60a2 19bd f657 3fbe 29c9 9cbe
00000380: 960e bdbc bfd6 98be 29c2 343c 1ab4 dfbd
00000390: f9dc 22bd ab75 3e3d 9396 ee3c cba3 84be
000003a0: 83da 0bbe 026a 78bd 97a3 b2bb 0427 9abd
000003b0: 7b34 653e e58c afbd bd72 74be 17e0 19be
000003c0: 8917 2b3e ce44 bfb9 d37d 07be 3f21 24be
000003d0: 6638 97be 6b7c a7bd 2790 853e 5505 b8bd
000003e0: 121b 63be 9dc8 933d 82e7 cebd 04fb 0b3e
000003f0: d10d 0c3d d6bd eebd f737 95be 1e2d 02be
-0.056611795 0.05739545 0.19132899 -0.12050092 -0.08200276 -0.118620895 -0.11454189 -0.23794022
-0.13357705 -0.12509519 -0.21567026 -0.12567954 -0.14893627 0.22694767 -0.020479694 -0.09144346
0.17430706 -0.1636211 -0.18613839 0.07445518 -0.108922675 -0.24200955 -0.10531701 0.060772225
-0.05325313 0.13810177 0.11440325 -0.13598867 -0.07058392 -0.14834426 -0.087505646 -0.19278447
-0.19442867 -0.056504067 0.023274174 0.054566458 -0.08663297 -0.14532389 -0.036077473 -0.020440368
-0.29676586 -0.08734015 -0.2328921 -0.22819167 -0.010740372 -0.16593616 -0.11337902 -0.073334746
0.27032533 -0.23268797 -0.22151764 -0.08496404 -0.049790956 0.04209928 -0.22304522 -0.026822297
-0.1138279 -0.28191766 0.2057812 0.1247544 -0.08809097 -0.15014488 -0.23234774 -0.25571927
-0.2892288 -0.24740534 -0.120114736 -0.08844766 -0.20498712 0.057419974 -0.17042851 0.2061963
-0.29237598 -0.2414998 0.16290294 -0.02155948 -0.14205676 -0.05589379 -0.100703776 -0.08434755
0.21128275 -0.024399592 -0.21507743 -0.20781016 -0.040686324 -0.21999353 -0.11296465 0.1580738
-0.15876319 -0.2378308 0.25589404 0.1906459 -0.11168337 -0.204798 0.13733084 -0.06495621
-0.13924314 0.11975161 -0.091865994 -0.095422834 -0.22115886 -0.053395715 -0.15534237 0.08538298
-0.21938108 -0.25442323 0.08077824 -0.09229857 0.056358036 -0.10162463 0.02450059 0.05050975
-0.26066098 -0.16387807 -0.18038051 -0.01765596 -0.019785268 -0.2656406 -0.04990885 -0.077310376
-0.07683271 -0.01365656 0.2640224 0.2071616 -0.04763684 -0.095871605 -0.19415702 -0.21598627
-0.18327135 -0.07322745 -0.09441361 0.08528279 0.11869748 -0.19487657 -0.04533344 -0.05859848
-0.180522 0.028466899 -0.24006398 -0.100548625 -0.21883282 0.2539562 -0.104366355 -0.12785453
-0.22487439 0.25191656 -0.06275911 -0.121069275 -0.07193436 -0.20094886 -0.015698036 0.018671714
-0.121154286 -0.21128964 -0.10259346 -0.05482577 -0.037676655 0.098240696 -0.19855112 -0.009870667
-0.21985003 -0.22401005 -0.2761328 0.2245933 -0.20170395 -0.31736818 -0.07623378 0.102128655
-0.008771296 -0.07574725 -0.24447046 -0.17509893 -0.16555294 0.25303805 -0.06898155 -0.2571558
0.030701358 -0.14897831 -0.07720877 -0.22760807 -0.07594912 -0.085873544 -0.14056733 0.04020896
0.2607684 0.14759818 -0.26290917 0.22040847 -0.043215774 -0.10247744 -0.108552344 -0.17090131
0.038161002 -0.22109617 -0.108933754 -0.105754636 0.13430722 -0.26948988 0.066989504 -0.26010433
-0.16748136 -0.15011108 -0.2443317 0.01745019 -0.26367882 -0.073654145 -0.041801866 -0.27250153
-0.24842188 -0.25703633 -0.13706887 -0.05907941 -0.2086433 -0.12677166 -0.028781833 -0.11346592
-0.073409356 -0.10521962 -0.13286301 0.08671411 0.06201884 -0.03750837 -0.18685898 -0.30622223
-0.023078244 -0.29851338 0.0110326195 -0.109230235 -0.039761517 0.046498936 0.029124534 -0.25906214
-0.13657574 -0.060647972 -0.0054516303 -0.07526973 0.22383301 -0.085717954 -0.23871894 -0.1502689
0.16708197 -0.00036481622 -0.13231592 -0.16028307 -0.29535216 -0.08178028 0.26086542 -0.08985392
-0.22178295 0.07215998 -0.1010275 0.13669974 0.034192864 -0.11657302 -0.2914426 -0.12712523

norm1.running_mean f4 [400]
00000000: 3bec db41 6dec 4e40 8156 533f a294 5235
00000010: d077 aa41 f5d2 7541 2f1c d13f 6a42 ff41
00000020: 55fe 6141 1cb8 c340 6293 d841 f1f8 dd40
00000030: 1d6e 8c41 1af8 f641 9ed6 3440 b1bf c241
00000040: da54 b841 714b 3742 1e12 ff40 fd79 e53e
00000050: 78e5 6440 8e75 5e41 7c1e 8741 64c9 a241
00000060: 3571 7841 a2c3 ec3b d82d 4341 9c7c 3838
00000070: 7e7e 3c41 6165 a43f 6f1e 4341 5a20 0c42
00000080: ef80 cf41 ed7a 923e e5b0 a240 2e65 1540
00000090: bfeb b041 90e2 9e41 fbd0 f03e 7449 3f41
000000a0: add2 af40 9a58 0f3f 21f1 3c41 8b16 363f
000000b0: 50b8 1a40 5481 e741 30ae 8b3f 3b05 f13b
000000c0: a2e4 ea3d 7fe7 d940 da2b e241 c93d 0a41
000000d0: 4ade 4d41 53ac 2440 e259 8741 8abd a541
000000e0: 93c2 bd41 5620 8841 4a96 9c3e f59e 7440
000000f0: 9a73 ee41 eea0 2540 0f25 0442 bddd 9a41
00000100: 5a85 3441 e214 5741 ba6a da40 e5fa f83f
00000110: b385 0542 beee 5d3f b887 ab3f 0f10 3341
00000120: e7a8 8a41 f40d f441 406b 063f 9b45 e541
00000130: c4bb 8341 944e f540 77b7 ce02 dd70 4f41
00000140: 16ad a441 0e63 5b40 5feb 9241 6b0d 2142
00000150: 7c4d be40 d98d 6841 2c3c a340 f6aa 5d41
00000160: 26fe a341 b681 473f 92ae 7c40 21e3 0e3f
00000170: f176 be40 1770 f741 39a8 6340 b365 d940
00000180: b0f1 6141 0eb8 bd3f 6ee8 8040 59c3 8541
00000190: 83ca bd41 51f2 9640 b8a6 3a41 aa34 2341
000001a0: 2c52 cf41 19ab 0741 265b cf41 17f1 9041
000001b0: 0f48 2f40 6c5d 9b38 7be7 5141 d791 f43f
000001c0: 797e 8d40 7c50 c941 20cd fe40 3e29 af41
000001d0: b403 b73f aca9 d341 a088 1840 5fcd 3a40
000001e0: 3d66 5341 a057 9841 6873 a741 3d2b cc41
000001f0: 3c4e 8541 35e7 9441 efb9 0f41 193c c13f
00000200: 71be d838 95d2 0442 ff92 5f3d ae45 793e
00000210: 91f6 6c41 22ff 9f40 debc 9541 a127 fc40
00000220: b890 9b40 ed9c 303d 7ed7 3b41 b442 ab39
00000230: 94e0 2d40 2a29 8f40 fed8 ab40 2cdd 9741
00000240: 64e3 6140 0d45 1d42 d521 0e41 f5ef 9f40
00000250: 2ad2 bb41 85b0 2942 32e3 cc41 6404 e83d
00000260: 18e9 a541 a37e 8541 a637 6e41 42a8 1f42
00000270: 99a3 f741 bdf1 9f40 9bb1 9141 0459 2040
00000280: 27a9 0f41 d99e 4140 b6b8 9b41 64c9 0041
00000290: 7af1 4141 a46a 9f40 61eb d23f c1c4 073f
000002a0: a37e 4040 615f c441 b050 0d40 10c1 b241
000002b0: 08a8 d13d ba00 2341 6bb8 a541 59e1 3c41
000002c0: cd09 cc41 87df f540 d1fc 4940 051a f241
000002d0: 3e42 2c41 6901 c240 9f17 5540 6d7f 9c3e
000002e0: 4a50 1542 12be 283f be59 c741 496b 1142
000002f0: 17d6 9e41 3b39 f53e 08d1 4941 504d 7940
00000300: d7e3 6641 5f16 0e42 a424 0f41 0ee3 ea41
00000310: 3e4b 0440 f860 4b41 c251 3d3f a30e 2941
00000320: f8f2 d241 277a 073f 7d3c f941 2e0e 0941
00000330: aceb 1342 7bf4 0641 379d 6b41 d190 cf40
00000340: 5449 b340 d05f 9341 7ea8 3d3f 316a 7541
00000350: 6851 3741 1d52 df40 8bc6 053f b6a6 9b40
00000360: 8676 8741 8d40 9d41 21b4 0e41 b1f0 b341
00000370: d9f2 ee40 4120 063f baf9 e440 d0d9 ab41
00000380: a955 a641 dfb0 ba41 066e 0341 4cc1 b23e
00000390: e6a9 c940 e78a 413e 3a3f e53f f09c 8141
000003a0: f66e c741 d6bb cb40 18d6 9d41 6c43 5141
000003b0: 460e ce41 2730 c841 3400 c741 5331 f83e
000003c0: 45a0 8141 2478 773e a06c 8441 e5b6 2640
000003d0: 7636 c83f 6f3a a041 4901 8041 31a6 7741
000003e0: a4b1 6041 6f98 ff3d 063f 9740 f97a 7b3f
000003f0: dacf 2b3b 3b22 c941 c24a 2942 d50c d541
27.490347 3.2331803 0.8255387 7.8447385e-07 21.308502 15.364003 1.6336726 31.907429
14.124593 6.1162243 27.071964 6.9366384 17.553766 30.871143 2.8255992 24.3436
23.041431 45.823673 7.9709616 0.44819632 3.5765057 13.9037 16.889885 20.348335
15.527638 0.0072254697 12.198692 4.398507e-05 11.780882 1.2843438 12.19493 35.031593
25.937956 0.2860941 5.0840936 2.3343005 22.11511 19.860626 0.4703444 11.955433
5.4944673 0.5599457 11.808869 0.7112815 2.4174995 28.938148 1.0912533 0.00735536
0.114693895 6.809509 28.271412 8.640084 12.86677 2.5730178 16.918888 20.717548
23.720007 17.015789 0.3058341 3.822202 29.806446 2.5879474 33.03619 19.35827
11.282557 13.442598 6.825528 1.9451567 33.380566 0.86692417 1.3400793 11.191421
17.332472 30.506813 0.525074 28.658987 16.466682 7.665842 3.0374283e-37 12.9650545
20.584515 3.4279208 18.364927 40.263103 5.9469585 14.534631 5.101095 13.8542385
20.499096 0.779323 3.948155 0.5581532 5.952019 30.929731 3.5571425 6.7936645
14.121506 1.4821794 4.028373 16.720385 23.723883 4.7170796 11.665703 10.200357
25.915123 8.479272 25.919506 18.11772 2.738773 7.408377e-05 13.119014 1.9107007
4.4216886 25.164299 7.9625397 21.895138 1.4298005 26.457848 2.383339 2.9187849
13.2124605 19.042786 20.93135 25.521112 16.6632 18.612894 8.982894 1.5096465
0.00010335155 33.205647 0.054583546 0.24342987 14.810197 4.999894 18.71722 7.8798375
4.861416 0.043118406 11.74011 0.0003266536 2.7168322 4.473775 5.3702383 18.982994
3.5295038 39.317432 8.88326 4.9980416 23.47762 42.422382 25.610935 0.113289624
20.738815 16.686834 14.888586 39.914314 30.954882 4.998259 18.211721 2.505433
8.978797 3.0253203 19.46519 8.049168 12.121454 4.9817677 1.6478082 0.530346
3.0077293 24.546572 2.2080498 22.344269 0.102371275 10.187677 20.715048 11.8050165
25.504786 7.683536 3.1560557 30.262705 10.766172 6.062672 3.3295667 0.30565968
37.328407 0.65915024 24.91882 36.35477 19.854536 0.47895226 12.613533 3.8953438
14.430625 35.521847 8.946445 29.360867 2.0670924 12.711174 0.7395288 10.566073
26.368637 0.52920765 31.154535 8.565962 36.98015 8.434688 14.725883 6.486428
5.602701 18.421783 0.74085224 15.338426 11.457375 6.9787736 0.5225608 4.8641005
16.932873 19.656519 8.918977 22.492525 7.4671445 0.52392966 7.155484 21.481354
20.791826 23.336363 8.214361 0.349131 6.3019896 0.18900643 1.790992 16.20163
24.92918 6.366679 19.729538 13.07896 25.75697 25.023512 24.8751 0.4847513
16.203257 0.24166924 16.55304 2.604913 1.564162 20.028532 16.000628 15.478074
14.043369 0.12480246 4.7264433 0.98234516 0.0026216418 25.141714 42.323006 26.631266
