saved_runs/final_option_3_ddpg_agent_target_critic.pkl (torch_old, 497146 bytes, 5 tensors)

linear1.weight f4 [400, 6]
00000000: 8fdd eabd 49c5 4dbf 0ddc abbd 9c6f c63d
00000010: c2c6 df3c a9c2 3f3e db53 873d 03d6 1c3f
00000020: 74b5 4fbc 1bc9 993e 862b 21be 7043 d8bd
00000030: 7467 243f 13d1 1b3f 8f14 3fbb 5fe5 06be
00000040: f5e5 1bbf 5cd8 de3d 80ca d8be d06c f9bd
00000050: 5ce3 bf3a a76b af3e a37f f5be e090 423e
00000060: 963b b23d 4b4e be3e f172 373c 81f3 b53d
00000070: 812a 003e a057 d9bd b648 d2be 9d2a 98bd
00000080: 7f43 b5ba 81b7 143f 3db9 a5be f91e 87be
00000090: 72e1 bbbe b184 0c3f 6e21 e13c c4c4 fc38
000000a0: c35a d13e 7aad 17bf 7805 74bf 8355 0d3f
000000b0: ebb5 a63d 047b 66be ba25 a0bc 290a 253f
000000c0: 092f b33e 9851 463e 5268 b2bc 2248 13be
000000d0: 2484 dcbd ce2b 63bf 2c7f 993e 97d8 8e3d
000000e0: c36c d0bd 914f 4fbe e304 493c ca20 173d
000000f0: 9289 7c3f 8be1 563f c673 0cbd 6ac1 cf3c
00000100: ee23 d33e 2fbc 0dbd b723 593d 5ead 88be
00000110: 0aba c93b 876c b4bf 840e 0a3f 4a98 73bf
00000120: 4774 babd b6d2 2a3f 0579 0d3c c1b9 c23c
00000130: aaa7 503c f124 b8be 3cb8 f1bd 2eca b5be
00000140: dc28 0dbd 3ae5 a9bd f4ec 343f 447f 29be
00000150: 1eaf 32be 8442 573d a632 7e3b c549 c5bd
00000160: d6ad b2be 6d09 993d 85c7 6bbd bd83 d13e
00000170: 6957 2a3c c961 e5bc 4496 d33c 27cc 84be
00000180: 5e7e 38bf d22f acbe 0136 6d3c e771 c7be
00000190: 5409 26be 2799 2fbe e127 57bf d02e 75bf
000001a0: bb0e 973c 105b eebe 066c bd3d f7cb 16be
000001b0: 3f4f 333e 5120 bc3e 71b7 a23b 57b8 2cbc
000001c0: c8fc 723e b9bc 00be 5c4e 4a3e 8625 d5be
000001d0: e572 393b 2ffa a23e eb93 3bbe ed11 133e
000001e0: 822c 44be e1cc 9abd 4fee f1bb 5414 96bd
000001f0: da8a 843f afe1 b53d 45a3 b3be 0628 edbe
00000200: 4f39 9bbb b89f 9c3e 99f7 eabe 784e 443e
00000210: 3d4e 4d3e bcef 413f 3132 993c bf6f aabd
00000220: e858 90be 9cfc 273e ecac a8be 46ae 723f
00000230: 2167 c43b b588 3cbf c1c6 093f a54f 3fbe
00000240: 9f30 293f 3afb 3e3e dfea 873d 5288 bf3e
00000250: 40e6 90be a989 cf3e 0897 4dbf 9396 7cbe
00000260: 62b3 823c 67ec cebe ec2c 19be 6375 1abe
00000270: ea01 32bf 06e4 5ebf cad5 32ba eebc 5fbf
00000280: eb8d 84be 613e 24bf 8f06 d63d 1c13 d1be
00000290: e9b4 1fbd 9d55 d83e 8aea b8be c64f 723e
000002a0: 11a2 6d3b 26af 7d3e b274 e73c dab1 82be
000002b0: c4c5 463e 1a30 ccbd 414d 0d3f eb86 813e
000002c0: 5421 32be 9fb7 273f 3763 fa3e 7bed e23d
000002d0: ad31 7b3f 163d 3fbc 200d 053d bd80 e2be
000002e0: 122c 033e fb31 38be 0b33 2d3f 339a 1b3f
000002f0: 8887 c2bc f971 5ebc b7bd 303f b4dc 27bd
00000300: 2f5c 59bf d267 8abf 5b2d e83b f8de eebe
00000310: 59cc 3abf 4aec f53e 2849 22bf fd16 8d3f
00000320: 6055 153b 670d e43e 2559 36bf 6f49 6f3e
00000330: 3a5e aebe c61b acbe 9fa8 a53c 3c3e 073f
00000340: 7caa 233e 8d40 b93e eb85 15bf 2c76 b63f
00000350: 8b31 613d faf8 dbbe d13d 683d 4ae4 0cbf
00000360: 8bd2 adbe 1c1b a83e 5049 983d 2633 10bf
00000370: ed32 493f 0238 49be 9185 063f 2d2d 083e
00000380: b0cc 48be 814f c7be 38f7 1abd fe19 ba3d
00000390: 93ca 213f e849 e63d 3be1 64be 4e48 35bd
000003a0: 67c2 6bbf 68bc 07bf 431b 223e 7dac 403f
000003b0: f07d 0abd 746a 173f 80e6 ffbc 6fc3 d0bb
000003c0: 6395 66bf c314 90bf 8136 a03c b946 febe
000003d0: d342 f8bd 70c0 ddbd 83b1 443e 5547 93be
000003e0: 38fe 863b 33e6 123f 78ea 30bf dbd6 d33e
000003f0: 7023 68be a943 aabe 2f67 46bb bd66 ac3e
-0.1146804 -0.8037916 -0.08391581 0.096892565 0.027316455 0.187266 0.06607791 0.61264056
-0.012677539 0.30036244 -0.15739259 -0.10559738 0.64220357 0.60865897 -0.002915654 -0.13173436
-0.6089776 0.10881111 -0.42341995 -0.121789575 0.0014639902 0.3426182 -0.47948942 0.19000578
0.08702771 0.37169108 0.011196838 0.08884335 0.12516214 -0.10612416 -0.410711 -0.07430003
-0.001382932 0.58092505 -0.32367888 -0.26390818 -0.3669544 0.5488997 0.02748176 0.00012052947
0.40889558 -0.5924908 -0.95320845 0.55208606 0.08140167 -0.22507864 -0.01954924 0.6446863
0.34996822 0.19367063 -0.02177826 -0.14382985 -0.10767391 -0.88738716 0.29979837 0.06974905
-0.10176995 -0.20245196 0.0122692315 0.036896504 0.98647416 0.839379 -0.034290098 0.025360782
0.4123835 -0.034603294 0.053012576 -0.2669477 0.006156211 -1.409562 0.539284 -0.9515425
-0.091042094 0.6672777 0.00863481 0.023770215 0.012735287 -0.35965684 -0.11802718 -0.35505813
-0.034462795 -0.082956746 0.7067406 -0.16552454 -0.17449614 0.05255367 0.0038787513 -0.09633211
-0.3489825 0.07472501 -0.057563324 0.4092082 0.010396817 -0.02800073 0.025828488 -0.25937006
-0.7206782 -0.33630234 0.014478208 -0.38954088 -0.16214496 -0.17148267 -0.84045225 -0.95774555
0.018439641 -0.4655385 0.092491195 -0.14726244 0.17510699 0.36743405 0.0049657156 -0.010541997
0.23729241 -0.12571992 0.19756454 -0.4163019 0.0028297242 0.318315 -0.18318145 0.14362307
-0.19157603 -0.07558609 -0.007383145 -0.07328096 1.0354874 0.08880936 -0.35085502 -0.46319598
-0.0047370563 0.30590606 -0.45892027 0.19170558 0.20049377 0.7575643 0.018700691 -0.08322095
-0.2819283 0.16404957 -0.3294443 0.9479717 0.0059937392 -0.736461 0.538189 -0.18682726
0.66089815 0.18650523 0.06636595 0.37408692 -0.28300667 0.40534714 -0.8030858 -0.24666815
0.015954677 -0.40414736 -0.14958543 -0.15083842 -0.6953417 -0.87066686 -0.0006822018 -0.8739766
-0.25889525 -0.6415768 0.1045047 -0.40834892 -0.03899089 0.42252818 -0.3611644 0.23663244
0.003625993 0.24773845 0.028253887 -0.25526315 0.19411379 -0.09970112 0.55196005 0.25298247
-0.17395526 0.6551456 0.4890382 0.11080452 0.98122674 -0.011672279 0.03248322 -0.44238845
0.1280978 -0.17987816 0.6765601 0.60782164 -0.023746267 -0.013576978 0.6903948 -0.040981963
-0.84906286 -1.0812933 0.007085485 -0.46654487 -0.7296806 0.48031837 -0.6339288 1.102264
0.0022786483 0.44541475 -0.71229774 0.23367856 -0.34056264 -0.3361494 0.020222006 0.5282934
0.15983003 0.3618206 -0.5840747 1.4254813 0.05497889 -0.42963392 0.056699578 -0.5503584
-0.33949694 0.32833183 0.07435858 -0.56328046 0.7859333 -0.19650272 0.52547556 0.13298483
-0.19609332 -0.38927844 -0.037833422 0.09086989 0.6319973 0.11244565 -0.22351544 -0.04425841
-0.9209351 -0.5302186 0.15830712 0.75263196 -0.03381151 0.5914681 -0.03123784 -0.0063709537
-0.90071696 -1.1256336 0.01955724 -0.49663332 -0.12122121 -0.1082772 0.1920834 -0.2876536
0.0041196607 0.57382506 -0.6910777 0.4137486 -0.22669768 -0.33254746 -0.0030273905 0.33672133

linear1.bias f4 [400]
00000000: 065f 90be 42b2 c53e 228d 293f 2df6 8dbe
00000010: 0cef aebe 4c89 d7be 7d9c 273e 06e8 73bf
00000020: 3f66 47be f255 11be b877 273e 33d9 603f
00000030: a644 22bf 4133 67ba b0f4 0d40 64de 473e
00000040: 9d3e 62bd 1007 e2be ee9a 73be a2ee 0040
00000050: 1233 9ebb 5b68 82be d051 3cbf 4db8 ca3e
00000060: be95 b2bf eb5e 423e 387b fd3e 88ba 103e
00000070: fc3f 90bc 36b7 8d3e 6a96 01be fe88 133e
00000080: 6dca 1d3f 7ecb 7a3f 5d60 c23f e8e8 2cbe
00000090: 8c46 7bbe a8d1 fe3d f414 3e3f b5dd 813e
000000a0: 59f0 06bf e519 a33f d840 42be 52f7 d3bc
000000b0: e59f 9a3e e471 e93d 139b 0a40 654a 773f
000000c0: 12a0 d7be 4495 82be 33f5 aabe 6b40 ec3e
000000d0: 1714 40bf e70b bd3d a145 473e f7c0 26bf
000000e0: 1891 9d3e 597f 683f 1986 0140 bd4e 2c3e
000000f0: 118e 80bf 49fa 9d3e f431 c93e 0bcd eabe
00000100: 1b02 3c3e ec80 16bf a4a9 9bbd 0385 68be
00000110: fa2c 94be 162a 433d 21d4 bb3f de65 58be
00000120: 5c3f eabe 1b40 393e 26ce 65bf 0a2f 8d3e
00000130: ddcc ed3e 67f2 71be e1f5 81be 6d1b 3a3f
00000140: 52a1 2dbe cc9d 9c3e 845b 9bbe 01c7 7cbe
00000150: 2054 98be 4d75 be3e 9a94 713f 1b46 d5be
00000160: 118b 04bc 8ff8 d63e 2f60 f53d 6c5c c83e
00000170: deaf 04bf f4d9 c63e 52b0 dcbe 1f12 df3f
00000180: ed29 333e 8113 313f 218d 91be 78ef d5be
00000190: 782b 8e3e 26f8 1c3e 04b5 b43e ca19 d43f
000001a0: 67a8 75bf e29f 4d3e 07d6 49be de84 43bf
000001b0: ac83 153f 58bd 203e ba3d 9abe 3dc3 c13e
000001c0: 164b 2c3e 1b72 f3be 95c7 853f fbab 9c3e
000001d0: 764f ce3e 1887 f23e cd01 6e3e b8be 2cbf
000001e0: c483 bb3f d19e 39bf c6e0 11be f88f 4dbe
000001f0: 9b84 3abe 3aea 14bf 8660 ac3e 9271 26bf
00000200: 307f 123e a052 483e 48e7 ed3e 0306 573e
00000210: f003 b33d 3b2e 123f 786f 3bbe c317 783d
00000220: f80b 983f 5789 ff3f aa25 dfbd 0992 b13d
00000230: fd2c 053f a6a0 733f 966a 8f3e e1fb 8dbd
00000240: 69b1 b53f 11ec 48bd 986f a7be 1e13 e6bc
00000250: 4e72 053e 320c 133e b3a0 17be 8091 d33f
00000260: f4e4 2f3f fc8a a7be 6811 33be d7d0 79bc
00000270: b421 7cbe c841 47bf 391b 233d 537f 8ebe
00000280: a158 97be 9e0b d63e 2614 cf3f 5ce6 573f
00000290: fde1 1e3f a320 dc3e ac43 e5be 205d a7be
000002a0: b59c 64be d2b0 533e fb36 ab3e 0391 f13b
000002b0: 3fef 0340 6ddb 05bc 62a6 0d3f 7246 f23e
000002c0: 9fce 15bc 2f30 3b3e e294 963e 60c6 283e
000002d0: 2086 a9bf 96fa ea3f fd02 25bf 12ed b03f
000002e0: e815 293e df37 c33e 09c8 45be 2fff 2dbd
000002f0: dcb1 14bf e3c8 c03f ccf1 083f ae26 26be
00000300: bc26 67bf 891c 893f fbe4 c43f 41ad 073e
00000310: b738 973f ce6b c43f fc9d ca3f ccd9 d2be
00000320: 1098 d13e 2cda 0d3f 01e1 16be 49ac 3fbf
00000330: a397 f73d d5db 6c3d 9c34 9ebf 16ba 0b3e
00000340: 4173 003f a085 fdbe b44f 74be f383 d1be
00000350: 4de0 60bf 5dd8 d13e a1be 2dbe cfe7 3a3e
00000360: b653 103f 1454 29be 9656 b1bd 6d68 393f
00000370: 2898 4abe e4e1 983d d83c 2ebe 1ca4 9cba
00000380: 6f18 45bf 924f f2bd 30da 59be 1a7c 78bd
00000390: d59d 4f3f bfe1 353e cda9 d83f 81f4 2a3d
000003a0: ff27 de3e a577 883e b810 3ebe f0c1 6038
000003b0: 867b 0ebf 5e59 623f a9d3 07bc dccb 623f
000003c0: 8d13 703e b65b fb3d 33c5 c1bd 74ea 94be
000003d0: 725b 493d 5871 8fbe c023 06be a2cc 14bf
000003e0: c579 afbe cf0f 3abd fbad 6fbe 1385 b73f
000003f0: 97d7 e23f 1b46 ff3e 2095 bbbe bb29 75bf
-0.28197497 0.38612562 0.66230977 -0.2772688 -0.34166753 -0.42096937 0.1636829 -0.95275915
-0.19472598 -0.14192942 0.16354263 0.8783142 -0.63386 -0.0008819588 2.2180595 0.19518429
-0.055235494 -0.44146013 -0.2378957 2.014565 -0.0048278654 -0.25470242 -0.73562336 0.39593735
-1.3951948 0.18981521 0.4950807 0.14133656 -0.017608635 0.2767884 -0.12655035 0.14407727
0.61637 0.97966754 1.5185658 -0.16885722 -0.2453863 0.124423325 0.7425072 0.25364462
-0.5271049 1.2742277 -0.18970048 -0.025874767 0.30200115 0.11398676 2.165715 0.9659789
-0.4211431 -0.25504506 -0.33390197 0.46142897 -0.75030655 0.09230786 0.19460155 -0.6513819
0.3077476 0.9081932 2.0238097 0.16826911 -1.0043355 0.30855015 0.39295924 -0.4585956
0.18360178 -0.5879047 -0.07600716 -0.2270699 -0.28940564 0.04764756 1.4674112 -0.21132609
-0.45751464 0.1809086 -0.8976768 0.2757495 0.4644536 -0.23627625 -0.25382903 0.726981
-0.1695607 0.3058914 -0.30343258 -0.24685289 -0.29751682 0.37198868 0.94367373 -0.4165505
-0.008089797 0.4198651 0.11981236 0.39133012 -0.5183085 0.3883816 -0.43103272 1.7427405
0.17496462 0.69170386 -0.28427985 -0.41784263 0.2776754 0.15329036 0.35294354 1.657037
-0.95960087 0.20080522 -0.19710551 -0.76374614 0.5840404 0.15697229 -0.3012522 0.37844267
0.16825518 -0.47547993 1.0451533 0.3059996 0.40295 0.47368693 0.23242874 -0.67478514
1.4649587 -0.7250796 -0.142459 -0.20074451 -0.18214647 -0.581699 0.33667392 -0.65017045
0.1430633 0.19562769 0.46465516 0.20998387 0.087409854 0.5710179 -0.1830424 0.060569536
1.1878653 1.9963788 -0.10895856 0.08670432 0.5202177 0.95167005 0.28011006 -0.06932808
1.4194766 -0.049053255 -0.32702327 -0.028085288 0.13031885 0.14360121 -0.14807396 1.6528778
0.6870873 -0.32723224 -0.17487109 -0.015247545 -0.24622232 -0.7783475 0.039820883 -0.27831516
-0.29559806 0.41805738 1.6178024 0.84335876 0.6206358 0.4299365 -0.44778192 -0.32688236
-0.22325404 0.2067292 0.33440384 0.007372023 2.0614774 -0.008169991 0.55332005 0.4731937
-0.009143501 0.182801 0.29410464 0.16481924 -1.3244057 1.8357723 -0.64457685 1.3822348
0.16512263 0.38128564 -0.19314589 -0.04247969 -0.5808389 1.5061306 0.5349395 -0.16225693
-0.9029348 1.0711833 1.5382379 0.13249685 1.1814183 1.5345399 1.5829463 -0.4118179
0.40936327 0.5541103 -0.1473427 -0.7487226 0.12089469 0.057826836 -1.2359805 0.13645205
0.50175864 -0.4951601 -0.2385853 -0.40920982 -0.87842256 0.40985385 -0.1696725 0.1825249
0.5637773 -0.1653598 -0.08659093 0.72424966 -0.19784606 0.0746496 -0.17015398 -0.0011950764
-0.7699041 -0.11831583 -0.21274638 -0.060665227 0.8110021 0.17761897 1.6926819 0.041737083
0.4338989 0.26653782 -0.18561065 5.358638e-05 -0.5565723 0.88417614 -0.00829021 0.88592315
0.23444958 0.12273352 -0.09461441 -0.29085124 0.049159475 -0.28016162 -0.13099575 -0.58124745
-0.3427259 -0.045425232 -0.23406212 1.4337486 1.7722043 0.49858174 -0.3663721 -0.957668

linear2.weight f4 [300, 402]
00000000: 90cc 59bc 1b42 45bb 926d 0fb6 2641 07a1
00000010: e107 08b4 f136 60a0 5119 c1ad 338c 6db0
00000020: 0a56 75bb 7e4f 7abc 64e5 b2bb 989b 32b8
00000030: f38a 99ae 6913 c0bb 4d7a 0bb2 5b71 68b3
00000040: 587c e29c b20d 2da3 95cd bba5 5475 8aac
00000050: 2cd1 94b8 f3ae d8a4 b960 97aa f97b 25b0
00000060: e5fe 8ab6 58d8 1fa3 f789 01b0 9c4c d8bb
00000070: 98e7 48b7 17e9 a0bc 1d2f 50b5 c9b3 4cbb
00000080: 4c07 9e26 7851 6f25 6fa2 f4a7 dc33 71a9
00000090: a772 9bb4 3517 aabc 079c afbc 01e8 9ebb
000000a0: 0f83 0000 aea4 21ac 3267 8ca5 b2f8 e1bb
000000b0: 7c4c 8cb5 edf4 67ba ce31 4eb1 6d19 09bb
000000c0: 2948 bfa1 0804 36b9 0e00 81a2 c2f6 59af
000000d0: 3ed4 ceb7 19f0 2dbc a31b d2b7 e2dc 4aa1
000000e0: 4c3f edb8 8a61 c8b9 b5d0 f7b5 c73e e8bb
000000f0: 8a9a 7da1 6d4a 97b9 22e9 63ae 918f 61b8
00000100: 4f33 bfb6 69e7 8ba8 8cf4 e4ba 56c8 c2b5
00000110: 55c6 d1a7 ff26 8cb8 f926 9aaf 5ed7 b0ba
00000120: 0fc1 23bb 3ba2 05b8 8d55 9aa5 b5b3 8ab8
00000130: 3826 1fbc 9eb2 07b3 0c32 48b5 4b12 85ba
00000140: 6cb6 18ab d818 35b6 9d8a 46b6 e635 28bc
00000150: a3be afb9 038f 17b2 87ad 16b3 0b5a 0000
00000160: 801c 1bb9 b0ab 76bc 1969 55ba a85d 95bc
00000170: 08e4 94b2 363b aabc 1223 99a5 dabf 3da8
00000180: 5e65 b5bc ed64 26a8 f17a c4bb 4a72 42b8
00000190: 40fc ccb8 db7a 7bb4 9d91 dfbb 9401 6ab9
000001a0: 7c66 c3b3 f109 1bbc 0e46 99ba a168 9cb5
000001b0: 59be 42af fcd3 85b9 2c3a 08ac ebf2 30bc
000001c0: 86db 07b6 eef4 1aba 55d0 28b6 de47 02bc
000001d0: b32e 89bc 6c0b 5ebc 0c84 d0bc 6d27 f3b7
000001e0: 39d2 3bae 8a54 40b4 bf94 87b3 ebdb 87a0
000001f0: 5b0d 88b4 e3cc 06af 0214 ff9e eff1 66b4
00000200: 09e4 b1bb 95cc a2b5 a0e5 d2b7 bf48 c4bc
00000210: a1f4 c8b8 0561 87b0 808d 00b3 62c6 96bc
00000220: 07b3 78b2 41e7 1eb3 29c5 34b5 1fc3 4bbc
00000230: bf9f 0cbc d0f2 f8ba d5f0 aabc deb5 a2b5
00000240: f7d3 79aa f33c 37b4 0f5a a4af 03f8 afb5
00000250: 09fa c3af bf8c 15b4 a99f 58b7 08b4 0428
00000260: 3e12 88b6 f55b 35a5 58ce 82b4 3f2e 92b8
00000270: fdf4 76b2 92e9 9eb6 fa61 66bb 6461 6fb7
00000280: 70aa c9b1 cef8 51bb 610e 49ae e5b4 33bc
00000290: 99d9 81bc 3ebb 29b8 4a77 71b7 1f12 4daf
000002a0: 0e88 4521 d364 abb5 5aaf 6cbc 8843 5db8
000002b0: ef60 30b8 6724 e5b8 9c23 22bc 6199 8abc
000002c0: ef9d 44b5 10b8 57ab 57c9 f4b9 e58f 3bbb
000002d0: 9782 24b7 d257 caa6 e655 f6b7 d4d0 75ad
000002e0: ff2a 24b4 4158 0daf 4913 8aa0 ea2e 99bc
000002f0: 506e c82a edf2 b5a7 2bd5 c7ac ec1c 7fb7
00000300: 623d 6fb3 91ac 60bb 4f55 17b8 3725 adac
00000310: 0468 d3ad 81ee aba5 c4d6 a2b0 66ca 1ab5
00000320: b41b 17b3 952d 22b4 7177 05b0 43a3 35aa
00000330: f2b3 83bc b2dc 32b0 4e4d e1b5 2bb0 94bc
00000340: 61be bdac 6b84 2ab4 e61b 5bb5 3f25 e9b6
00000350: 11a6 d79f 3667 a7bb 0699 e0af bc95 24b7
00000360: d9a0 c8b7 8cf3 89b5 4f81 bcb4 706c aca7
00000370: e89c aeaa ba5a 0fb4 0eb5 0080 92e0 17ba
00000380: 5ff5 44b2 7daf e2b6 55df 0d2d 2ee5 80bc
00000390: f228 f1bb 7dfe aabb 59b9 47b0 13e9 d3b1
000003a0: b65f 36b4 eb6f 0000 ae79 87b5 8a2e 2eb7
000003b0: 949d 78bc 2eb4 beae be4e 25ba 2f45 10b5
000003c0: 6577 01ac dbfd c621 7b54 cfb5 fcd7 b5a6
000003d0: 7de3 3cb5 97fa 3cb0 969f 02b2 b18b 22b9
000003e0: 8a12 b6b5 e320 09bb 2169 ceba f6b4 6dac
000003f0: 5781 6f21 402c 87b9 3d02 17b9 3be3 79af
-0.0132934 -0.0030099216 -2.1372439e-06 -4.5826e-19 -1.2668853e-07 -1.8991717e-19 -2.1952802e-11 -8.6419333e-10
-0.0037435316 -0.0152777415 -0.0054594744 -4.2583415e-05 -6.982317e-11 -0.005861689 -8.118673e-09 -5.4119806e-08
-1.4987568e-21 -9.381249e-18 -3.2578637e-16 -3.935222e-12 -7.096151e-05 -9.397144e-17 -2.6890103e-13 -6.0202826e-10
-4.142394e-06 -8.66522e-18 -4.7125986e-10 -0.0066009294 -1.1974851e-05 -0.019642396 -7.7554597e-07 -0.003123509
1.096543e-15 2.0757548e-16 -6.7899715e-15 -5.355773e-14 -2.895442e-07 -0.02076302 -0.021436704 -0.0048494344
4.7015e-41 -2.2970892e-12 -2.4356057e-16 -0.006896102 -1.0453073e-06 -0.00088484475 -3.0005256e-09 -0.0020919696
-1.2961764e-18 -0.00017358374 -3.496558e-18 -1.9823701e-10 -2.4655947e-05 -0.010616326 -2.504682e-05 -6.87326e-19
-0.000113128306 -0.00038219645 -1.8463676e-06 -0.007087562 -8.5924265e-19 -0.00028856416 -5.1820888e-11 -5.3777887e-05
-5.6982167e-06 -1.5532458e-14 -0.00174679 -1.4512432e-06 -5.8224185e-15 -6.682984e-05 -2.8040129e-10 -0.0013491919
-0.0024986898 -3.186076e-05 -2.6772713e-16 -6.613826e-05 -0.009713702 -3.159459e-08 -7.4578634e-07 -0.0010152546
-5.425441e-13 -2.6985563e-06 -2.9584983e-06 -0.010266757 -0.00033520636 -8.821874e-09 -3.508242e-08 3.2301e-41
-0.00014792569 -0.015055582 -0.0008140966 -0.018233135 -1.7333164e-08 -0.020780187 -2.6565034e-16 -1.0533209e-14
-0.022143062 -9.236736e-15 -0.005996101 -4.6359644e-05 -9.774463e-05 -2.3420891e-07 -0.0068227784 -0.00022316567
-9.099037e-08 -0.009462819 -0.0011693852 -1.1653357e-06 -1.7711822e-10 -0.00025525677 -1.9359054e-12 -0.010800104
-2.0244347e-06 -0.0005911131 -2.5155216e-06 -0.007951705 -0.0167459 -0.013552528 -0.02545359 -2.8986216e-05
-4.2705593e-11 -1.7912149e-07 -6.313484e-08 -2.301542e-19 -2.534169e-07 -1.226002e-10 -2.700745e-20 -2.1508434e-07
-0.0054287952 -1.2129482e-06 -2.5140878e-05 -0.02396047 -9.582309e-05 -9.850117e-10 -2.9931016e-08 -0.018405143
-1.4476206e-08 -3.6997566e-08 -6.734213e-07 -0.012436657 -0.008583008 -0.0018993262 -0.02086679 -1.2122871e-06
-2.2189183e-13 -1.7065376e-07 -2.9895417e-10 -1.3110697e-06 -3.5647954e-10 -1.392791e-07 -1.2911777e-05 7.36651e-15
-4.0552395e-06 -1.5730404e-16 -2.4364522e-07 -6.9704365e-05 -1.43747885e-08 -4.735958e-06 -0.0035153613 -1.4268186e-05
-5.8692464e-09 -0.0032039168 -4.571488e-11 -0.010968422 -0.015850829 -4.0467123e-05 -1.43924935e-05 -1.8651079e-10
6.6926263e-19 -1.2769837e-06 -0.014446104 -5.27534e-05 -4.2051946e-05 -0.000109263514 -0.009896185 -0.01691884
-7.3245513e-07 -7.663878e-13 -0.00046689317 -0.0028619703 -9.805567e-06 -1.4040369e-15 -2.9365485e-05 -1.3973007e-11
-1.5289332e-07 -1.285523e-10 -2.339087e-19 -0.018699128 3.5603681e-13 -5.0500973e-15 -5.6795866e-12 -1.5205918e-05
-5.570235e-08 -0.0034282545 -3.6080655e-05 -4.9210874e-12 -2.4034115e-11 -2.9825388e-16 -1.1848091e-09 -5.7664e-07
-3.5182623e-08 -1.5104008e-07 -4.8554855e-10 -1.6132672e-13 -0.016077016 -6.506965e-10 -1.6786305e-06 -0.01815041
-5.3928394e-12 -1.5880657e-07 -8.1624455e-07 -6.948277e-06 -9.1330776e-20 -0.0051087392 -4.0854092e-10 -9.8100245e-06
-2.3916758e-05 -1.0278177e-06 -3.5111813e-07 -4.785716e-15 -3.1017485e-13 -1.3350919e-07 -6.495e-41 -0.00057936565
-1.14644925e-08 -6.7557544e-06 8.064512e-12 -0.015734281 -0.0073596174 -0.0052183256 -7.2659173e-10 -6.1674057e-09
-1.698489e-07 4.0149e-41 -1.0093697e-06 -1.0382044e-05 -0.015174288 -8.672206e-11 -0.0006305984 -5.3744856e-07
-1.839828e-12 1.3484197e-18 -1.5447289e-06 -1.2617941e-15 -7.0366497e-07 -6.875011e-10 -7.603282e-09 -0.00015501563
-1.3565452e-06 -0.0020924143 -0.0015747884 -3.378018e-12 8.114753e-19 -0.00025782175 -0.00014401316 -2.2727147e-10

linear2.bias f4 [300]
00000000: 8186 b4a6 dd94 e3ae 4659 693d 0443 a8b6
00000010: cf86 e3b8 3a78 848d 36b0 cda7 2bec 84ba
00000020: 87e9 833b e325 39b8 6c88 b095 2699 233e
00000030: 5961 25a9 ecd7 8b3f 6161 b2af 84a8 cb13
00000040: e28c 7d3e 488f c3bb 58ef 07b5 a119 03b7
00000050: b335 81a8 50e9 921c e33e 513b 223e 343f
00000060: 395a 24ba d909 c63e 5c84 f23e 9744 3ebb
00000070: 1ed5 d9b9 9bb6 19bb 3292 313f 264f b4b1
00000080: d42c d53e b262 b9bb 6ecb 22a9 7594 f5b3
00000090: 2335 cf3e c7f3 1796 08f1 0a9b d3f7 15b6
000000a0: 80cf b5a7 e0f2 03b3 914c 113f d6cc 24bb
000000b0: 4c58 e13e d5dd 42bc eebf afba a9c8 203f
000000c0: 1b3c 8cbb ceed 08a8 74f0 04b9 8dae bd91
000000d0: b39c fabb 810b 053f 3956 65ae 6237 b6b0
000000e0: 2bcc bbb8 f0a0 12aa 922f 0fa6 78be 8a3a
000000f0: 1f29 30b9 73ab 35bb 0df2 2d3f e0cc ae9a
00000100: 2588 32ac 9593 64aa 9819 a83d 7ba3 4699
00000110: 6d0d a6ba 7a12 ec8c 7a58 43b9 5a8c 853c
00000120: 9086 e0b9 18fb 1e9d cf0c 8aa3 c099 7ebc
00000130: bc83 a1b3 814b 783b d607 f73e 2515 31bf
00000140: 7437 5fb5 2bb8 cfaa d4a3 5eba 8843 42b9
00000150: 40d2 e2a4 334f 10af bbe0 b691 da4f 27ab
00000160: 91ff 02bb 37af a1b9 f536 d3ac b4c4 0e99
00000170: cafc 0c8c 9997 89b9 9a4d 9497 3e8f e99e
00000180: caba 7db5 4669 11b9 1b0f 05ba af5c 9ca9
00000190: ad93 5dbe 9180 1cb7 0e44 99b9 26b6 ceb9
000001a0: 7039 45bc b871 853f 8122 91b2 6cad 9aa1
000001b0: 0e9a a8b9 ee82 d5a2 e2cf 1d9a dc4b 95bd
000001c0: ed0b f6a1 ee29 53a5 c226 328d 1397 8491
000001d0: 160c fe94 7113 8ab5 e559 a3b8 64d3 5ea9
000001e0: 0a47 44ae cec3 4eba dca2 88ba ed73 fb9e
000001f0: b459 9e9d 67ac f93d 827e 3cb5 43d4 088a
00000200: 214f 2897 d17d 11b6 7325 363f d964 80ac
00000210: 5c8f 08b7 8dd0 ec9e e0e6 59ba 3b41 ecb9
00000220: 9b8c 84b8 779e 64af 9a88 f596 1102 d6bd
00000230: fc02 0c9f fd97 14bc 4425 27bb 59b7 0f3f
00000240: b263 8fb8 8961 533e 5b8f 73b5 dec2 d13d
00000250: 58ac 87ad 01a2 e3a9 e30a 803e 1613 a9bd
00000260: 7e67 6caf 584d 0d92 59a1 d4b5 72a7 6da0
00000270: 6b66 ce3d 45f2 94b0 a69c 93a5 9014 0ba0
00000280: d8ba e599 9e66 84b7 b220 f8b3 eb81 163f
00000290: 04ff beab 6728 7da4 0997 15ba 9037 0fbe
000002a0: e16a 093c 22ed 23ba e6dc 51be 6e37 2d3c
000002b0: 3d6f cf97 caee f1ba 6704 f5af 839c 1fa8
000002c0: ca7a 92b7 b296 73b0 988a cebb d34d 0c15
000002d0: 3233 ffaf 074c f238 79d0 8aaa e030 91bc
000002e0: f02a ffa9 917f 11a2 3c42 9dab 0475 04ac
000002f0: bbb2 a29c 333e cc97 8f2c cf3e 77d7 f892
00000300: 41fd 3d93 610d 2ab0 3893 57a1 58f1 41bd
00000310: b6c3 883b 0f37 9a25 75cf b6ab ef44 3cba
00000320: 04c2 2bbc fa6f c7bb 526a 11bc f845 683f
00000330: 2014 8aad 581b 0d31 b555 4194 debf 253f
00000340: d7db 7bbe 855e 5aba 5bfa 453f 7404 2f94
00000350: 8821 04a1 d8ec 99a9 4edc e3b8 7423 57b2
00000360: 75c2 8d3e 1eba 62be 202e e5a6 36d1 ae23
00000370: bfc9 34be 0c4f 869c 9026 2dbe 3564 8998
00000380: 726e 05b4 9f13 df3d 9c4e debe 7a88 a29b
00000390: 3341 03bb 4e98 89ba 4135 c6ab 7595 9cb6
000003a0: 074e 68b8 23dc 62b0 039a 7e3e ee17 87a3
000003b0: fe17 36b4 8c28 c1bc 8021 b616 e68f 58bb
000003c0: 84a3 0a97 72d1 9dae 3139 3fa2 4c3f 20b6
000003d0: 4afc ad91 bd9d e4b6 259d a091 3d08 1f3e
000003e0: d1a7 bc87 a87a ebb2 9bdd 123b 6317 84be
000003f0: 69ef 0c3f 4afe fdb3 c067 063a 1de0 2ebe
-1.2526466e-15 -1.0349208e-10 0.056969903 -5.014592e-06 -0.000108493135 -8.164072e-31 -5.708998e-15 -0.0010141184
0.0040256414 -4.4142722e-05 -7.130107e-26 0.1597639 -3.6721795e-14 1.0925269 -3.2447203e-10 5.1410574e-27
0.24760774 -0.005968008 -5.063971e-07 -7.814176e-06 -1.4345165e-14 9.721779e-22 0.0031928353 0.7040731
-0.0006269548 0.38679388 0.47366607 -0.0029032582 -0.0004154825 -0.0023454789 0.693637 -5.2476876e-09
0.41635764 -0.0056575174 -3.6147673e-14 -1.1435706e-07 0.40470228 -1.2274605e-25 -1.1492974e-22 -2.2346983e-06
-5.0462564e-15 -3.0721708e-08 0.56757456 -0.0025146506 0.44012678 -0.011893709 -0.001340864 0.62806183
-0.004279626 -7.601082e-15 -0.00012678077 -2.9926517e-28 -0.0076480745 0.5197068 -5.2145153e-11 -1.3257984e-09
-8.954884e-05 -1.3023241e-13 -4.967756e-16 0.0010585329 -0.00016799987 -0.00277206 0.67947465 -7.2295707e-23
-2.5370897e-12 -2.0301671e-13 0.082080066 -1.0269375e-23 -0.0012668796 -3.6372678e-31 -0.00018629609 0.016302276
-0.00042824866 -2.1040938e-21 -1.4967415e-17 -0.015539587 -7.521109e-08 0.00378868 0.48248166 -0.6917289
-8.315467e-07 -3.689838e-13 -0.000849304 -0.00018526439 -9.8368054e-17 -1.3124861e-10 -2.8853038e-28 -5.9441135e-13
-0.0019988755 -0.00030838858 -6.003082e-12 -7.380952e-24 -1.0861279e-31 -0.00026243625 -9.583865e-25 -2.4729078e-20
-9.452166e-07 -0.00013867495 -0.0005075798 -6.94387e-14 -0.21638365 -9.328259e-06 -0.0002923314 -0.00039427093
-0.01203762 1.0425329 -1.6895912e-08 -1.048135e-18 -0.00032158237 -5.7872393e-18 -3.2634765e-23 -0.0728986
-1.6672765e-18 -1.8315539e-16 -5.489714e-31 -2.0919035e-28 -2.5652213e-26 -1.0287459e-06 -7.78919e-05 -4.9477254e-14
-4.4628336e-11 -0.00078874535 -0.0010424512 -2.6623604e-20 -4.1915003e-21 0.12191086 -7.021955e-07 -6.588084e-33
-5.43836e-25 -2.1679919e-06 0.7115089 -3.649175e-12 -8.13961e-06 -2.5073727e-20 -0.0008312296 -0.00045062028
-6.32044e-05 -2.0792777e-10 -3.9668092e-25 -0.10449613 -2.9648622e-20 -0.00906944 -0.002550439 0.5613914
-6.837341e-05 0.20642675 -9.0733164e-07 0.10242246 -1.5424259e-11 -1.0108928e-13 0.25008306 -0.082555935
-2.1500843e-10 -4.458709e-28 -1.5842189e-06 -2.0130084e-19 0.100781284 -1.0837274e-09 -2.5606584e-16 -1.1780562e-19
-2.375351e-23 -1.5783411e-05 -1.1554347e-07 0.5879199 -1.3571093e-12 -5.4894852e-17 -0.0005706405 -0.13986039
0.008387298 -0.0006253292 -0.20494422 0.0105722975 -1.3405142e-24 -0.0018458006 -4.4568368e-10 -8.860211e-15
-1.7461734e-05 -8.8617036e-10 -0.0063031428 2.8334167e-26 -4.6420606e-10 0.000115536204 -2.465838e-13 -0.0177235
-1.1331723e-13 -1.9718697e-18 -1.1173905e-12 -1.8823285e-12 -1.0766461e-21 -1.3198892e-24 0.40463683 -1.5704117e-27
-2.3980018e-27 -6.186465e-10 -7.3039676e-19 -0.047349304 0.004173721 2.675205e-16 -1.2989459e-12 -0.0007181903
-0.010483269 -0.0060863467 -0.008875446 0.90731764 -1.5697721e-11 2.0533744e-09 -9.760913e-27 0.6474589
-0.24595581 -0.00083301245 0.7733514 -8.83612e-27 -4.476772e-19 -6.835651e-14 -0.000108652384 -1.2522708e-08
0.2768742 -0.2214131 -1.5902569e-15 1.8953722e-17 -0.17655085 -8.887809e-22 -0.16909242 -3.5514853e-24
-1.242677e-07 0.10892414 -0.4341935 -2.6888848e-22 -0.0020027875 -0.0010497661 -1.4083527e-12 -4.6665614e-06
-5.538578e-05 -8.2531154e-10 0.24863438 -1.4646864e-17 -1.6958799e-07 -0.023578905 2.9424827e-25 -0.0033044755
-4.479659e-25 -7.1767384e-11 -2.5915604e-18 -2.3878702e-06 -2.7450072e-28 -6.8132927e-06 -2.5340397e-28 0.15530486
-2.838573e-34 -2.7413378e-08 0.002240992 -0.25799093 0.5505281 -1.18274855e-07 0.0005127154 -0.1707768

linear3.weight f4 [1, 300]
00000000: a9f5 353b c8ee 24ba fda2 083b 651f 81bb
00000010: a433 c93a 9efc 8c3c 8075 54bc 7fc5 87bc
00000020: 820c 25bc d786 f8bc 3885 7c3c 7b7a ba3c
00000030: 11a5 1fbc 15a8 ea3e 03e5 263c ef02 a9bc
00000040: 0afd 423d edf6 843b b17d 6cba 8021 1bbd
00000050: 8f91 d53c 6b52 503a a13a adbb 15ad 493e
00000060: 5954 c7bc b008 3c3e 9004 bd3d 2277 10ba
00000070: b2e9 a0bb deb4 cf3b 3549 7c3f 2b18 10bd
00000080: bab8 533e 4aba 2b3b 7337 c0bc 9eaf a03c
00000090: bce3 303f c158 8b3c c749 dabc f58d 1739
000000a0: 9932 0c3d 7c4c b73b 1a16 803d 4643 ad3c
000000b0: 6673 a53f 894e 25bc 8f94 48bc 86c9 693f
000000c0: 4b88 863c 307b c13c a498 c9bc 9046 12bc
000000d0: c4f7 66bb 285f 613d de09 33ba 785b aa3c
000000e0: 923a 34bd f0df 03bc 075a 363b 4a53 2c3a
000000f0: 0d76 d0bc 7d2c 7abc 50d4 1f3f 4fb2 403b
00000100: 2303 a13c 1f68 06bd 2798 9fbe 0bc4 9dbc
00000110: 7117 3abb 3c32 253b cf6d 35bb 2c18 563a
00000120: b4bc a8ba 8793 3a3c 371e 9a3b d38e 8eba
00000130: 5a16 173c 1411 1cbb e801 d23c 208d d1be
00000140: b669 203a 5198 983a 3ec1 aabc 5676 8b39
00000150: 9d49 ddbc 3ea9 443c 52bd 97bb 5a06 c03c
00000160: f54a 593c 1686 763b 0118 debc a9fc 6ebc
00000170: ff2b ce3b 92f2 ccbb 0fdb 3d3c 1880 4b3a
00000180: aae3 bcbb 4f7a eb3a 0d6d 1c3d 2f15 99bb
00000190: d667 43be 2a45 ea3c 0f63 123b 3528 843b
000001a0: 2991 57bc e261 813f 8770 113d 8800 063d
000001b0: f02c fabc cfad 133b 3cc9 cf3c 30c6 7abd
000001c0: 0cad 2cbc d005 21bd fee0 5c3c cfa5 a83b
000001d0: 1595 fcbb 54dc 393b df43 3f39 01c1 a33c
000001e0: dfab 183c 4003 10bb bf23 023d 292d c63b
000001f0: 39fa 72b8 c116 da3d 3dbc 84bb bab8 5ebc
00000200: aaed d7bc c4be 6fbc 30b5 893e 395d 2d3c
00000210: 7193 6335 e229 123d a6c0 7d3c 8e04 8f3b
00000220: 9d2d 0c3d 794a 1fbc 0492 4abc 640e 34bc
00000230: e7f7 fb3a e2d1 003b 2748 d6bc 7416 493d
00000240: 1667 8dba 94ab 1d3f 3e6a d7bc 78db d93e
00000250: f0fb 903b d882 f73b bd19 303f 5e72 5dbd
00000260: 60bb 97ba f424 d6bc b7c6 2aba d0f5 233c
00000270: f68a 693e 5509 ffbb d1fd 8e3b 5b2a 4a3a
00000280: 6bea 203c 768c ae3b cde1 f7bc 1519 2c3d
00000290: 1461 b83a 2476 3dba b6e8 b8bc e600 6dbe
000002a0: 0112 53ba 19ff 393b 1e6c 36be cd50 ad3b
000002b0: 4859 2fbc 4850 27bc 52f1 3aba 30ee 12bd
000002c0: 1028 44ba 1723 cc3c 9afc d9bc d164 87bb
000002d0: 44e0 32bc cbdf 7339 a683 34ba 407f e4be
000002e0: 47dc b63c ff90 e7ba d03b da3c f178 d83b
000002f0: d553 a63b 9117 043d c922 eb3c 15a7 bbbc
00000300: 8da1 2e3c 12a5 40bc 4834 f13c 2c81 75be
00000310: 6876 afbb 4b45 b3bc 7e24 633a 8d9a 9cbb
00000320: 93e1 d33c 863b ddbb 0aee 8cbc f8ca 3d3f
00000330: 7dc2 08bd bb77 d1ba 5441 c53c 06c6 693f
00000340: 6c61 b1be 99da 44ba 7cdc 78bf a362 093c
00000350: 4c7a febb b379 d7bb 8d56 b9bb 0c43 a1bc
00000360: 5a21 86bf 00b3 5dbe 7929 94bc bb44 903a
00000370: 2ef2 10bf 6802 e83b c154 09be 437f 213a
00000380: 75af 103c 564a b4be eb96 babd d066 993c
00000390: 2c01 f5ba 9bd7 073a fb16 a73a 4af4 c93c
000003a0: a600 bb3c b2a9 b8bc 036f 1a3c f447 e33a
000003b0: 83b9 4abc 9349 973c c97f b7bc 0fb0 10bb
000003c0: 4e5c 6abc 7002 dfb2 3566 943c 3276 313a
000003d0: 8319 42bb fd76 b4bb 0f86 8d3c 070e 7e3e
000003e0: c2df 0b3c 8bc9 2fbb a68f 4abb ef66 1ebf
000003f0: 34ae 373d 4b71 d2bc 3f7a dbb9 0bba f9bc
0.0027764833 -0.00062916847 0.0020849102 -0.00394051 0.0015350473 0.017210301 -0.012967467 -0.016573666
-0.010073783 -0.030337734 0.015412621 0.022763481 -0.009743945 0.4583136 0.010186437 -0.020631282
0.047604598 0.004057756 -0.0009021415 -0.037873745 0.026070384 0.00079468515 -0.00528653 0.19694932
-0.024332212 0.18362689 0.09229386 -0.0005510916 -0.004910671 0.0063386997 0.98549205 -0.0351793
0.20675936 0.0026203566 -0.02346394 0.01961499 0.69097495 0.017010095 -0.026646508 0.00014453365
0.03422794 0.0055938344 0.062542155 0.021150243 1.2925842 -0.010089525 -0.01224245 0.91323125
0.016422411 0.02361831 -0.024608918 -0.008927956 -0.0035242895 0.05502239 -0.00068297784 0.020795569
-0.04400117 -0.008048996 0.0027824657 0.00065736903 -0.025446916 -0.015269396 0.6243334 0.0029403155
0.019654816 -0.03281414 -0.3117077 -0.01925852 -0.002839532 0.0025206944 -0.002768386 0.0008167054
-0.0012873621 0.011387712 0.004703309 -0.0010876305 0.009221638 -0.002381389 0.025635675 -0.40927982
0.0006119268 0.0011642074 -0.020844098 0.00026600313 -0.02701264 0.012003241 -0.004630723 0.023440529
0.0132625 0.0037616543 -0.027111055 -0.014586606 0.006291866 -0.0062545026 0.011587872 0.0007762923
-0.0057644444 0.0017965528 0.038189936 -0.0046717147 -0.19082579 0.028597433 0.0022336876 0.0040331134
-0.0131571675 1.0107996 0.035507705 0.03271535 -0.030539006 0.0022534018 0.02536451 -0.061224163
-0.010539304 -0.039312184 0.013481377 0.005146719 -0.0077082017 0.0028360086 0.00018240463 0.019989492
0.009318321 -0.0021974593 0.03177237 0.006047864 -5.7930334e-05 0.10648871 -0.00405076 -0.013593847
-0.026358444 -0.014632884 0.26896048 0.010581308 8.4778645e-07 0.035684474 0.0154878255 0.0043645566
0.034223188 -0.0097223455 -0.012363914 -0.010989759 0.0019223661 0.001965635 -0.026157452 0.04909368
-0.0010788168 0.6158993 -0.026295777 0.42550254 0.0044245645 0.0075534396 0.68789274 -0.054064147
-0.0011576228 -0.026140667 -0.0006514596 0.010007337 0.22806916 -0.007783095 0.0043637534 0.0007712
0.009821515 0.005326803 -0.030259037 0.042016108 0.0014067017 -0.0007227382 -0.022571903 -0.23144874
-0.0008051694 0.002838081 -0.17814681 0.005289173 -0.010702439 -0.010212012 -0.00071312964 -0.035871685
-0.00074827764 0.024919076 -0.026609708 -0.0041318913 -0.010917727 0.00023257655 -0.0006886072 -0.44628334
0.022321833 -0.0017667114 0.026639849 0.006606214 0.0050759115 0.032249037 0.02870311 -0.02290682
0.010658634 -0.011758106 0.029443875 -0.23975056 -0.0053546913 -0.021883627 0.00086648006 -0.004779166
0.025864398 -0.0067514805 -0.01720335 0.7413783 -0.033388603 -0.0015981117 0.024079002 0.91317785
-0.3464464 -0.000750938 -0.9721143 0.008385333 -0.007766044 -0.006575787 -0.0056560696 -0.01968529
-1.0478928 -0.21650314 -0.018086182 0.0011006811 -0.56619537 0.007080365 -0.13411237 0.0006160626
0.008830895 -0.35212964 -0.091108166 0.018725783 -0.0018692366 0.0005181969 0.0012747938 0.024652619
0.022827458 -0.022541855 0.009425881 0.0017340169 -0.012373331 0.0184677 -0.0223998 -0.0022077595
-0.014304234 -2.5961725e-08 0.018115142 0.00067696266 -0.0029617257 -0.0055073486 0.017275838 0.24810039
0.008537235 -0.002682301 -0.0030908375 -0.61875814 0.044843867 -0.025688788 -0.00041862015 -0.03048422
