saved_runs/final_global_option_ddpg_agent_target_actor.pkl (torch_old, 508554 bytes, 14 tensors)

linear1.weight f4 [400, 6]
0	0x3d2e782e	0.04259508
1	0x3e214420	0.15748644
2	0xbeccf92d	-0.40033856
3	0xbe8008c0	-0.25006676
4	0x3d3054b2	0.04304952
5	0x3ddc2127	0.10748511
6	0xbe563b6f	-0.2092111
7	0x3e923416	0.28555363
8	0x3d975733	0.07389679
9	0x3cb527ac	0.022113644
10	0x3be8ff14	0.007110486
11	0xbcf18cb1	-0.029486032
12	0xbe27627d	-0.16346164
13	0xbebbb907	-0.36664602
14	0xbe769d32	-0.24083403
15	0xbe28487b	-0.16433899
16	0x3e9d656c	0.3074144
17	0x3e0d7f32	0.13818052
18	0xbe9b7b9e	-0.3036775
19	0xbe9d0ca1	-0.30673698
20	0x3c437710	0.011930242
21	0x3e72aeef	0.23699544
22	0xbe3e87d1	-0.18606497
23	0x3ed3ad70	0.4134326
24	0xbe86d8f5	-0.263374
25	0xbe2e7cba	-0.17039767
26	0x3e08216f	0.13294004
27	0xbe6ffc1e	-0.23436019
28	0xbeca9955	-0.39570108
29	0xbc164926	-0.009172713
30	0xbd89b00e	-0.06723033
31	0x3eba84ef	0.36429545
32	0xbe8cc544	-0.27494252
33	0xbe9e27c1	-0.30889705
34	0xbe083c80	-0.13304329
35	0xbeba5364	-0.36391747
36	0xbe8d6bbc	-0.27621257
37	0x3ecf2d56	0.40464276
38	0x3e0fbdd9	0.14037265
39	0x3dc4f284	0.09616569
40	0xbc8610f9	-0.016365515
41	0xbdb4c62c	-0.08826861
42	0x3e92ec1e	0.28695768
43	0xbd525805	-0.051353473
44	0xbeb38105	-0.35059372
45	0xbe1d4f8d	-0.15362377
46	0x3e5a27c7	0.21304236
47	0x3e933101	0.28748325
48	0xbea88c89	-0.3291972
49	0xbdabd666	-0.08390503
50	0x3d744e45	0.059644956
51	0x3eb74c09	0.35800198
52	0x3e5f41d5	0.21802457
53	0x3bd54b9b	0.006509257
54	0x3e920c64	0.28525078
55	0xbede214b	-0.43384776
56	0x3b9c48a3	0.004769401
57	0xbe442f4a	-0.19158664
58	0xbe2dea80	-0.16983986
59	0xbdf9164d	-0.12162457
60	0x3eb9f26e	0.36317772
61	0x3e359224	0.1773153
62	0xbe1290de	-0.14313075
63	0x3db046b1	0.08607233
64	0x3e5ce14c	0.21570319
65	0xbd609508	-0.054829627
66	0x3e0dfaa5	0.13865145
67	0xbc8cb89b	-0.01717787
68	0x3e6d1759	0.23153438
69	0x3ead33ba	0.33828527
70	0xbeaa8850	-0.33307123
71	0xbe111fe5	-0.14172323
72	0x3d9b59fe	0.07585524
73	0x3e85fca5	0.26169315
74	0x3edba10b	0.42896304
75	0x3e955fe1	0.29174712
76	0x3e135945	0.14389522
77	0xbeb931a0	-0.36170673
78	0x3e157291	0.14594485
79	0xbeac0871	-0.3360019
80	0xbe9cb589	-0.3060725
81	0x3e6b1439	0.22956933
82	0x3ef15beb	0.4714044
83	0xbececf8f	-0.4039273
84	0x3e635c68	0.22203219
85	0xbc3d59b1	-0.011557029
86	0x3ced5485	0.028970966
87	0xbda4bd9d	-0.08043978
88	0x3de69128	0.11258155
89	0xbdec48f0	-0.11537349
90	0x3e20e395	0.15711816
91	0x3e0f7eb7	0.14013182
92	0x3ead69bd	0.33869734
93	0x3db1be70	0.08678901
94	0xbecacaba	-0.39607793
95	0xbe5a0b71	-0.21293427
96	0x3e484a53	0.19559602
97	0x3d9085a7	0.07056742
98	0xbe864e9b	-0.26231846
99	0xbe7dc2b6	-0.24781308
100	0x3f04d5d8	0.518888
101	0x3e5bf250	0.21479154
102	0x3d41784f	0.047233876
103	0x3d398349	0.04529122
104	0xbef507ca	-0.47857505
105	0xbe348eb6	-0.17632565
106	0xbe3862cc	-0.18006438
107	0xbe99e0b8	-0.3005426
108	0x3d3cb988	0.046075374
109	0xbd7cadfc	-0.061689362
110	0xbe90edd8	-0.2830646
111	0x3d950dd0	0.07278025
112	0xbe302b9a	-0.17204133
113	0x3ea21d13	0.31662807
114	0x3e6f2b03	0.23356251
115	0xbeb4ea6a	-0.35335094
116	0xbd71398a	-0.058892764
117	0x3ce51062	0.027961913
118	0x3c14d6f8	0.009084456
119	0x3d8e7d7a	0.069575265
120	0x3e8df8ef	0.27728984
121	0x3dfdcc1d	0.12392447
122	0xbd33a43e	-0.043857805
123	0x3e52df98	0.20593107
124	0xbef08232	-0.4697433
125	0xbe57c028	-0.21069396
126	0x3d897875	0.067124285
127	0xbe822657	-0.25419876
128	0xbe026439	-0.12733544
129	0xbed51a3e	-0.41621584
130	0x3e02bdfd	0.12767787
131	0x3cdffe4e	0.027342942
132	0xbe9f6975	-0.31135145
133	0xbd992ef8	-0.07479662
134	0x3e1aba42	0.15110114
135	0x3d46e46b	0.04855768
136	0xbda3d838	-0.08000225
137	0x3d090dcb	0.03346042
138	0xbd88755b	-0.06663009
139	0x3e205aeb	0.15659682
140	0x3f113634	0.5672333
141	0x3e3b1e11	0.18273188
142	0x3e897cc5	0.26853004
143	0xbbb59e97	-0.005542587
144	0xbf10b35e	-0.5652369
145	0xbebe64a1	-0.3718615
146	0x3d8ecab4	0.06972256
147	0xbd552164	-0.052033797
148	0xbe737813	-0.23776273
149	0xbe476e8d	-0.19475766
150	0xbe22927f	-0.15876196
151	0xbec41005	-0.38293472
152	0xbe2aa0bf	-0.16662882
153	0x3e1b9a99	0.15195693
154	0x3e3548d0	0.17703557
155	0xbea8fed8	-0.3300693
156	0x3eae483f	0.34039494
157	0xbea8e181	-0.32984546
158	0xbbda160e	-0.006655461
159	0xbb58fa54	-0.0033108192
160	0xbda9bded	-0.082881786
161	0xbc8f3754	-0.017482437
162	0xbed960fd	-0.4245681
163	0xbe8ff917	-0.28119728
164	0xbd245516	-0.040120207
165	0x3dcf2a84	0.10115531
166	0xbe69cc41	-0.22831823
167	0xbc313397	-0.010815523
168	0xbebda028	-0.37036252
169	0xbde5b6fd	-0.11216543
170	0x3ec5e3e5	0.38650432
171	0xbe5032b3	-0.2033184
172	0x3e44c3ec	0.19215363
173	0x3e05b52b	0.13057391
174	0xbed4d19f	-0.41566178
175	0x3e468028	0.19384825
176	0xbd101731	-0.035178367
177	0xbda78b4a	-0.08180864
178	0x3ea302bd	0.31838027
179	0xbe93dcc8	-0.2887938
180	0xbe43e16c	-0.1912896
181	0xbe34a241	-0.1764002
182	0x3e4ca401	0.19984438
183	0x3dd1eea2	0.10250594
184	0x3e042270	0.12903762
185	0x3e638420	0.2221837
186	0xbe8fd026	-0.28088492
187	0xbde49b30	-0.11162412
188	0xbe71c1d5	-0.23609097
189	0x3e4bebda	0.19914189
190	0x3e6ed358	0.23322809
191	0x3e8b971a	0.2726372
192	0xbed20c3a	-0.41024953
193	0x3cebcaf0	0.028783292
194	0xbe2706e5	-0.16311224
195	0xbdc83bda	-0.09777041
196	0xbe746c74	-0.23869497
197	0x3e2b20c2	0.16711715
198	0xbe1d610e	-0.15369055
199	0xbd9a5116	-0.07534997
200	0xbc0cc19e	-0.008591084
201	0x38e4307d	0.00010880919
202	0xbe954045	-0.29150596
203	0xbec7b5a6	-0.39005774
204	0xbe59e0f5	-0.2127722
205	0x3ec6ad94	0.38804305
206	0xbcb2ba32	-0.0218173
207	0x3e5ca221	0.21546222
208	0x3de4419a	0.11145325
209	0x3da455b3	0.08024158
210	0xbd2ad314	-0.041705206
211	0xbe94991e	-0.2902307
212	0x39393070	0.00017661019
213	0x3c53e9e4	0.012934182
214	0xbcab978c	-0.020946287
215	0xbb872a95	-0.004124949
216	0xbecc76d1	-0.399344
217	0xbea743e9	-0.32669
218	0x3e66677d	0.22500415
219	0xbe700177	-0.23438059
220	0xbea9a812	-0.3313604
221	0x3ecf595b	0.4049786
222	0x3e8dcab2	0.27693707
223	0x3e308f8c	0.17242259
224	0xbe052515	-0.13002427
225	0x3e6904c0	0.22755718
226	0xbed9ad69	-0.42515114
227	0xbd9d998f	-0.076953046
228	0xbe049155	-0.12946065
229	0xbdc89d2c	-0.09795603
230	0x3dce8ed0	0.10085833
231	0x3e15e984	0.1463986
232	0xbd1a3f2b	-0.037657898
233	0x3e9af53c	0.30265224
234	0x3ea817ea	0.32830745
235	0xbddba8da	-0.10725565
236	0x3de9a4a5	0.114083566
237	0xbeaa7fa6	-0.33300513
238	0xbe8ec814	-0.27887022
239	0x3e91cafb	0.28475174
240	0x3ca15ab8	0.019696578
241	0x3eab3064	0.33435357
242	0xbe2a7eef	-0.16649984
243	0x3dcb4dff	0.09926986
244	0x3e25a5ad	0.16176482
245	0xbea6e219	-0.32594374
246	0x3d593b10	0.053034842
247	0xbf1486bf	-0.58018106
248	0x3d0e0740	0.034674883
249	0xbd2ed902	-0.042687424
250	0xbddf5782	-0.10905363
251	0xbd83b1c1	-0.06430388
252	0x3ec1727d	0.3778266
253	0xbe7d43cc	-0.24732894
254	0xbe004d96	-0.12529597
255	0xbeb9581b	-0.36200032

linear1.bias f4 [400]
0	0x3eaa72e7	0.3329079
1	0xbe2451a7	-0.16046773
2	0x3d0f761d	0.03502475
3	0x3e976454	0.29568732
4	0xbf0f9eff	-0.56101984
5	0x3e53b89f	0.20675896
6	0xbeb0e8c2	-0.3455258
7	0xbe6affbe	-0.2294912
8	0xbf245fd6	-0.64208734
9	0xbd597994	-0.05309446
10	0xbe0680a9	-0.13135017
11	0x3ed36e54	0.4129511
12	0xbcb4e081	-0.022079708
13	0xbc4bd575	-0.012441029
14	0x3f1fc982	0.6241685
15	0xbeccff33	-0.40038452
16	0xbd6784a0	-0.056522965
17	0x3f01916d	0.5061253
18	0xbe8ed93a	-0.27900106
19	0x3edc870e	0.4307179
20	0x3e19daf5	0.15024932
21	0xbdf12fd0	-0.11776698
22	0xbf4d29ac	-0.8014171
23	0xbe18fba9	-0.1493975
24	0xbe48f574	-0.19624883
25	0x3e0d6abe	0.1381025
26	0xbf0d7f6b	-0.5527255
27	0xbf0c5004	-0.54809594
28	0xbe29b6cf	-0.16573642
29	0xbeb6beeb	-0.35692534
30	0xbc6ae148	-0.014335938
31	0xbe816fef	-0.2528071
32	0xbe6a5f23	-0.22887854
33	0x3e2e1cce	0.17003176
34	0x3f194c5d	0.59882146
35	0x3ef97b3c	0.48726833
36	0x3cb45c8b	0.022016784
37	0xbcf5d9ce	-0.030011084
38	0xbe87a1ae	-0.2649054
39	0x3de92587	0.11384111
40	0x3e4945a8	0.19655478
41	0x3de670a3	0.112519525
42	0x3c850c3a	0.016241182
43	0xbdf4c01c	-0.119507045
44	0xbe90bc6c	-0.28268754
45	0x3f049318	0.5178695
46	0xbd78f833	-0.060783576
47	0xbe5a7700	-0.21334457
48	0x3d18f41c	0.037342176
49	0x3ea0a8fa	0.3137892
50	0x3eddd596	0.43327016
51	0x3f19b321	0.60038954
52	0xbe881f20	-0.26586246
53	0x3d1467a5	0.036231656
54	0x3f2d72f0	0.67753506
55	0xbe8e8fef	-0.27844188
56	0xbf1c7280	-0.61112213
57	0xbd7fba3e	-0.062433474
58	0x3eac2043	0.33618364
59	0x3e133c29	0.14378418
60	0xbd8d43bb	-0.06897684
61	0xbd4474b8	-0.047962874
62	0x3e836de4	0.25669777
63	0x3d628d86	0.05531075
64	0xbe572860	-0.21011496
65	0xbdb5984f	-0.08866941
66	0x3dfe83a2	0.12427451
67	0xbe085371	-0.1331308
68	0xbf00d6df	-0.5032787
69	0x3f2336f4	0.63755727
70	0x3f03ace6	0.514357
71	0xbf030ff7	-0.51196235
72	0xbe34a7aa	-0.17642084
73	0x3d801df1	0.06255711
74	0xbd01289d	-0.031532872
75	0xbefe3ae5	-0.49654308
76	0x3f07579e	0.5286807
77	0xbed515f7	-0.4161832
78	0xbf0fdb75	-0.5619424
79	0x3ede54f0	0.43424177
80	0xbe665bc7	-0.22495948
81	0xbf2d4e10	-0.6769724
82	0x3eec23ff	0.46121213
83	0xbda49273	-0.080357455
84	0xbee7d83c	-0.4528216
85	0xbf3f5e50	-0.74753284
86	0xbcb9bfc3	-0.022674447
87	0x3d2faaf9	0.04288766
88	0xbec58582	-0.3857842
89	0x3ea350c4	0.31897557
90	0xbd0ba034	-0.03408833
91	0x3c937804	0.018001564
92	0x3ec10f9e	0.37707227
93	0x3edc76b0	0.430593
94	0xbf2e7719	-0.6815048
95	0xbe167722	-0.14693883
96	0xbd686051	-0.05673248
97	0x3f02136d	0.5081089
98	0xbf08713c	-0.5329778
99	0x3e45d126	0.19318065
100	0x3eed1246	0.46303004
101	0x3f0ee956	0.5582479
102	0x3ebe9d7f	0.37229535
103	0x3e7a2685	0.24428757
104	0x3d8a41dc	0.06750843
105	0x3d1b6133	0.037934493
106	0x3f0be33d	0.54643613
107	0x3f33f129	0.70289856
108	0xbf2d4fce	-0.676999
109	0x3d4cba2e	0.049982242
110	0xbedb6ae1	-0.4285498
111	0x3e17c0d3	0.1481965
112	0xbe0c7ed5	-0.13720258
113	0x3c45b3eb	0.012066822
114	0xbf15958e	-0.5843133
115	0xbe164d34	-0.14677888
116	0x3f0eddf9	0.55807453
117	0x3d5e4f4d	0.054274846
118	0x3da220d2	0.07916416
119	0xbee7f2ce	-0.45302433
120	0xbdc997d5	-0.09843413
121	0xbe3039ea	-0.17209592
122	0x3c0c2c9e	0.008555559
123	0xbd62b3c5	-0.055347223
124	0xbe599372	-0.21247652
125	0xbf0a1526	-0.5393852
126	0x3e0bcb35	0.13651736
127	0x3e4439f2	0.1916273
128	0x3e471e55	0.19445165
129	0xbe8a389f	-0.26996323
130	0xbcfa22b3	-0.030534124
131	0xbeb40410	-0.3515935
132	0xbdda49e5	-0.106586255
133	0x3efcc888	0.49371743
134	0x3e27d6e8	0.16390574
135	0xbf5c84b9	-0.8614002
136	0xbdd6cbfc	-0.10488126
137	0x3e5fa30e	0.21839544
138	0x3eca02c7	0.39455244
139	0xbf211d16	-0.62935007
140	0xbf16dae8	-0.58927774
141	0xbe8287e3	-0.25494298
142	0xbf2f1f53	-0.6840717
143	0xbe26113d	-0.16217513
144	0xbf0e6478	-0.55622053
145	0xbee092d6	-0.43862027
146	0x3e5992a8	0.21247351
147	0x3e8ceac1	0.27522853
148	0xbe009b3e	-0.1255922
149	0x3e483e0d	0.1955492
150	0xbe0612a2	-0.13093045
151	0x3f180611	0.59384257
152	0xbeec9805	-0.46209732
153	0x3ef0e1e3	0.47047338
154	0x3ed79789	0.421078
155	0x3f289d09	0.65864617
156	0xbf4d1aa6	-0.8011879
157	0x3de75710	0.11295903
158	0x3e30d157	0.17267357
159	0xbf0098f2	-0.50233376
160	0xbd853111	-0.06503499
161	0x3b937fd1	0.004501321
162	0x3ebd0749	0.3691962
163	0x3e5e46cc	0.21706694
164	0xbd0c87bd	-0.034309138
165	0x3c70eb64	0.014704559
166	0xbccc676d	-0.024951661
167	0x3eb418ec	0.35175264
168	0xbce57654	-0.028010525
169	0xbef81f04	-0.48461163
170	0x3ddebb25	0.10875539
171	0xbecedd34	-0.4040314
172	0x3ee04a9f	0.4380693
173	0x3f0433ae	0.51641357
174	0xbeb38c91	-0.3506818
175	0x3e9e7312	0.30947167
176	0xbf1a0bfd	-0.6017454
177	0x3e06595f	0.1312003
178	0x3e7b8985	0.24564178
179	0x3c0166d7	0.007898054
180	0xbf3ea793	-0.7447445
181	0x3ead21b5	0.3381478
182	0xbc8763d9	-0.016527103
183	0x3e295cb2	0.16539267
184	0xbd490e48	-0.049085885
185	0x3f1d7230	0.6150236
186	0x3ecf4cfb	0.4048842
187	0x3f138359	0.57622296
188	0x3e001a2e	0.12509987
189	0x3eaae11d	0.33374873
190	0xbc75ee36	-0.015010407
191	0x3eafcfcc	0.34338224
192	0xbf3ba113	-0.73292655
193	0xbeb4fd45	-0.3534948
194	0xbee1e4f3	-0.44119987
195	0x3e77fa10	0.24216485
196	0x3f157cf7	0.58393806
197	0x3e2d4291	0.16919924
198	0x3d321295	0.043474752
199	0x3f129b8e	0.5726861
200	0x3ebe72f1	0.37197068
201	0xbc249f8c	-0.010047805
202	0xbe0e066f	-0.13869642
203	0xbf32c0cf	-0.6982545
204	0x3dc70d32	0.09719314
205	0xbd4a3fc2	-0.04937721
206	0x3eb87f5a	0.36034662
207	0xbda34051	-0.07971252
208	0x3e38cd83	0.18047146
209	0x3eb2c090	0.3491254
210	0xbf38571b	-0.7200791
211	0x3e320d4b	0.17387883
212	0xbf2d1d7f	-0.6762313
213	0x3e07f76d	0.13277979
214	0xbec9006f	-0.39258143
215	0xbea7ce63	-0.32774648
216	0x3e87978e	0.26482815
217	0xbeadb250	-0.33925104
218	0xbd354e0e	-0.044263892
219	0x3eea729c	0.45790565
220	0xbe2378b3	-0.15964012
221	0x3e6cfe9a	0.23143998
222	0x3e839e88	0.25706887
223	0x3e852f1b	0.260125
224	0xbe1b5a76	-0.15171227
225	0x3e0e6672	0.13906267
226	0x3e3b8209	0.18311323
227	0xbf27166c	-0.6526859
228	0xbdd8b199	-0.10580749
229	0xbe9b36fa	-0.3031538
230	0xbe0b1e36	-0.13585743
231	0x3db60b74	0.08888903
232	0xbe7e84e6	-0.24855384
233	0xbe2be5a4	-0.1678682
234	0xbecc1a95	-0.3986403
235	0x3c776eef	0.015102132
236	0x3da4fd76	0.08056156
237	0x3ef0399c	0.46918952
238	0xbe86ec37	-0.26352093
239	0xbed44fde	-0.41467184
240	0xbf147d87	-0.5800404
241	0x3d6e6925	0.058205742
242	0xbd173f85	-0.03692581
243	0x3e633c74	0.2219103
244	0x3e994c03	0.29940805
245	0x3dd5f866	0.10447769
246	0xbe91d9ef	-0.28486583
247	0x3d09a6c8	0.03360632
248	0x3cd7b2d9	0.026330398
249	0x3a27fadf	0.0006407927
250	0x3d544a9c	0.051828966
251	0x3e8ddab6	0.27705926
252	0x3eb45dc5	0.3522779
253	0xbe803c8a	-0.25046188
254	0xbcab6d49	-0.020926135
255	0x3ee4f5dd	0.4471883

linear2.weight f4 [300, 400]
0	0xbd0a81ee	-0.033815317
1	0xbe8a753d	-0.2704257
2	0xbd1179f5	-0.035516698
3	0x3d05d30b	0.03267197
4	0x3cdaa31a	0.026689101
5	0x3bb9b9de	0.005667909
6	0xbcf7cd19	-0.030249165
7	0x3d3528dc	0.04422842
8	0x3d3cba2e	0.046075992
9	0xbc93e0dd	-0.01805156
10	0x3d9a7d26	0.075434014
11	0xbabbcaa1	-0.0014327356
12	0xbd3386e7	-0.043829825
13	0x3c4133a4	0.011792097
14	0x3d1fd5d3	0.039022278
15	0xbcc13b2e	-0.02358779
16	0xbd5805f3	-0.05274005
17	0xb93e276c	-0.00018134498
18	0xbd3dbe0c	-0.04632382
19	0x3d73d86d	0.05953257
20	0xbd2fc01a	-0.04290781
21	0x39eebcf4	0.00045535679
22	0x3c518c11	0.012789742
23	0x3c3a4682	0.011369349
24	0x3dacc150	0.08435309
25	0xbdb2736d	-0.08713422
26	0x3b26c1ac	0.0025445027
27	0xbd8d5a3f	-0.06901979
28	0x3b8401e6	0.0040285466
29	0x3d05f8e6	0.03270807
30	0x3ba007bd	0.004883735
31	0xbcd9674d	-0.026538515
32	0x3bb40afa	0.0054944726
33	0x3d4eb97f	0.05046987
34	0x3c75919d	0.01498833
35	0xbd970393	-0.073737286
36	0x3cf09dab	0.029372057
37	0x3d81b156	0.06332652
38	0x3bdb17b1	0.006686174
39	0xbc6d8ad4	-0.014498431
40	0xbd824cc2	-0.06362297
41	0xbe0cfe45	-0.13768871
42	0xbdee6a2b	-0.11641344
43	0x3d51aea4	0.05119194
44	0xbcf7adbb	-0.030234208
45	0xbcab232c	-0.020890795
46	0x3d50a4c1	0.05093837
47	0xba9e3b1b	-0.0012072058
48	0xbced71e4	-0.028984971
49	0xbdb58066	-0.08862381
50	0xba1c75c5	-0.0005968477
51	0xbd4b5362	-0.049640067
52	0xbd05de65	-0.032682795
53	0xbd6948de	-0.056954257
54	0xbcd2667e	-0.025683638
55	0x3d5c483a	0.053779818
56	0xbaf279fd	-0.001849949
57	0xbde2c3aa	-0.11072476
58	0x3bf39f85	0.0074347877
59	0x3d20bdfb	0.03924368
60	0xbc0084fd	-0.007844207
61	0x3d85b43a	0.06528516
62	0xbcf4a7b2	-0.02986512
63	0xbd907b37	-0.07054751
64	0xbc80931e	-0.015695151
65	0xbde293bd	-0.11063335
66	0x3d882e51	0.06649459
67	0xbdae14e6	-0.0850008
68	0xbc582aaf	-0.01319377
69	0xbd2ae468	-0.04172173
70	0xbd4d42d0	-0.050112545
71	0x3cc7a979	0.024372803
72	0xbcebfcb9	-0.028807031
73	0x3d30b21d	0.043138612
74	0xbd86bf36	-0.06579439
75	0xbd6c2308	-0.057650596
76	0x3cc54fbd	0.024085874
77	0x3d5a5b75	0.053309876
78	0x3d74ab64	0.059733763
79	0xbd566c26	-0.052349232
80	0x3cc6cb6d	0.024266923
81	0xbd551e1a	-0.05203066
82	0xbd29a181	-0.041413788
83	0xbd2e496d	-0.042550493
84	0x3d280e2a	0.041029133
85	0x3d627e56	0.055296265
86	0xbd52ba22	-0.05144704
87	0x3dbc0a6b	0.091816746
88	0x3d5a376c	0.05327551
89	0xbca91d30	-0.0206438
90	0xbd1b04ac	-0.037846252
91	0x3d721fe9	0.059112463
92	0x3d9ad40a	0.075599745
93	0xbc8556ff	-0.016276835
94	0x3d16b520	0.036793828
95	0x3cfc4636	0.030795198
96	0x3d5a481e	0.053291433
97	0xbd9e6f74	-0.07736102
98	0x3d00142a	0.03126923
99	0x3cbacd62	0.022803012
100	0x3dd79f36	0.10528414
101	0x3d470f67	0.048598673
102	0x3d35b8ca	0.04436568
103	0xbc3aed55	-0.011409123
104	0xbb42117d	-0.0029612475
105	0xbd827174	-0.06369296
106	0x3b599f86	0.0033206656
107	0xbaa0ae4f	-0.0012258979
108	0x3d5bd55a	0.053670265
109	0x3d2709c2	0.04078079
110	0x3cf0f0bd	0.029411668
111	0xbe28e413	-0.16493253
112	0x3b0acad7	0.002117803
113	0xbd2a3347	-0.041552808
114	0xbce34641	-0.02774346
115	0x3d794091	0.06085259
116	0xbd71a289	-0.058992896
117	0x3cc677bc	0.024227016
118	0xbd7d1ff1	-0.06179804
119	0x3d8f7cac	0.07006201
120	0x3d8d8608	0.0691033
121	0xba054412	-0.00050836906
122	0x3dd5939d	0.104285456
123	0xbd24fc4e	-0.04027968
124	0xbcc984de	-0.024599489
125	0xbc3702a3	-0.011170062
126	0xbdb29d41	-0.087214
127	0xbce06e9e	-0.027396496
128	0x3d1c764e	0.03819876
129	0x3c03f0af	0.008052989
130	0xbd6ca975	-0.057778794
131	0xbd3cdebe	-0.04611086
132	0x3d42a1af	0.047517475
133	0xbd42d112	-0.047562666
134	0xbd12d90e	-0.03585153
135	0xbe2f8c7b	-0.17143433
136	0x3c851577	0.016245587
137	0x3d1402e4	0.03613557
138	0xbc95915e	-0.018257793
139	0x3d403204	0.0469227
140	0xbc81d8f0	-0.015850514
141	0x3d808498	0.0627529
142	0x3c939434	0.018015005
143	0x3d82f11d	0.06393645
144	0x3c9075da	0.017634321
145	0xbcf4e7d5	-0.029895702
146	0x3d4bea65	0.049784083
147	0xbc919733	-0.017772293
148	0xbd45344c	-0.048145577
149	0x3d10faa9	0.0353953
150	0xbce37d0a	-0.027769584
151	0xbc87b813	-0.016567266
152	0x3c915a77	0.017743332
153	0xbdc4ce00	-0.09609604
154	0x3d86af55	0.06576411
155	0x3d0b62fb	0.034029942
156	0x3c9b59f1	0.018963786
157	0xbd54f31a	-0.051989652
158	0x3d96e381	0.07367612
159	0x3cb39d88	0.021925703
160	0x3b891589	0.0041834754
161	0xbd559308	-0.052142173
162	0xbd9dd825	-0.07707242
163	0xbcc2b968	-0.02377005
164	0x3d8447bc	0.06458995
165	0xbd6eb157	-0.058274593
166	0x3dc6244f	0.09674894
167	0x3cab317c	0.02089762
168	0x3d9b9696	0.07597081
169	0x3bec8b1b	0.007218731
170	0xbd493707	-0.049124744
171	0x3d2fa9e4	0.04288663
172	0xbd4eb4dc	-0.05046545
173	0xbaebd27b	-0.0017991805
174	0xbc9174b8	-0.017755851
175	0xbd8a0d6d	-0.06740842
176	0x3cd06216	0.025437396
177	0xbccc6180	-0.024948835
178	0xbd57d036	-0.0526888
179	0x3d401e51	0.046903912
180	0x3c595db9	0.013266974
181	0x3d00325a	0.03129802
182	0x3d07e11e	0.033173673
183	0xbd55c02e	-0.05218523
184	0xbdca5c0e	-0.09880839
185	0x3d42d16e	0.04756301
186	0xbdac1990	-0.08403313
187	0xbc4adbd9	-0.012381517
188	0xbbae4ccc	-0.0053192135
189	0x3dcb45af	0.099254005
190	0x3b705be8	0.0036675874
191	0xbc082fe5	-0.0083122
192	0x3d0290b8	0.031876296
193	0x3ca154a2	0.019693676
194	0xbce086e2	-0.027408067
195	0xbd154a38	-0.036447734
196	0x3c46e8da	0.012140477
197	0xbde1d5c6	-0.11027102
198	0xbd50476b	-0.05084936
199	0xbdb5e95f	-0.08882403
200	0xbd28f2b3	-0.04124708
201	0xbc0f1fd4	-0.008735616
202	0xbc2b3709	-0.010450133
203	0x3d66f9de	0.056390636
204	0xbd3626c1	-0.044470552
205	0xbd9c7b5b	-0.07640716
206	0xbd3c3ecc	-0.045958325
207	0x3a3f381d	0.00072944333
208	0x3d209f99	0.039214704
209	0xbd87931b	-0.06619855
210	0x3d6013bf	0.05470633
211	0xbd1342f8	-0.03595254
212	0xbd9cc675	-0.0765504
213	0x3cdb8cac	0.026800476
214	0x3c97265b	0.018450907
215	0x3ddaddb4	0.10686818
216	0x3cced1c1	0.025246503
217	0xbd65440b	-0.055973094
218	0x3d3b2c48	0.045696527
219	0x3d0fad9c	0.035077676
220	0x3d596cf5	0.053082425
221	0x3d251192	0.04029996
222	0xbd1658eb	-0.036705893
223	0xbde8728f	-0.11349975
224	0x3c9759e7	0.018475486
225	0xbdd00349	-0.101568766
226	0x3d933c85	0.071892776
227	0xbd6bdd6e	-0.05758422
228	0x3d5c4a7a	0.053781964
229	0xbd69e082	-0.057098873
230	0x3d73792c	0.05944173
231	0xbd08017b	-0.033204537
232	0xbbc17e80	-0.0059049726
233	0xbd92d676	-0.071698114
234	0xbc94c663	-0.018161004
235	0x3d4d1910	0.05007273
236	0xbca7368e	-0.020411756
237	0xbcc209b2	-0.023686264
238	0x3d7c10cf	0.061539467
239	0xbdb68aa8	-0.08913165
240	0xbd5561f1	-0.052095357
241	0x3d070963	0.032967936
242	0xbbe97966	-0.0071250675
243	0xbd331ed1	-0.04373056
244	0xbd71d184	-0.0590377
245	0xbc14b05a	-0.009075249
246	0x3dc7aa59	0.09749288
247	0x3d20d332	0.03926391
248	0xbc27bea3	-0.010238322
249	0xbe0d059e	-0.13771674
250	0x3c5039bd	0.012709078
251	0xbde4651b	-0.11152097
252	0xbd832996	-0.06404416
253	0x3d7fdd15	0.0624667
254	0xbcf09b42	-0.029370908
255	0x3c6f37fb	0.014600749

linear2.bias f4 [300]
0	0x3d22945c	0.039692268
1	0xbc954d54	-0.01822535
2	0xbddb1a18	-0.10698336
3	0xbd75e836	-0.060035907
4	0x3c746cba	0.014918501
5	0xbd0dbe8f	-0.03460556
6	0xbd81e5be	-0.06342648
7	0xbd8a46ab	-0.0675176
8	0xbd3d1290	-0.04616028
9	0xbdd7d5c4	-0.105388194
10	0xbd9d9c48	-0.07695824
11	0xbd4d62e9	-0.050143156
12	0xbdb239a1	-0.08702398
13	0xbd25b7ad	-0.04045837
14	0xbd9a57f4	-0.07536307
15	0xbd589455	-0.052875835
16	0xbdc2eca2	-0.095177904
17	0xbd8283f3	-0.063728236
18	0xbdb162ca	-0.08661421
19	0xbdb9f61a	-0.09080143
20	0xbd42b121	-0.047532205
21	0xbd680071	-0.056641046
22	0xbdcc36ff	-0.09971427
23	0xbdb8266e	-0.08991705
24	0xbdd97e60	-0.10619807
25	0xbcd4fdd9	-0.02599995
26	0xbd4d7650	-0.05016166
27	0xbda2bf84	-0.07946685
28	0xbdda55a3	-0.10660865
29	0xbde4f0d9	-0.111787505
30	0xbd712bb6	-0.058879577
31	0xbd321a62	-0.04348219
32	0xbd38b2ef	-0.04509252
33	0xbd4eba1f	-0.050470468
34	0xb9f938a5	-0.00047535184
35	0xbdad4351	-0.08460105
36	0xbca4009d	-0.020019824
37	0xbd144b8f	-0.03620487
38	0xbdc92fc3	-0.09823563
39	0xbddfaec0	-0.10922003
40	0xbdb6da02	-0.089283004
41	0xbd745e12	-0.059660025
42	0xbd2cf274	-0.04222341
43	0xbda0a731	-0.07844389
44	0xbc4d3f86	-0.012527352
45	0xbddf8364	-0.10913733
46	0xbe02eaaf	-0.12784837
47	0xbd2bdfd9	-0.041961525
48	0xbca6c8b9	-0.020359384
49	0xbdeb90f1	-0.11502255
50	0xbde1fc35	-0.11034433
51	0x3c20a3a8	0.009804644
52	0xbd22c7b9	-0.03974125
53	0xbd34ac03	-0.044109356
54	0xbd6e67fd	-0.05820464
55	0xbd942ca8	-0.0723508
56	0xbd3d724a	-0.046251573
57	0xbde29681	-0.110638626
58	0xbdfe7fd2	-0.124267235
59	0x3cf87cfc	0.030333035
60	0xbddd7930	-0.1081413
61	0xbc91ff68	-0.017821983
62	0x3e59a1ff	0.21253203
63	0xbda88fcd	-0.08230553
64	0xbd209471	-0.039204065
65	0xbcc704af	-0.024294225
66	0xbbd32d34	-0.0064445976
67	0xbd8ec6e2	-0.06971528
68	0xbd7e5fca	-0.06210307
69	0xbda26675	-0.079296984
70	0xbd0fd856	-0.035118423
71	0xbd41d557	-0.047322597
72	0xbdc4d167	-0.09610253
73	0xbd1aa038	-0.037750453
74	0xbcf948d7	-0.03043024
75	0xbe05e723	-0.13076453
76	0xbdabc931	-0.083879836
77	0xbcc7f073	-0.024406647
78	0xbda14f29	-0.07876427
79	0x3d89b87f	0.06724643
80	0xbd86622f	-0.06561696
81	0xbe044cfb	-0.1291999
82	0xbd92e294	-0.071721226
83	0xbdd64754	-0.104628235
84	0xbd700085	-0.058594245
85	0xbcd91c70	-0.026502818
86	0xbd72e670	-0.059301794
87	0xbd96c3f0	-0.07361591
88	0xbdb0aa46	-0.08626227
89	0xba402c23	-0.00073307956
90	0xbdb4e152	-0.08832039
91	0xbdf372f3	-0.11887159
92	0xbca709f5	-0.02039049
93	0xbe028263	-0.12745051
94	0xbdbc3db2	-0.09191455
95	0xbd24f77d	-0.040275086
96	0xbd802d06	-0.062585875
97	0xbda541b5	-0.08069173
98	0xbdf12dcd	-0.11776314
99	0xbd71150e	-0.05885797
100	0xbcc0d963	-0.023541158
101	0xbd9760a3	-0.07391479
102	0xbd283467	-0.0410656
103	0xbd88e2cf	-0.06683885
104	0xbd6870f1	-0.056748334
105	0xbd4023bf	-0.04690909
106	0xbdd3d055	-0.103424706
107	0xbd33346a	-0.043751158
108	0xbdb6e0a6	-0.08929567
109	0xbd5101b8	-0.05102703
110	0xbccc13ff	-0.024911879
111	0xbd65ba05	-0.056085605
112	0xbd4058df	-0.046959754
113	0xbceb3845	-0.028713355
114	0xbdc4c818	-0.09608477
115	0xbd99e89f	-0.07515072
116	0xbd5c9a78	-0.05385825
117	0xbdb06dde	-0.086147055
118	0xbdb360f2	-0.08758725
119	0xbdbde94d	-0.09273014
120	0xbd0ef024	-0.034896985
121	0xbd17cebb	-0.037062388
122	0xbd65585d	-0.055992473
123	0xbdaa0201	-0.083011635
124	0xbdb6326e	-0.088963374
125	0xbd405dad	-0.046964336
126	0xbe01e1d7	-0.12683807
127	0xbd9b4894	-0.075822026
128	0xbd70dd29	-0.058804665
129	0xbdfeed32	-0.12447585
130	0xbd962877	-0.07331937
131	0xbcd139f8	-0.025540337
132	0xbd204b01	-0.03913403
133	0xbc94a688	-0.018145815
134	0xbde1b648	-0.110210955
135	0xbd4c5b7b	-0.04989193
136	0xbdc42587	-0.0957747
137	0x3ec4cc35	0.38437048
138	0xbd7123e6	-0.058872126
139	0xbdc7c92b	-0.097551666
140	0xbd20a8c1	-0.039223436
141	0xbd05ba9b	-0.032648664
142	0xbd59b254	-0.053148583
143	0xbc751546	-0.014958685
144	0xbc69d0c0	-0.014270961
145	0xbd5a9ac0	-0.053370237
146	0xbdafc7d9	-0.0858304
147	0xbd343f9a	-0.044005968
148	0xbd906341	-0.07050181
149	0xbd3392f2	-0.04384131
150	0xbd45f3a3	-0.048328053
151	0xbda14d35	-0.07876054
152	0x3d549bf4	0.05190654
153	0xbd250399	-0.040286634
154	0xbdaf4435	-0.08557931
155	0x3dce607a	0.10076995
156	0xbb1288ea	-0.002235944
157	0xbd53c13d	-0.05169796
158	0xbcfb03a2	-0.03064138
159	0xbd974e38	-0.07387966
160	0xbdef2eb9	-0.116788335
161	0xbd6e2901	-0.058144573
162	0xbdc4646b	-0.09589466
163	0xbc799207	-0.01523257
164	0xbca748d9	-0.020420479
165	0xbdcacbf5	-0.09902183
166	0xbd001e2e	-0.03127878
167	0xbd570590	-0.05249554
168	0x3e8de136	0.27710885
169	0xbd19abb0	-0.03751725
170	0xbd1e4477	-0.038639512
171	0xbd04985f	-0.032371875
172	0xbcd28088	-0.025696054
173	0xbdbaefb6	-0.091277525
174	0xbd374d3e	-0.0447514
175	0xbd81b0e9	-0.06332571
176	0xbd83386b	-0.06407245
177	0xbd95c09a	-0.073121265
178	0xbda97ce9	-0.08275778
179	0xbdbccfca	-0.0921932
180	0xbd3b2602	-0.045690544
181	0xbd7a336e	-0.061084203
182	0xbd4bce77	-0.049757447
183	0xbd5a8f89	-0.053359542
184	0xbdcaeb83	-0.099082015
185	0xbd398536	-0.045293055
186	0xbd03147b	-0.032001954
187	0x3cee8c80	0.02911973
188	0xbd90a6b4	-0.07063046
189	0xbdb2ffae	-0.08740173
190	0x3c25a1cc	0.010109376
191	0xbd821e63	-0.06353452
192	0xbd0ae629	-0.033910904
193	0xbdf0eb42	-0.11763622
194	0xbdb20b8a	-0.08693607
195	0xbccf60eb	-0.025314769
196	0xbcdf1c43	-0.027235156
197	0xbdb70f22	-0.08938433
198	0xbd8632eb	-0.065526806
199	0xbda36524	-0.079782754
200	0xbba9c785	-0.0051812553
201	0xbdbe7abe	-0.09300755
202	0xbd1a3c9c	-0.037655458
203	0xbdb4a653	-0.08820786
204	0xbd1b02a8	-0.03784433
205	0xbdba976e	-0.09110914
206	0x3ec01ced	0.3752207
207	0xbd4ce1db	-0.05002008
208	0xbd70101e	-0.05860912
209	0xbdc8a76f	-0.097975604
210	0xbbe4d62e	-0.00698354
211	0xbd9dda63	-0.077076696
212	0xbdbff271	-0.09372414
213	0xbd97ddf8	-0.07415384
214	0xbd4e48d6	-0.05036243
215	0xbd98971f	-0.07450699
216	0xbdb33212	-0.087497845
217	0xbdae9d69	-0.08526117
218	0xbcdb6068	-0.026779369
219	0xbc90c270	-0.01767084
220	0xbcf53a62	-0.029935066
221	0xbdb35a4e	-0.087574586
222	0xbdcb02f3	-0.09912672
223	0xbdb8a7ba	-0.09016366
224	0xbd79ac46	-0.06095531
225	0xbdc0b31b	-0.09409162
226	0xbdbc26a6	-0.09187059
227	0xbdbdbaf2	-0.092641726
228	0xbdd576bc	-0.104230374
229	0xbd946b34	-0.0724701
230	0xbdb34a4a	-0.08754404
231	0xbd441907	-0.04787543
232	0xbc02ed34	-0.007991124
233	0xbd306f6e	-0.043075018
234	0xbca3d091	-0.019996913
235	0xbd6568b5	-0.05600806
236	0xbc9b3784	-0.01894737
237	0xbdda18ac	-0.10649237
238	0xbdbec046	-0.09314017
239	0x3c6dd052	0.014514999
240	0x3e8d33a7	0.2757847
241	0x3d0d5f42	0.034514673
242	0xbd403873	-0.046928834
243	0xbd592347	-0.05301216
244	0xbd6d7cbd	-0.057980288
245	0xbd8d77db	-0.06907626
246	0xbdc59133	-0.09646835
247	0xbd48756f	-0.04894012
248	0xbcb8f9fe	-0.022580143
249	0xbdfeb0aa	-0.1243604
250	0xbddabe4c	-0.106808275
251	0xbc3f3cb1	-0.011672185
252	0xbd3c784a	-0.046013154
253	0xbdbeb74a	-0.09312303
254	0xbdd68a20	-0.10475564
255	0xbd73e87e	-0.059547894

linear3.weight f4 [2, 300]
0	0xbede1b9d	-0.43380442
1	0xbed551c6	-0.4166395
2	0x3dd64b12	0.10463537
3	0x3e0b60fd	0.13611217
4	0xbe90a8c5	-0.2825376
5	0xbd4fe66b	-0.050756853
6	0x3c4e06b2	0.0125748385
7	0xbdb66d78	-0.08907598
8	0x3d028a08	0.031869918
9	0x3c4c7da9	0.012481132
10	0x3cb29beb	0.021802863
11	0x3e9b98b1	0.30389932
12	0xbe570d57	-0.21001182
13	0xbea9c3da	-0.33157235
14	0xbdf6f114	-0.12057701
15	0x3f053a33	0.5204193
16	0xbee4c5ba	-0.44682103
17	0x3dadf31a	0.084936336
18	0xbe83f832	-0.25775295
19	0xbd35a7f1	-0.044349615
20	0xbf4b2caa	-0.79365027
21	0x3e828318	0.25490642
22	0x3ebf34e8	0.37345052
23	0x3d16d245	0.036821622
24	0x3e83cd3d	0.25742522
25	0x3e4f9656	0.20272192
26	0xbee5a164	-0.44849694
27	0xbe00229b	-0.12513201
28	0x3e3012d0	0.17194676
29	0xbd3cf689	-0.04613355
30	0xbe0bcc46	-0.13652143
31	0xbdbefccd	-0.09325562
32	0x3bce1ef0	0.006290309
33	0x3d0214cb	0.03175811
34	0xbe555b08	-0.20835507
35	0xbeb8dc80	-0.36105728
36	0xbe384549	-0.1799518
37	0x3f166e93	0.5876247
38	0x3eaceede	0.3377599
39	0x3dd7df29	0.10540611
40	0xbedd3808	-0.4320681
41	0xbd8cba1d	-0.06871436
42	0xbe3e93df	-0.18611096
43	0x3dfbe2ac	0.122990936
44	0x3eabb08f	0.3353314
45	0x3e1f95d6	0.15584502
46	0xbdbef2d1	-0.09323657
47	0x3dcfeb0c	0.101522535
48	0xbe302637	-0.17202078
49	0xbea015a2	-0.31266505
50	0x3d3c2a6c	0.045938894
51	0x3f127888	0.57215166
52	0x3dc42e0b	0.095790945
53	0xbdff5b85	-0.12468628
54	0xbda2e235	-0.07953302
55	0x3e5f7a24	0.21823937
56	0xbe8ca410	-0.2746892
57	0x3e1f09c4	0.15531069
58	0xbccf3fb6	-0.025298934
59	0xbe8c5ee2	-0.2741614
60	0x3e611b1a	0.21982995
61	0x3e4a7879	0.19772519
62	0x3c2e2533	0.010628986
63	0x3c1dc7ae	0.009630127
64	0x3e02b429	0.12764038
65	0xbef26e24	-0.47349656
66	0x3e62824c	0.22120017
67	0xbe7a082e	-0.24417183
68	0xbe9fc4f5	-0.31204954
69	0x3e7f1b7e	0.24912831
70	0xbe130bf8	-0.14360034
71	0xbe2fee8e	-0.17180845
72	0xbdf5cf5d	-0.12002442
73	0xbe9e9d67	-0.30979463
74	0x3e72b808	0.23703015
75	0xbe7d9bff	-0.24766539
76	0x3f06c630	0.5264616
77	0xbcdd3b6c	-0.027005874
78	0xbe82d277	-0.25551197
79	0xbe033b6b	-0.12815635
80	0x3e0bac8a	0.13640037
81	0x3de49ccb	0.111627184
82	0x3ed44bcf	0.41464087
83	0x3c9cad60	0.01912564
84	0x3dcd0cf7	0.100122385
85	0xbc45f5fb	-0.012082572
86	0x3df684fc	0.120370835
87	0x3ea0b258	0.31386065
88	0x3e08a4cd	0.13344117
89	0xbaa05796	-0.0012233134
90	0xbc6e3775	-0.014539589
91	0x3e698b19	0.22806968
92	0x3d9a13f4	0.07523337
93	0xbceece22	-0.029151026
94	0x3e0dd555	0.13850911
95	0x3da55545	0.080729045
96	0xbe1c2c41	-0.15251257
97	0x3e0f7a97	0.14011608
98	0x3eac2979	0.3362539
99	0xbe714a7a	-0.23563567
100	0xbf0313b2	-0.5120193
101	0x3e0a58a7	0.1351038
102	0xbcc1a018	-0.023635909
103	0x3e18df39	0.14928903
104	0x3c05b681	0.008161188
105	0xbea5a7db	-0.32354626
106	0x3dd4a292	0.1038257
107	0x3d2c7ca0	0.04211104
108	0xbd6ff63e	-0.058584444
109	0x3bd510d8	0.006502252
110	0xbeb831d6	-0.35975522
111	0xbe0278c0	-0.12741375
112	0xbe1d47de	-0.15359446
113	0xbe473bfd	-0.19456477
114	0x3d940c65	0.072289266
115	0xbd5360a6	-0.051605843
116	0x3e33d216	0.1756061
117	0xbdedbed3	-0.116086625
118	0xbe585f3f	-0.21130084
119	0xbd912d3d	-0.07088707
120	0xbf20bd20	-0.6278858
121	0xbea07562	-0.31339556
122	0xbd5c9407	-0.053852107
123	0x3e4e452d	0.20143576
124	0xbe39cb85	-0.18144043
125	0x3ec7b24a	0.3900321
126	0xbd61cf0b	-0.055129092
127	0x3d9a0e94	0.07522312
128	0x3f08e97a	0.53481257
129	0x3d4e0a62	0.05030287
130	0xbf0f0615	-0.55868655
131	0xbd497df5	-0.049192388
132	0xbe0e0ffe	-0.13873288
133	0x3e278284	0.16358382
134	0x3d630987	0.055429008
135	0xbeda7577	-0.42667744
136	0xbdb86b37	-0.090048246
137	0xbedd21e6	-0.43189925
138	0x3d02f41e	0.03197109
139	0x3e368966	0.17825851
140	0xbdf01c18	-0.117241085
141	0xbd88553b	-0.066568814
142	0x3e7c95bb	0.24666493
143	0x3e030e4c	0.12798423
144	0xbf0b5d14	-0.544389
145	0x3e8909dc	0.26765335
146	0x3e7cdbe9	0.24693264
147	0x3cce3dd1	0.02517596
148	0x3f2105c6	0.62899435
149	0x3df0236f	0.117255084
150	0xbd8b338c	-0.06796941
151	0x3e95e71a	0.2927788
152	0xbe41a442	-0.18910316
153	0xbef89b9c	-0.4855622
154	0xbe9a2526	-0.30106467
155	0xbe88728a	-0.26649886
156	0xbebf6ee0	-0.37389278
157	0x3f541f91	0.82860667
158	0x3d71267f	0.058874603
159	0x3dc7a24e	0.09747754
160	0x3cb167c1	0.021655919
161	0xbdf26920	-0.11836457
162	0x3e55f644	0.20894724
163	0xbf3241f5	-0.6963189
164	0x3db7c698	0.089734256
165	0xbeaf569c	-0.34245765
166	0xbdae0776	-0.08497517
167	0x3e0d48b6	0.13797268
168	0xbe45d784	-0.19320494
169	0xbeb01bf0	-0.34396315
170	0x3e57e594	0.21083671
171	0xbdd9111a	-0.10598965
172	0xbd35f8f1	-0.044426862
173	0x3da2a8b5	0.079423346
174	0xbe70bf7c	-0.23510545
175	0xbd6580f2	-0.056031175
176	0xbedb6b39	-0.42855242
177	0x3e44c39c	0.19215244
178	0xbe395681	-0.18099405
179	0x3d929b29	0.07158501
180	0xbee06a59	-0.43831137
181	0xbedfb8d5	-0.43695703
182	0xbde5cb43	-0.1122041
183	0x3e47b526	0.19502696
184	0x3e2f3c07	0.17112742
185	0xbeb4ceb8	-0.35313964
186	0x3e21c72d	0.15798636
187	0xbe027267	-0.12738954
188	0xbeb8a4c6	-0.36063212
189	0xbd752b5a	-0.059855796
190	0xbe336df4	-0.17522413
191	0xbf018d17	-0.5060591
192	0x3eabc863	0.3355132
193	0x3d065bb7	0.03280231
194	0xbd440f74	-0.0478663
195	0xbcbb340c	-0.022851966
196	0xbed9720a	-0.42469817
197	0xbeb720a6	-0.35767096
198	0xbe259c4c	-0.16172904
199	0xbe9cbd3d	-0.30613127
200	0x3e48a8da	0.19595662
201	0xbd8da08d	-0.06915388
202	0xbe563666	-0.20919189
203	0xbebaebcd	-0.36508027
204	0xbe0cd4ed	-0.137531
205	0xbd899343	-0.06717541
206	0xbd3e8941	-0.046517614
207	0x3e8aa2a7	0.2707722
208	0x3e4d71cf	0.20062946
209	0x3e844013	0.25830135
210	0xbe14d88a	-0.14535728
211	0xbea7c757	-0.32769272
212	0x3edee773	0.43535957
213	0x3e532490	0.20619416
214	0xbe87084c	-0.26373518
215	0xbdac7fbb	-0.084228
216	0x3e177a52	0.14792755
217	0xbd988289	-0.074467726
218	0xbf10fd5b	-0.5663659
219	0x3e3bdbe6	0.18345603
220	0x3dbd97fe	0.09257506
221	0x3dfd6600	0.123729706
222	0x3e677d11	0.22606303
223	0x3d078e24	0.03309454
224	0x3ed2c827	0.4116833
225	0xbdd50a09	-0.10402305
226	0xbeb62c87	-0.35580847
227	0xbe57c2b9	-0.21070375
228	0xbdf6815b	-0.12036391
229	0x3d26f7a9	0.04076353
230	0xbead6928	-0.3386929
231	0x3cb02150	0.02150026
232	0xbf08f4d4	-0.5349858
233	0xbd94deda	-0.07269068
234	0x3e2627f7	0.16226183
235	0xbf2347bb	-0.63781327
236	0x3dc5e7fa	0.09663387
237	0x3df19c52	0.11797394
238	0xbd939439	-0.072060056
239	0xbc9b7aac	-0.018979393
240	0xbe921686	-0.2853281
241	0xbf4c7ecf	-0.79880995
242	0x3e8d2754	0.27569067
243	0x3dab5383	0.08365538
244	0xbc7c569c	-0.015401509
245	0xbd3c06be	-0.045904867
246	0x3ef89f00	0.48558807
247	0xbdb0ce99	-0.086331554
248	0xbf23974f	-0.63902754
249	0x3ea67fcf	0.32519385
250	0xbe6d5da6	-0.23180255
251	0xbf804959	-1.0022384
252	0xbe647099	-0.22308578
253	0x3daec301	0.08533288
254	0xbdad15db	-0.08451434
255	0xbe021892	-0.12704685

linear3.bias f4 [2]
0	0x3d97acb3	0.07405987
1	0x3db650ad	0.089021064

norm1.weight f4 [400]
0	0x3f041035	0.5158723
1	0x3eb46de2	0.35240084
2	0x3f13e498	0.5777068
3	0x3ea1e76f	0.31621882
4	0x3f6b023e	0.91800296
5	0x3f514898	0.81751394
6	0x3ead6fc6	0.3387434
7	0x3f51d357	0.81963104
8	0x3f0d33af	0.5515699
9	0x3ee919c5	0.45527473
10	0x3f431a3b	0.762119
11	0x3f07ae79	0.530006
12	0x3e5e7ade	0.21726558
13	0x3f53fd6b	0.8280856
14	0x3e93813a	0.2880953
15	0x3ededdb4	0.4352852
16	0x3ed69460	0.41910076
17	0x3edeb213	0.43495235
18	0x3eb83c83	0.35983667
19	0x3e75c18a	0.2399961
20	0x3e94d9bb	0.29072365
21	0x3ecb2bf0	0.3968196
22	0x3ebc693c	0.36799037
23	0x3f016377	0.50542396
24	0x3f487555	0.78304034
25	0x3f3832b9	0.71952397
26	0x3f55d6d7	0.83530945
27	0x3e1cdb86	0.15318117
28	0x3eb467d3	0.35235462
29	0x3e874313	0.2641836
30	0x3ec83d40	0.3910923
31	0x3e92fb10	0.2870717
32	0x3d8e360d	0.06943903
33	0x3eee93f1	0.46597245
34	0x3f54997d	0.83046705
35	0x3f8ab5d3	1.0836738
36	0x3f4d4f27	0.801989
37	0x3ece2db0	0.40269232
38	0x3f397f57	0.7245993
39	0x3f37cf63	0.7180082
40	0xbdce74ae	-0.10080849
41	0x3ee00218	0.43751597
42	0xbcf895c6	-0.030344855
43	0x3f671297	0.9026274
44	0x3e88e5c8	0.2673781
45	0x3f0d3a7a	0.55167353
46	0x3f651694	0.89487576
47	0x3f007a5c	0.50186706
48	0x3f393468	0.7234559
49	0x3d150705	0.036383647
50	0x3efabc0b	0.4897159
51	0x3f2952af	0.6614179
52	0x3f148109	0.5800939
53	0x3eac2f33	0.3362976
54	0x3ec25748	0.37957215
55	0x3efb0309	0.49025753
56	0x3f3698c3	0.71326846
57	0xbd983bec	-0.07433304
58	0x3f3fb585	0.7488635
59	0x3f39ea00	0.7262268
60	0x3f4946f7	0.7862391
61	0x3ebf26f2	0.373344
62	0x3f08bb6f	0.53411
63	0x3d891c72	0.06694879
64	0xbd510439	-0.051029418
65	0xbd4a72ba	-0.049425818
66	0x3e5e07ae	0.21682617
67	0x3f565bc4	0.83733773
68	0x3dda4751	0.10658134
69	0x3f333535	0.7000306
70	0x3d7e9084	0.06214954
71	0x3f6f8abd	0.9357107
72	0x3e7b492a	0.24539629
73	0x3e6bf7d7	0.23043762
74	0x3e20c7ef	0.15701269
75	0x3f1b35b6	0.6062883
76	0x3f4d07e6	0.8009018
77	0x3eebeafd	0.4607772
78	0x3f2d2690	0.67636967
79	0x3ed46bb8	0.41488433
80	0x3eef5db2	0.4675117
81	0x3f3cce79	0.7375255
82	0x3d1d5456	0.038410507
83	0x3ddd221f	0.10797524
84	0x3f700acc	0.93766475
85	0x3f831dd1	1.0243474
86	0x3f10c6e0	0.5655346
87	0x3f5f4dd4	0.8722813
88	0x3eba3009	0.36364773
89	0x3e36e5d2	0.17861107
90	0xbddf1ef7	-0.10894578
91	0x3f4ad8a2	0.79236805
92	0x3f376dc1	0.71651846
93	0x3e687b4a	0.22703281
94	0x3e54bc1d	0.20774885
95	0x3f07c416	0.5303358
96	0x3f2516fe	0.6448821
97	0x3f71e8af	0.9449567
98	0x3f1ff9e8	0.624907
99	0x3f3036ab	0.68833417
100	0x3e79c471	0.24391343
101	0x3efbc2dc	0.49172103
102	0x3eb211bd	0.34779158
103	0x3de77724	0.11302021
104	0x3e638bce	0.222213
105	0x3e98bdad	0.2983221
106	0x3f059687	0.5218281
107	0x3e870181	0.26368335
108	0x3f33cefd	0.70237714
109	0x3f2e9ade	0.6820506
110	0x3f1d9b31	0.6156493
111	0x3ed17a85	0.40913787
112	0xbda2f612	-0.079570904
113	0x3f2e6a4c	0.68130946
114	0x3ef1332f	0.47109362
115	0x3f28ed14	0.6598675
116	0x3e87ceba	0.26524907
117	0x3ea78371	0.3271747
118	0x3f106ec3	0.5641901
119	0x3f81faf5	1.0154711
120	0x3f1e9a92	0.61954606
121	0x3f2ff944	0.68739724
122	0x3dfbbab5	0.12291471
123	0x3eca4595	0.39506212
124	0x3f5f6abc	0.8727224
125	0x3f125f4f	0.5717668
126	0x3e43a316	0.19105181
127	0x3c3efe20	0.011657268
128	0x3e8d0d04	0.27548993
129	0x3ebe5795	0.37176195
130	0x3f4334d1	0.76252466
131	0x3eaa9bc5	0.33321968
132	0x3f33d6dd	0.7024973
133	0x3dfe7413	0.12424483
134	0x3f0c34c1	0.54767996
135	0x3f458542	0.7715646
136	0x3e43cd4f	0.19121288
137	0x3e7df7d9	0.24801578
138	0x3e2205be	0.15822503
139	0x3ec719c4	0.38886845
140	0x3f6cdc2c	0.92523456
141	0x3dc60d58	0.09670514
142	0x3eec1188	0.46107125
143	0x3f57bb49	0.8427015
144	0x3f6ca159	0.92433697
145	0x3dbed20e	0.093174085
146	0x3e85f6c0	0.26164818
147	0x3f256826	0.6461204
148	0x3ece0f0b	0.40245852
149	0x3f352fe9	0.7077623
150	0x3f11d9e0	0.56973076
151	0x3f2c9bd1	0.67425257
152	0x3e7c75c7	0.24654303
153	0x3e16d89a	0.14731064
154	0x3f3c88a9	0.73646027
155	0x3f237c42	0.6386148
156	0x3f31da2c	0.6947353
157	0x3f4947b9	0.78625065
158	0x3eac4566	0.33646697
159	0x3f7b54fc	0.9817655
160	0x3dbc76ed	0.09202371
161	0x3e1755e5	0.1477886
162	0xbdd1cda1	-0.10244299
163	0x3e3d65d9	0.18495883
164	0x3e63da5d	0.22251268
165	0x3e483b91	0.19553973
166	0x3f43e060	0.76514244
167	0x3f06f12d	0.52711755
168	0x3f683ae0	0.90714836
169	0x3f15d14c	0.58522487
170	0xbb974320	-0.004616156
171	0x3e3d5510	0.1848948
172	0x3e96fed5	0.29491296
173	0x3f1c5428	0.6106591
174	0x3ee10aa3	0.43953428
175	0x3dfced45	0.12349943
176	0x3ed804fe	0.4219131
177	0x3e96e609	0.29472378
178	0x3f7f1c0c	0.9965217
179	0x3e4912d0	0.19636083
180	0x3f4ab1b9	0.79177433
181	0x3ef4bd9b	0.47800907
182	0x3f390c72	0.72284615
183	0x3e9a0a96	0.300862
184	0xbba739a8	-0.0051033087
185	0x3ead6946	0.3386938
186	0x3cb89044	0.022529729
187	0x3f453632	0.7703582
188	0x3f379748	0.7171521
189	0x3da04b75	0.07826892
190	0x3e91e7a7	0.2849705
191	0x3e882501	0.26590732
192	0x3f0624cc	0.523999
193	0x3f3d7078	0.7399974
194	0x3f755664	0.95834947
195	0x3f2b44c7	0.6690182
196	0x3f522a12	0.82095444
197	0xbc6d6bb6	-0.014491012
198	0x3f63edf4	0.8903496
199	0x3d56b040	0.05241418
200	0x3f02c996	0.51088846
201	0x3dbe5426	0.09293394
202	0x3e057cf0	0.13035941
203	0x3eea6a5a	0.45784265
204	0xbd6912b7	-0.056902613
205	0x3e7b8a80	0.24564552
206	0x3f4661c0	0.77492905
207	0x3e8257e2	0.25457674
208	0x3e854820	0.2603159
209	0x3df2ace6	0.11849384
210	0x3e8610fd	0.26184836
211	0x3f281f88	0.6567311
212	0x3eb6588e	0.35614437
213	0x3ee654ab	0.44986472
214	0x3eb613f2	0.35562092
215	0x3e9162c8	0.28395677
216	0x3e7f9e8d	0.24962826
217	0x3e82f754	0.2557932
218	0x3f1340da	0.5752083
219	0x3f190a5f	0.5978145
220	0x3f3caa5c	0.7369745
221	0x3f360a21	0.71109205
222	0x3e57915f	0.21051548
223	0xbd3c2a6b	-0.04593889
224	0x3f186e96	0.5954374
225	0xbbaa804a	-0.0052032815
226	0x3f2f0be0	0.68377495
227	0x3f4588a9	0.7716165
228	0x3f4f662b	0.8101527
229	0x3f226cc0	0.6344719
230	0x3f446e72	0.76731026
231	0x3f174223	0.5908529
232	0x3f016aee	0.50553787
233	0x3eb45b5c	0.35225952
234	0x3f517922	0.8182546
235	0x3f177f40	0.59178543
236	0x3e471c39	0.1944436
237	0x3f4c77e8	0.7987046
238	0x3e9c6916	0.30548924
239	0x3ddb6e9a	0.10714455
240	0x3ea8d14b	0.32972178
241	0x3f20e45a	0.62848437
242	0x3f315833	0.69275206
243	0x3f44117c	0.7658918
244	0xbc2b2f5f	-0.010448306
245	0x3f613265	0.8796752
246	0x3d4d5bcf	0.050136384
247	0x3edc297b	0.43000397
248	0x3cda44e2	0.026644174
249	0x3e821dd5	0.25413385
250	0x3ed783ae	0.4209265
251	0x3eb01f13	0.34398708
252	0x3e28f2aa	0.16498819
253	0x3f541d26	0.82856977
254	0x3d1380d5	0.036011536
255	0x3f43c9a7	0.7647957

norm1.bias f4 [400]
0	0xbdff0a7d	-0.12453172
1	0xbcfe174e	-0.031016972
2	0x3cb8c3de	0.022554334
3	0x3b46a0a2	0.0030308147
4	0xbd6d39d7	-0.05791649
5	0x3c1a933d	0.009434518
6	0xbd8dc007	-0.06921392
7	0xbd539ae5	-0.05166139
8	0xbe03ea6c	-0.12882394
9	0xbd65ce28	-0.05610481
10	0xbc252344	-0.010079209
11	0xbdbfc36a	-0.09363444
12	0xbd176cfe	-0.036969177
13	0xbd17ce5a	-0.037062027
14	0xbe157121	-0.14593937
15	0xbd6188ab	-0.055061977
16	0x3d30472e	0.043036632
17	0x3ce54a0c	0.02798941
18	0x3bd84673	0.006600195
19	0x3e73dea5	0.23815401
20	0xbe3bf6df	-0.18355893
21	0x3d3c43a6	0.045962952
22	0xbe0da7cd	-0.13833542
23	0xbcfa4c8c	-0.030554079
24	0xbc541295	-0.012943883
25	0x3dfa9c7a	0.12236877
26	0x3d8da59f	0.06916355
27	0xbe11eadd	-0.1424975
28	0xbdcdc876	-0.100480005
29	0x3c52a229	0.012856045
30	0xbde8af2c	-0.113615364
31	0xbe23af6d	-0.15984888
32	0xbdc6efab	-0.09713682
33	0xbb82eb37	-0.003995325
34	0x3d9966cd	0.07490311
35	0xbc1ad741	-0.009450735
36	0xbd4bab5a	-0.04972396
37	0xbd412ba8	-0.047160774
38	0xbe0b5836	-0.13607869
39	0x3ce801b5	0.028321126
40	0xbe38d4c6	-0.18049917
41	0xbe14d41d	-0.1453404
42	0xbe28660c	-0.16445178
43	0xbd99c60c	-0.075084776
44	0x3d8f9e91	0.07012666
45	0xbd702076	-0.058624707
46	0x3d342230	0.043977916
47	0xbd689719	-0.056784723
48	0x3b22108b	0.0024729099
49	0xbe6a1627	-0.22860013
50	0xbd30a9dc	-0.04313074
51	0xbcff5716	-0.031169455
52	0xbc3ad3d1	-0.01140304
53	0xbd5d1be4	-0.053981677
54	0xbdace6e5	-0.08442477
55	0xbba9c770	-0.0051812455
56	0xbdccaf02	-0.099943176
57	0xbe46d7b6	-0.19418225
58	0xbd055567	-0.03255215
59	0xbc7732f6	-0.015087834
60	0xbe3cc2a2	-0.18433622
61	0xbd89cfbc	-0.06729075
62	0xbe5bd484	-0.21467787
63	0xbe39d5df	-0.18147992
64	0xbe2b16fd	-0.16707988
65	0xbe860812	-0.26178032
66	0x3c1770d0	0.009243205
67	0xbc9e18a3	-0.019298857
68	0xbd9482fb	-0.07251545
69	0xbddd7580	-0.10813427
70	0xbdfd27c9	-0.12361104
71	0xbda2ea23	-0.07954814
72	0x3dc7789f	0.097398035
73	0xbd4da44a	-0.050205506
74	0xbe753b9b	-0.23948519
75	0x39c7b358	0.0003808986
76	0x3d6f761a	0.05846224
77	0xbc7402f4	-0.014893282
78	0xbd3eb8a7	-0.046562817
79	0xbe2e1c88	-0.17003071
80	0xbd8c2b59	-0.068442054
81	0xbdaa3c15	-0.08312241
82	0xbe43a2e4	-0.19105107
83	0xbe767c39	-0.24070825
84	0xbd09190f	-0.033471163
85	0xba52eefd	-0.0008046476
86	0xbdda6ace	-0.106649026
87	0xbda3a942	-0.07991268
88	0xbdb26824	-0.087112695
89	0x3e018758	0.12649286
90	0xbe202d0b	-0.15642183
91	0x3d009297	0.0313898
92	0xbdf99575	-0.1218671
93	0xbe546443	-0.20741372
94	0xbd7aa59b	-0.06119309
95	0xbe24874d	-0.16067238
96	0xbd26fe20	-0.040769696
97	0x3dc2c877	0.09510892
98	0x3c60439e	0.013687996
99	0xbdd5184a	-0.104050234
100	0x3e4475d3	0.19185571
101	0x3d8a2971	0.067461856
102	0xbdf6c3d6	-0.120490715
103	0xbe2b81ea	-0.16748777
104	0xbe19943a	-0.1499795
105	0xbe102fbf	-0.14080714
106	0xbe15840f	-0.14601158
107	0x3e0a47c9	0.13503946
108	0x3d91212c	0.07086405
109	0x3d539e20	0.05166447
110	0xbb27023d	-0.0025483512
111	0xbcb2ce24	-0.021826811
112	0xbe27b56a	-0.16377798
113	0xbe00e3f5	-0.12586959
114	0xbd132b4d	-0.035929967
115	0xbca04e82	-0.019568685
116	0xbdcc34ff	-0.09971046
117	0x3cc28306	0.023744117
118	0x3d3e3ceb	0.046444815
119	0xbd3cdaf5	-0.04610725
120	0x3e313f2d	0.17309256
121	0xbc98ffec	-0.01867672
122	0x3e0106b5	0.12600215
123	0x3cf1cb34	0.02951584
124	0xbda94397	-0.08264845
125	0xbe104386	-0.14088258
126	0xbe8ae56c	-0.2712816
127	0xbe40d4b3	-0.18831138
128	0xbe2bddf5	-0.16783889
129	0xbd8cd1f3	-0.06875982
130	0xbc9dd364	-0.019265838
131	0xbe0e6bcb	-0.13908307
132	0xbd3eabac	-0.046550438
133	0xbe0af2ba	-0.13569155
134	0xbca6bd22	-0.020353857
135	0xbe43a880	-0.19107246
136	0x3e2f0a0b	0.17093675
137	0x3ce08253	0.027405893
138	0xbe0d537e	-0.13801381
139	0xbde29609	-0.11063773
140	0x3d199461	0.03749502
141	0x3dcdceaf	0.100491874
142	0xbcb14b0c	-0.02164223
143	0xbd817999	-0.06322021
144	0x3da0de92	0.07854952
145	0xbdf61670	-0.12015998
146	0xbcc3d651	-0.023905905
147	0xbd5c9ac8	-0.05385855
148	0x3c52e266	0.01287136
149	0x3d1653c4	0.03670098
150	0x3d0b5c7b	0.034023743
151	0xbddb5790	-0.107100606
152	0x3c4604bb	0.012086089
153	0xbdcf38f5	-0.101182856
154	0xbd50ce97	-0.05097827
155	0xbddacd96	-0.10683744
156	0xbd107873	-0.03527112
157	0x3d70d1e8	0.058793932
158	0xbcdcdad3	-0.026959812
159	0x3b7dc424	0.0038721645
160	0xbd986ce1	-0.07442642
161	0xbe14d558	-0.14534509
162	0xbe763f48	-0.24047577
163	0x3de6f2d1	0.11276782
164	0xbbbe4aea	-0.0058072703
165	0x3d00c371	0.031436387
166	0xbe240928	-0.16019118
167	0x3d69232a	0.0569183
168	0xbd9b90d4	-0.07595983
169	0xbdcf22b0	-0.10114038
170	0xbe8b02cd	-0.27150574
171	0xbdf48d7a	-0.11941047
172	0x3e022e28	0.1271292
173	0xbe031e05	-0.1280442
174	0xbdb9ce91	-0.090726025
175	0xbe484489	-0.19557394
176	0xbc1af961	-0.009458871
177	0xbe1ddb09	-0.15415587
178	0x3d735e7e	0.059416287
179	0x3de23c50	0.1104666
180	0xbd732751	-0.059363667
181	0x3daea38f	0.0852729
182	0xbd97ae00	-0.07406235
183	0x3dd16e84	0.10226157
184	0xbe10f9dc	-0.14157814
185	0x3e1cdc7d	0.15318485
186	0xbe7a1d88	-0.24425328
187	0xbcb031a3	-0.021508044
188	0x3c8afdb5	0.01696668
189	0x3d6d9f8d	0.058013488
190	0xbe2117a2	-0.15731671
191	0xbe02c5d1	-0.12770773
192	0x3bbbc2de	0.005730017
193	0xbdbe2785	-0.092848815
194	0xbd4869a9	-0.04892889
195	0xbd25c561	-0.04047144
196	0x3e3b9658	0.1831907
197	0xbe72c8cc	-0.2370941
198	0xbdbe1dea	-0.092830494
199	0xbe554360	-0.20826483
200	0xbd7be976	-0.061501943
201	0x3b272af8	0.002550779
202	0xbd797168	-0.06089917
203	0x3ca284ab	0.019838652
204	0xbe1f00e5	-0.15527685
205	0xbe2293f5	-0.15876754
206	0xbe001c8a	-0.12510887
207	0x3d29c333	0.041445922
208	0xbdb8a6d1	-0.09016193
209	0xbe3f7cd8	-0.18699968
210	0xbcbf86ef	-0.023379771
211	0x3be1809c	0.0068817865
212	0xb936b4bd	-0.00017424203
213	0xbdbfd457	-0.093666725
214	0xbd930d1f	-0.07180237
215	0x3c54abb7	0.012980393
216	0xbdb82550	-0.08991492
217	0xbd64f040	-0.055893183
218	0xbda86425	-0.08222226
219	0xbe4b7666	-0.19869384
220	0x3cc02e4f	0.023459582
221	0xbddb2f92	-0.10702433
222	0xbe8051ab	-0.25062308
223	0xbe7c464c	-0.24636191
224	0xbdb752e2	-0.089513555
225	0xbe839e11	-0.25706533
226	0xbdeda289	-0.11603267
227	0xbc1d1115	-0.009586592
228	0xbde042ba	-0.10950227
229	0x3d7d6ba5	0.061870236
230	0xbdd9f636	-0.10642664
231	0x3c6e7bcf	0.014555885
232	0xbd81fde1	-0.06347252
233	0xbdcd866f	-0.10035407
234	0xbd0676e9	-0.032828245
235	0xbe0000e9	-0.12500347
236	0x3db60dfb	0.08889385
237	0xbd0b7076	-0.034042798
238	0xbd91dbf8	-0.07122034
239	0xbe08eb46	-0.13371
240	0xbd632d47	-0.0554631
241	0xbdf6236c	-0.12018475
242	0xbd033b3e	-0.03203892
243	0xbcb4be03	-0.02206326
244	0xbe2bee0e	-0.1679003
245	0xbbf6407b	-0.007515011
246	0x3e2a7745	0.1664706
247	0xbd5bb7c2	-0.053642042
248	0x3c8705e3	0.0164823
249	0xbd70e81d	-0.05881511
250	0xbd8eb0f4	-0.06967345
251	0x3e098cff	0.13432692
252	0xbd7ff8f4	-0.06249328
253	0xbe158c3b	-0.14604275
254	0xbe874765	-0.26421657
255	0xbd8ddb36	-0.06926577
