saved_runs/final_option_2_ddpg_agent_target_actor.pkl (torch_old, 508555 bytes, 14 tensors)

linear1.weight f4 [400, 6]
0.12314088 -0.25617707 -0.24431737 0.116735406 0.46680462 -0.26491743 -0.123404376 0.3955464
0.117329374 -0.11978223 0.030185271 -0.0041509564 -0.27697217 -0.13973927 0.44042093 -0.14677814
0.3652759 -0.10541563 -0.31127304 -0.41877738 -0.21424028 -0.19087777 0.2388494 -0.32137907
0.041236967 0.45158783 0.0629944 0.17556119 0.27153134 -0.109389685 -0.23243375 -0.20090222
0.21937318 -0.42329785 0.25731948 0.4882553 0.21953565 0.17519552 0.32780537 0.14721708
0.24216065 0.23000737 -0.30305132 0.29324874 0.07588885 -0.18815452 -0.024204008 0.15809532
0.08805748 -0.18794349 0.19097497 -0.20974012 -0.2529479 0.03871439 -0.122931 -0.2640834
-0.07084654 -0.30494407 -0.21081507 0.13716269 0.027423918 -0.25264937 -0.033686418 0.009872374
-0.437587 -0.27327815 0.11722983 -0.41352674 0.4168238 0.22835675 0.38559324 -0.37145275
0.313709 -0.3235636 0.0588864 0.028377267 -0.01133078 -0.10837162 -0.36303294 -0.19116294
0.17779954 0.24838871 0.34270594 -0.07252354 0.068987556 -0.4155749 0.033775683 -0.13384046
0.027947843 0.08215387 0.14766435 0.2618054 -0.2850812 0.13467558 0.37537277 0.46858835
0.34841573 -0.40700972 0.107102625 -0.07957902 0.0048639807 -0.18962494 -0.2579516 0.21002504
0.11815943 0.4500335 0.102281556 0.16047597 -0.5023387 0.12185271 0.30739224 0.061461627
0.11107504 0.17391421 0.26217648 -0.40299278 0.12065734 -0.18492621 0.11928062 0.091197364
-0.42777723 -0.04794306 -0.15396371 -0.121988766 -0.09390727 0.12585711 -0.6271386 -0.11026408
0.15557596 0.2505796 0.22663726 0.027293973 -0.42640343 0.019899383 -0.025103508 -0.24236155
0.20426282 0.064965375 0.30467016 0.29582986 -0.04297579 -0.33974075 0.24524298 0.18382499
0.1560118 -0.34514272 0.30839267 -0.5045712 0.20839247 0.0817175 0.4362945 -0.43908885
0.19377501 0.08744753 0.35949996 0.24591947 0.16752702 0.15215275 -0.19870494 0.38852414
0.27990195 -0.2777464 -0.20995262 -0.3478284 -0.14643353 0.035353262 -0.109421745 -0.048420753
-0.22264746 0.30310255 0.23044936 -0.35818416 0.24931757 0.071570255 0.05087533 0.19643411
0.15281764 0.099777095 -0.39983964 -0.2526098 0.46613163 0.16076696 0.1691046 0.0137044415
0.35565686 -0.1718527 -0.2605191 0.1332717 -0.024273258 0.2618594 0.045183893 -0.22556768
0.14073077 0.5224282 0.20161858 -0.2810841 0.07677657 0.18499413 0.41383633 -0.12604456
0.21867 0.27386534 -0.046785504 0.030365236 0.16250654 -0.031999443 0.25598457 -0.004730515
0.1731634 -0.1514103 -0.14556785 0.421941 0.17882597 0.046841066 0.0343633 -0.050919853
0.1901751 0.40759334 0.34092847 0.02672046 0.24619378 0.24087265 0.12165224 -0.31356183
0.38041106 0.12272611 -0.14708157 0.13489594 -0.15112352 -0.11129806 0.21801442 0.25418013
-0.42774826 -0.2626472 0.113024496 -0.09351786 -0.3704854 0.35905695 -0.39731476 -0.1389824
0.0924076 -0.52310055 -0.060957164 -0.11342389 -0.17051302 -0.051597476 -0.10714115 -0.09008708
-0.22792754 0.41683972 -0.29312214 -0.10573882 -0.16239908 -0.15052982 -0.061256368 -0.018082602
00000000: 4931 fc3d a429 83be 552e 7abe f912 ef3d
00000010: 0401 ef3e 42a3 87be 6fbb fcbd 0f85 ca3e
00000020: 624a f03d 6350 f5bd 1a47 f73c bf04 88bb
00000030: 4ccf 8dbe d017 0fbe da7e e13e 024d 16be
00000040: 7105 bb3e 26e4 d7bd 2e5f 9fbe fd69 d6be
00000050: ce61 5bbe 7675 43be f094 743e cc8b a4be
00000060: 18e8 283d 8536 e73e 3503 813d 50c6 333e
00000070: 2806 8b3e b307 e0bd 1d03 6ebe 50b9 4dbe
00000080: 5da3 603e 7fba d8be 61bf 833e 99fc f93e
00000090: f4cd 603e 7466 333e 1bd6 a73e 13c0 163e
000000a0: f6f8 773e 0d87 6b3e 8b29 9bbe b324 963e
000000b0: 9d6b 9b3d 94ab 40be 7c47 c6bc bde3 213e
000000c0: 7b57 b43d 4274 40be f18e 433e 1dc6 56be
000000d0: 6382 81be fb92 1e3d 40c3 fbbd f035 87be
000000e0: fe17 91bd a121 9cbe e8df 57be 6074 0c3e
000000f0: 20a8 e03c 425b 81be c5fa 09bd bdbf 213c
00000100: 670b e0be 1deb 8bbe 3116 f03d c7b9 d3be
00000110: ee69 d53e 5ad6 693e 7a6c c53e 0e2f bebe
00000120: 779e a03e 21aa a5be de32 713d 7177 e83c
00000130: bca4 39bc f1f1 ddbd 74df b9be 38c0 43be
00000140: 1511 363e 9c59 7e3e 2777 af3e 3987 94bd
00000150: 5949 8d3d 3cc6 d4be 5f58 0a3d 790d 09be
00000160: e0f2 e43c 4a40 a83d 5335 173e 5b0b 863e
00000170: 2af6 91be 65e8 093e dc30 c03e d0ea ef3e
00000180: 8c63 b23e 9463 d0be 9f58 db3d 53fa a2bd
00000190: 0762 9f3b 0a2d 42be 3b12 84be ce10 573e
000001a0: 92fd f13d ca6a e63e fe78 d13d d053 243e
000001b0: 4599 00bf ea8d f93d 8462 9d3e 30bf 7b3d
000001c0: 507b e33d 9116 323e ff3b 863e 1255 cebe
000001d0: 321b f73d 4c5d 3dbe 6649 f43d afc5 ba3d
000001e0: 9e05 dbbe f15f 44bd aaa8 1dbe 3fd5 f9bd
000001f0: 7452 c0bd b0e0 003e 288c 20bf 22d2 e1bd
00000200: 4e4f 1f3e f84b 803e 9913 683e 9c97 df3c
00000210: 8d51 dabe 0804 a33c dfa5 cdbc a02d 78be
00000220: 462a 513e 910c 853d bafd 9b3e 0377 973e
00000230: 6207 30bd 80f2 adbe fa20 7b3e 9e3c 3c3e
00000240: 8fc1 1f3e 8cb6 b0be a5e5 9d3e 942b 01bf
00000250: d664 553e 815b a73d fe61 df3e 41d0 e0be
00000260: f56c 463e b117 b33d 6110 b83e 50d2 7b3e
00000270: 348c 2b3e eecd 1b3e 4f79 4bbe a3ec c63e
00000280: 4f4f 8f3e c734 8ebe d2fd 56be 9016 b2be
00000290: acf2 15be 95ce 103d 8218 e0bd d754 46bd
000002a0: b2fd 63be 4230 9b3e ebfa 6b3e ea63 b7be
000002b0: 1b4d 7f3e 6d93 923d a662 503d 0626 493e
000002c0: 3a7c 1c3e ef57 cc3d c8b7 ccbe 1256 81be
000002d0: cea8 ee3e 18a0 243e c229 2d3e 9888 603c
000002e0: a818 b63e 27fa 2fbe c262 85be 6078 083e
000002f0: b6d8 c6bc 6f12 863e bf12 393d 37fb 66be
00000300: ba1b 103e dbbd 053f 1a75 4e3e 41ea 8fbe
00000310: 093d 9d3d 1a6f 3d3e 5be2 d33e d311 01be
00000320: 07eb 5f3e 1438 8c3e 28a2 3fbd 84c0 f83c
00000330: 1d68 263e d911 03bd 6910 833e 7002 9bbb
00000340: bf51 313e 4d0b 1bbe bd0f 15be a708 d83e
00000350: 281e 373e 6bdc 3f3d 88c0 0c3d 5691 50bd
00000360: 43bd 423e 13b0 d03e 2d8e ae3e dee4 da3c
00000370: 391a 7c3e 52a7 763e cf24 f93d 2d8b a0be
00000380: 3dc5 c23e d457 fb3d 8d9c 16be 2922 0a3e
00000390: 20c0 1abe 3df0 e3bd 2c3f 5f3e e623 823e
000003a0: d201 dbbe b279 86be 6379 e73d 4b86 bfbd
000003b0: 43b0 bdbe 50d6 b73e d76c cbbe 6751 0ebe
000003c0: 3240 bd3d ebe9 05bf 38ae 79bd c94a e8bd
000003d0: f79a 2ebe e057 53bd d26c dbbd 937f b8bd
000003e0: d665 69be 046c d53e 1b14 96be 988d d8bd
000003f0: f24b 26be 7d24 1abe f5e7 7abd f721 94bc

linear1.bias f4 [400]
0.1967332 -0.10202776 -0.021131162 -0.3275472 0.28431895 0.07702471 -0.40000919 -0.24932696
-0.009569421 -0.5222491 0.5921157 -0.4359883 -0.022902569 0.3521638 0.4271578 -0.016786704
0.26922986 0.091689005 0.05980645 0.3241858 -0.074092306 -0.50441045 0.07651923 -0.0018712223
-0.03953618 0.47138268 -0.060248833 -0.7604308 -0.18336263 0.25315246 -0.08051872 0.5635103
0.4639814 0.2657775 -0.41726795 0.5276525 -0.29405048 -0.23628615 0.20385636 -0.58505136
-0.017963268 -0.018712547 -0.818484 0.21849918 -0.32898065 -0.68512625 0.24473438 -0.25328296
-0.20096964 -0.008346549 0.0027450603 0.23474082 0.27212316 -0.25701305 -0.28077385 0.35849905
-0.39404848 -0.039183598 -0.29971322 -0.3907683 -0.12935385 0.07841651 0.12076886 0.48852667
0.3541189 0.03540762 -0.5690023 -0.03914109 -0.54485404 0.13920902 -0.11193263 -0.12174287
-0.6947001 -0.25945038 -0.21608603 -0.30132794 0.13215378 0.12787998 -0.705833 0.22629546
-0.2039631 -0.32415122 -0.32897326 -0.14795461 -0.060716067 -0.14196056 -0.047911283 -0.28189594
-0.28342158 0.07698634 0.51666725 -0.2775631 0.3771887 0.40805244 0.4345387 0.3657299
-0.16551866 -0.35288286 -0.060689647 -0.19571514 -0.030648801 -0.08445176 -0.17649081 0.21860737
0.23040166 0.25424692 -0.49404395 0.08060862 0.08455868 -0.41684017 -0.3977286 -0.054185156
0.29899794 -0.39810154 -0.030534225 -0.31688327 -0.33928257 -0.10961695 0.07380333 -0.72836673
-0.2211725 0.48581606 0.21037349 -0.22326748 0.17382765 -0.73115396 -0.07924083 0.19889788
0.23100756 0.22026339 0.4632836 0.015040589 -0.69783884 0.07421049 -0.0378447 -0.22694905
0.15204512 0.5004426 -0.58143514 -0.19974312 0.2818823 -0.29703873 -0.04061322 -0.6074378
-0.14685224 0.35641316 0.3334148 -0.47610933 0.44276965 -0.19834086 -0.5440712 0.035805844
-0.37198797 -0.8588668 0.06945339 0.5867971 -0.41431162 -1.0009185 -0.22664018 -0.16038878
-0.023803793 0.24618322 -0.26108265 0.17673865 -0.2158632 -0.2966938 0.33814624 0.20812875
-0.3228524 -0.28043562 -0.4734916 0.12111734 0.35543275 0.23531081 -0.27357045 0.25017115
0.042581115 -0.04683618 0.5469247 0.29225 0.073285006 0.14703041 -0.053643692 -0.30283356
0.53120995 -0.17777856 0.28368628 -0.3903352 -0.007829265 -0.20856062 -0.0032972053 -0.6327868
-0.27470753 -0.032101564 -0.44286984 0.26426888 0.47122672 0.6004496 0.34987724 0.02350297
0.0036313557 0.12553564 -0.13517839 -0.21397832 -0.51274073 -0.23673066 0.019094799 -0.099139325
-0.55846554 0.07539124 0.036009923 -0.047554802 -0.014257983 0.18336798 -0.17810501 0.52506655
-0.093024306 0.16537912 0.23039624 0.45067394 -0.3690131 -0.22969542 0.6872462 -0.21637091
0.014313962 -0.3536862 0.32941824 0.38032523 0.045771092 0.23883863 -0.05812098 -0.24557786
-0.14569542 -0.49825713 -0.30968675 0.11509889 0.087322496 -0.7772143 0.41453335 -0.45749402
0.3696092 -0.46613553 0.17825574 -0.13953538 -0.28725561 0.2148018 0.532034 0.00906509
0.16301964 0.40219754 -0.2596665 -0.045122787 0.3615948 -0.19398478 0.5306464 -0.22452393
00000000: 6e74 493e eef3 d0bd 421b adbc 44b4 a7be
00000010: 4192 913e 22bf 9d3d 01ce ccbe 914f 7fbe
00000020: 10c9 1cbc 1eb2 05bf e594 173f dc39 dfbe
00000030: 2b9e bbbc d04e b43e 6db4 da3e 4584 89bc
00000040: 7fd8 893e 72c7 bb3d 9cf7 743d aefb a53e
00000050: b5bd 97bd 0b21 01bf 1db6 9c3d cd43 f5ba
00000060: b1f0 21bd 1259 f13e 7bc7 76bd 98ab 42bf
00000070: 6ac3 3bbe 339d 813e 00e7 a4bd 3642 103f
00000080: f88e ed3e fd13 883e 25a4 d5be 3c14 073f
00000090: c98d 96be fff4 71be b9bf 503e edc5 15bf
000000a0: b427 93bc 0e4b 99bc 2b88 51bf 40be 5f3e
000000b0: 2770 a8be 6f64 2fbf a69b 7a3e 4eae 81be
000000c0: fcca 4dbe f7bf 08bc 78e6 333b e65f 703e
000000d0: ba53 8b3e 3797 83be 97c1 8fbe 308d b73e
000000e0: b9c0 c9be fb7e 20bd 0374 99be c812 c8be
000000f0: 5675 04be d698 a03d aa55 f73d 2b20 fa3e
00000100: 134f b53e 9507 113d 22aa 11bf 6852 20bd
00000110: 8e7b 0bbf cf8c 0e3e ef3c e5bd 5354 f9bd
00000120: ded7 31bf aed6 84be a845 5dbe a847 9abe
00000130: 5253 073e f8f2 023e 79b1 34bf ffb9 673e
00000140: b4db 50be 26f7 a5be 2f6f a8be 6a81 17be
00000150: 69b1 78bd 1c5e 11be 9f3e 44bd aa54 90be
00000160: a21c 91be 04ab 9d3d 4e44 043f c01c 8ebe
00000170: e11e c13e 40ec d03e db7b de3e f340 bb3e
00000180: b97d 29be 10ad b4be b595 78bd 8d69 48be
00000190: 3213 fbbc 0bf5 acbd 02ba 34be 9cda 5f3e
000001a0: 6aee 6b3e a72c 823e 54f3 fcbe 2216 a53d
000001b0: 1a2d ad3d 136c d5be 15a3 cbbe 41f1 5dbd
000001c0: 4216 993e f7d3 cbbe e922 fabc 863e a2be
000001d0: 72b6 adbe da7e e0bd 3326 973d 3e76 3abf
000001e0: 0b7b 62be e2bc f83e 266c 573e 3ba0 64be
000001f0: e0ff 313e e82c 3bbf 0449 a2bd e3ab 4b3e
00000200: 3f8d 6c3e ba8c 613e 8233 ed3e cd6c 763c
00000210: 91a5 32bf abfb 973d 0b03 1bbd 5565 68be
00000220: b7b1 1b3e 021d 003f efd8 14bf 7689 4cbe
00000230: e052 903e 7615 98be 0c5a 26bd 0b81 1bbf
00000240: 6f60 16be c97b b63e 58b5 aa3e 9ac4 f3be
00000250: b4b2 e23e de19 4bbe 4048 0bbf 26a9 123d
00000260: 3575 bebe b2de 5bbf 943d 8e3d 5638 163f
00000270: a720 d4be 191e 80bf 5d14 68be f53c 24be
00000280: 2c00 c3bc 7417 7c3e a0ac 85be fafa 343e
00000290: 3e0b 5dbe 40e8 97be 8121 ad3e b41f 553e
000002a0: e94c a5be 4295 8fbe 7e6d f2be 5e0c f83d
000002b0: 48fb b53e 51f5 703e 6d11 8cbe 6f16 803e
000002c0: 8969 2e3d 4bd7 3fbd 4203 0c3f cba1 953e
000002d0: 7316 963d 248f 163e 7db9 5bbd 000d 9bbe
000002e0: 60fd 073f 950b 36be 543f 913e 04da c7be
000002f0: 5146 00bc ea90 55be ed15 58bb 51fe 21bf
00000300: 77a6 8cbe ee7c 03bd d6bf e2be 404e 873e
00000310: a144 f13e 11b7 193f 1c23 b33e 4d89 c03c
00000320: 0afc 6d3b 6a8c 003e 346c 0abe 221d 5bbe
00000330: fa42 03bf 8669 72be b26c 9c3c 8f09 cbbd
00000340: 99f7 0ebf b966 9a3d 247f 133d d3c8 42bd
00000350: 519a 69bc d1c4 3b3e 2961 36be c36a 063f
00000360: 8783 bebd 2559 293e feec 6b3e bcbe e63e
00000370: 49ef bcbe 4735 6bbe 5eef 2f3f 5690 5dbe
00000380: 1c85 6a3c 5c16 b5be 82a9 a83e fdb9 c23e
00000390: 787a 3b3d 1d92 743e 4410 6ebd c378 7bbe
000003a0: 2e31 15be 8f1b ffbe 438f 9ebe f8b8 eb3d
000003b0: 23d6 b23d 84f7 46bf b73d d43e a83c eabe
000003c0: 6b3d bd3e 51a9 eebe ac88 363e 5de2 0ebe
000003d0: 2b13 93be 01f5 5b3e 6133 083f be85 143c
000003e0: 9fee 263e d6ec cd3e 02f3 84be acd2 38bd
000003f0: f422 b93e f2a3 46be 71d8 073f 9ae9 65be

linear2.weight f4 [300, 400]
-0.029124998 -0.086198464 -0.009457264 0.043533973 -0.04687146 -0.057205055 0.0016685183 0.016248707
0.02875992 0.013937955 0.061862417 0.019947737 0.08526191 0.023914617 -0.08020223 0.039510284
0.011835119 0.03920704 0.041934326 -0.027330711 -0.052022796 0.07263466 0.061857946 0.17470065
0.05112761 0.045198802 0.011833257 0.002748487 0.06321563 -0.023841975 -0.04744814 0.028792331
0.11330072 0.04480802 0.0059645446 -0.039639924 0.11707742 0.14389396 0.11576536 -0.0055243084
0.03600627 0.027064167 -0.02398577 -0.007464814 -0.021935368 -0.076821886 -0.024928829 0.045887608
-0.030324357 0.03378413 0.0008911339 0.05696477 0.032320466 0.018758437 0.018886216 0.036050975
-0.0074444176 -0.045965094 0.039249882 -0.03038452 0.08472622 0.080108345 0.07736205 -0.0930597
-0.02946959 0.071505904 0.01667749 0.05997369 -0.09530979 0.04904145 0.035115175 -0.040698647
-0.017788371 -0.03377407 0.011757353 -0.027673624 -0.053868614 0.064414434 -0.04430436 -0.04349374
-0.012270513 0.009627323 0.028663063 -0.007428073 0.022837263 0.052064896 -0.008298045 -0.046762682
0.07623478 0.08211852 -0.094447754 0.13312338 -0.10167408 0.032519396 0.042801205 0.013477508
-0.026003202 0.0656624 0.027310036 -0.024326636 0.087830886 0.0799951 0.06094823 -0.013891108
-0.02709937 -0.045832478 0.03609717 0.0467109 -0.03556557 0.067699395 -0.038602054 -0.03651701
0.040515367 -0.103468925 0.081223704 0.0053415354 0.04312158 -0.0038412784 0.05741367 0.012484997
-0.023719598 -0.04353807 0.037714317 -0.029533291 0.04608058 -0.038866546 0.0069452752 0.07379398
-0.0144151645 0.024569524 0.0019991207 0.01019096 -0.06695433 0.012399408 0.011131691 -0.000604362
0.0130757345 0.14178097 -0.04973658 -0.04142396 0.04383982 0.044564016 0.04282691 0.017578078
-0.010037386 0.008117648 0.0023776107 0.05303049 -0.017208528 0.030432576 0.05519526 0.044505525
-0.04409835 -0.045173097 0.08264304 -0.04388266 0.015025834 -0.017075907 0.019697586 -0.04339949
0.046693392 0.031100523 0.015036358 0.093861386 -0.019593464 0.05179369 0.06942644 0.05303794
0.051585447 0.052235886 0.010452849 0.026917761 0.059462585 -0.031412333 -0.025243988 -0.060016163
0.013640676 0.0053088926 0.0003850484 -0.012738224 -0.007997974 0.0049641174 0.089343354 -0.03297425
0.0008413081 -0.01566947 -0.05281517 0.013854042 0.0005089828 0.111498415 0.012941904 0.035112944
-0.08010313 0.018496176 -0.0182721 0.01861762 0.029124254 0.03610499 0.07405847 0.080278225
0.060482565 0.0016274353 0.060383845 0.008492691 -0.08323088 0.09693773 0.030346336 0.03890417
-0.023038799 0.010725819 0.03645293 0.09810673 0.09195478 -0.0047914963 -0.0028706766 0.094060324
-0.034426372 -0.0008899989 0.0016392049 -0.0127955 0.0103469575 0.009349696 0.04974031 0.034170818
-0.060541056 0.06505667 -0.0114856865 -0.022587668 0.033219375 0.022460261 -0.029912155 -0.012317451
0.0029464862 -0.03037651 0.0045440434 -0.03594294 0.075044185 0.0027846221 0.084834255 -0.0650753
0.02945953 0.00625712 -0.0264467 0.059047956 -0.075499415 0.043875206 0.12976168 -0.0062784473
0.04222602 -0.020889493 0.0015929532 0.03567062 0.056807563 0.120688714 0.023305716 0.0011300389
00000000: 8c97 eebc d288 b0bd a4f2 1abc ae50 323d
00000010: 4afc 3fbd d94f 6abd 2fb2 da3a 021c 853c
00000020: ec99 eb3c 055c 643c 7263 7d3d 7069 a33c
00000030: cc9d ae3d 96e8 c33c 1141 a4bd 89d5 213d
00000040: 16e8 413c 9097 203d 54c3 2b3d a8e4 dfbc
00000050: db15 55bd 7bc1 943d c25e 7d3d bae4 323e
00000060: 2f6b 513d 6122 393d 47e0 413c f61f 343b
00000070: 3277 813d 3f50 c3bc fb58 42bd e5dd eb3c
00000080: 350a e83d 9d88 373d 3a72 c33b 795d 22bd
00000090: 49c6 ef3d f058 133e 6416 ed3d 4205 b5bb
000000a0: 507b 133d acb5 dd3c ce7d c4bc 669b f4bb
000000b0: cdb1 b3bc cb54 9dbd 8b37 ccbc a5f4 3b3d
000000c0: c96a f8bc 3a61 0a3d fc9a 693a e453 693d
000000d0: 7762 043d 4bab 993c 44b7 9a3c 30aa 133d
000000e0: 4df0 f3bb e545 3cbd 7cc4 203d f5e8 f8bc
000000f0: f184 ad3d d80f a43d ff6f 9e3d 1696 bebd
00000100: 366a f1bc b071 923d 3b9f 883c f9a6 753d
00000110: c731 c3bd b0df 483d eed4 0f3d a0b3 26bd
00000120: ebb8 91bc ae56 0abd eaa1 403c ccb3 e2bc
00000130: 56a5 5cbd b7eb 833d 7d78 35bd 7e26 32bd
00000140: 430a 49bc ebbb 1d3c cdce ea3c 3167 f3bb
00000150: 3615 bb3c 0042 553d 86f4 07bc 3a8a 3fbd
00000160: fb20 9c3d c12d a83d d36d c1bd 7f51 083e
00000170: 803a d0bd 0f33 053d 5150 2f3d c4d0 5c3c
00000180: ab04 d5bc 027a 863d 4cb9 df3c a748 c7bc
00000190: aee0 b33d 79d4 a33d daa4 793d 8897 63bc
000001a0: 7fff ddbc d6ba 3bbd a0da 133d ee53 3f3d
000001b0: 34ad 11bd fba5 8a3d 301d 1ebd dc92 15bd
000001c0: 71f3 253d 84e7 d3bd 9d58 a63d 0c08 af3b
000001d0: 41a0 303d f5bd 7bbb 992a 6b3d df8d 4c3c
000001e0: 9a4f c2bc fa54 32bd 547a 1a3d cdef f1bc
000001f0: febe 3c3d 8732 1fbd 3195 e33b 4c21 973d
00000200: 952d 6cbc 0746 c93c ae03 033b fcf7 263c
00000210: 5a1f 89bd e326 4b3c b261 363c 0c6e 1eba
00000220: 9b3b 563c 082f 113e 96b8 4bbd 2cac 29bd
00000230: 6291 333d c288 363d 456b 2f3d e7ff 8f3c
00000240: d973 24bc e2ff 043c b0d1 1b3b 8036 593d
00000250: e6f8 8cbc bd4d f93c 6d14 623d 6d4b 363d
00000260: 79a0 34bd 6d07 39bd c140 a93d 4ebe 33bd
00000270: ea2e 763c c6e2 8bbc d55c a13c aac3 31bd
00000280: 9241 3f3d 86c6 fe3c 0e5b 763c 663a c03d
00000290: 7982 a0bc 9f25 543d 732f 8e3d 503e 593d
000002a0: 434b 533d 4cf5 553d 6d42 2b3c a382 dc3c
000002b0: 0a8f 733d 38aa 00bd 7bcc cebc 82d3 75bd
000002c0: 247d 5f3c 38f6 ad3b 52e0 c939 fcb3 50bc
000002d0: ef09 03bc 09aa a23b a6f9 b63d 0210 07bd
000002e0: 3b8b 5c3a 435d 80bc b854 58bd 10fc 623c
000002f0: 426d 053a 4859 e43d 480a 543c 97d2 0f3d
00000300: 1c0d a4bd 4b85 973c 5faf 95bc fb83 983c
00000310: fd95 ee3c d3e2 133d f8ab 973d e968 a43d
00000320: 91bc 773d ab4f d53a 0d55 773d ee24 0b3c
00000330: f474 aabd 4a87 c63d e198 f83c fb59 1f3d
00000340: ddbb bcbc 58bb 2f3c ab4f 153d 2eec c83d
00000350: ca52 bc3d fc01 9dbb f621 3cbb b3a2 c03d
00000360: ab02 0dbd d14e 69ba 97da d63a 38a4 51bc
00000370: 4986 293c 782f 193c 7fbc 4b3d b3f6 0b3d
00000380: e6f9 77bd 6e3c 853d 762e 3cbc c609 b9bc
00000390: 0a11 083d 95fe b73c 560a f5bc 22cf 49bc
000003a0: d619 413b 29d8 f8bc 33e6 943b e738 13bd
000003b0: c4b0 993d 357e 363b 95bd ad3d 3346 85bd
000003c0: 1d55 f13c 8708 cd3b c0a6 d8bc 45dc 713d
000003d0: 709f 9abd 7db6 333d 3fe0 043e 6fbb cdbb
000003e0: 31f5 2c3d 7120 abbc a4ca d03a 5b1b 123d
000003f0: 0caf 683d a52b f73d a1eb be3c d01d 943a

linear2.bias f4 [300]
-0.09438368 -0.033929046 -0.13138442 -0.09718659 -0.08335605 -0.039848167 0.008509192 -0.06421103
0.012188463 -0.09774166 -0.042243525 -0.026340902 -0.09563198 -0.12491308 -0.09425702 -0.10480258
-0.05684333 -0.035627462 -0.081320554 -0.114465244 -0.04646168 0.016168064 -0.0803274 -0.024827791
-0.11263538 -0.123973675 -0.022133183 -0.023149442 -0.06264213 -0.03811941 -0.07823006 0.110204525
-0.07470294 -0.097719304 -0.009876081 -0.08186818 -0.10651323 -0.094443284 0.008845105 -0.053631753
-0.14433056 -0.064114176 -0.09066509 -0.0750345 -0.14737189 -0.07319942 -0.12276818 -0.07143735
0.025078397 -0.04219808 -0.08564786 -0.08000926 0.03918705 -0.048522737 -0.09849718 -0.06413057
-0.00927244 0.02958172 -0.07528111 -0.059882797 -0.08937065 -0.09363563 -0.042665977 -0.020567069
0.017627811 -0.103358746 -0.10623383 -0.07450923 0.005388335 0.020633044 -0.10312023 -0.09038717
-0.1200964 -0.06006422 -0.06909334 -0.0066608023 -0.17977896 -0.013170637 -0.15554816 -0.10426092
-0.06265044 -0.027865663 -0.088013425 -0.03240056 -0.082067855 0.0259828 0.02296545 -0.12938914
-0.094646685 0.24772038 -0.0234687 -0.11414859 -0.011225289 -0.038580995 -0.04112892 -0.07198199
-0.11781801 -0.071894825 -0.05385825 -0.07596284 -0.06405159 -0.074866116 -0.12223919 -0.022031117
-0.052728742 -0.041990656 -0.10071295 -0.057718396 -0.12753394 -0.081235625 -0.10427731 -0.10966111
-0.04055895 -0.06678372 -0.059777 0.09136191 -0.11169921 -0.1243723 -0.07655218 -0.06391599
-0.06456419 -0.13595311 -0.06761297 -0.09086849 -0.072478205 -0.068468295 -0.124846146 -0.02984156
-0.06388916 -0.0129271895 0.041708507 -0.10691854 0.119293325 -0.119884804 -0.066911116 -0.1072866
-0.057661153 0.051459234 -0.1453632 -0.054266572 -0.11323664 -0.0558755 0.21682382 0.022412019
-0.08612056 0.18784663 -0.028876798 -0.15353054 0.059807967 -0.04764726 -0.11674736 -0.011567816
-0.0768584 -0.087998524 -0.01924142 -0.081004836 -0.06388767 0.024881143 -0.034214925 -0.1040605
-0.120462224 -0.08172513 -0.083869405 -0.07967398 -0.10729927 -0.07421901 0.08971289 -0.052587926
-0.096203856 -0.14924496 -0.12335603 -0.056870148 0.036433507 -0.014478025 -0.10124759 -0.013862114
-0.12526786 -0.03592953 -0.070881546 -0.0318969 -0.030831743 -0.051552102 -0.05465567 -0.12732683
-0.0729692 -0.06797595 0.004094066 0.0153476605 -0.0772056 -0.005944801 -0.07268086 -0.09838464
-0.1192597 -0.109139666 0.004883454 -0.05525151 -0.13294606 -0.019209871 -0.044873215 -0.019471426
-0.113383494 -0.05937541 0.23482355 -0.11501584 -0.09971531 -0.10575288 -0.10838482 -0.13061105
-0.09436356 -0.12902854 0.03622033 0.009868214 -0.076514184 -0.09812685 -0.11174504 -0.01496744
-0.033663806 -0.08887099 -0.05163686 -0.07884771 -0.039958425 -0.08973674 -0.11420149 -0.019463822
-0.1012926 -0.06106475 -0.016868915 0.048535146 -0.0050690775 0.04976598 -0.023286717 -0.018986799
-0.06832162 -0.06582334 -0.14391778 -0.018143391 0.010196379 -0.122344986 -0.031835757 -0.055062696
-0.093668416 -0.022764333 -0.08437977 -0.11225317 -0.005563051 -0.015076311 -0.014434069 -0.05347715
-0.079167336 -0.084315695 -0.009232329 -0.057163652 -0.08255214 -0.09624632 -0.02418991 -0.02079097
00000000: 3b4c c1bd 2ff9 0abd a389 06be c309 c7bd
00000010: 94b6 aabd d537 23bd 236a 0b3c 1381 83bd
00000020: 1eb2 473c c82c c8bd 8c07 2dbd e0c8 d7bc
00000030: b3da c3bd 6ed2 ffbd d309 c1bd bca2 d6bd
00000040: 8dd4 68bd 1aee 11bd 648b a6bd c16c eabd
00000050: 9a4e 3ebd e372 843c b182 a4bd a763 cbbc
00000060: 61ad e6bd e9e5 fdbd a650 b5bc e6a3 bdbc
00000070: 844a 80bd 1923 1cbd 1537 a0bd e9b2 e13d
00000080: dbfd 98bd 0f21 c8bd 49cf 21bc 81aa a7bd
00000090: 9c23 dabd 7b6b c1bd 0feb 103c f8ac 5bbd
000000a0: 64cb 13be 4b4e 83bd 9eae b9bd b0ab 99bd
000000b0: a8e8 16be 94e9 95bd e26d fbbd bf4d 92bd
000000c0: 3671 cd3c e5d7 2cbd 2568 afbd e5db a3bd
000000d0: 9a82 203d c7bf 46bd e4b8 c9bd e356 83bd
000000e0: 6feb 17bc 5d55 f23c fc2c 9abd aa47 75bd
000000f0: f607 b7bd 0ac4 bfbd 85c2 2ebd 457c a8bc
00000100: 3368 903c c0ad d3bd 1f91 d9bd 4c98 98bd
00000110: a190 b03b a106 a93c b330 d3bd e91c b9bd
00000120: 1af5 f5bd e605 76bd cf80 8dbd dc42 dabb
00000130: fa17 38be a8c9 57bc 0448 1fbe c086 d5bd
00000140: e04e 80bd 8846 e4bc 6240 b4bd 73b6 04bd
00000150: 3113 a8bd e2d9 d43c 0a22 bc3c 967e 04be
00000160: 1fd6 c1bd 69aa 7d3e 6e41 c0bc bcc6 e9bd
00000170: 46ea 37bc 1b07 1ebd cc76 28bd 4b6b 93bd
00000180: 924a f1bd 983d 93bd 789a 5cbd 6892 9bbd
00000190: 7b2d 83bd 6853 99bd 8a58 fabd 9a7a b4bc
000001a0: 18fa 57bd 65fe 2bbd 9742 cebd 206a 6cbd
000001b0: 4298 02be dd5e a6bd 588f d5bd 0196 e0bd
000001c0: 2421 26bd e7c5 88bd bad8 74bd f41b bb3d
000001d0: 8ec2 e4bd e8b6 febd 64c7 9cbd 63e6 82bd
000001e0: 3b3a 84bd 4b37 0bbe ab78 8abd 4219 babd
000001f0: 746f 94bd 1b39 8cbd 56af ffbd 4a76 f4bc
00000200: 52d8 82bd 90cc 53bc 8ad6 2a3d 1cf8 dabd
00000210: 0f50 f43d 2a86 f5bd b208 89bd 14b9 dbbd
00000220: 1a2e 6cbd ebc6 523d 17da 14be a046 5ebd
00000230: 9de8 e7bd b5dd 64bd 1007 5e3e 6999 b73c
00000240: fa5f b0bd de5a 403e 098f ecbc 1c37 1dbe
00000250: 33f9 743d c629 43bd 3d19 efbd f086 3dbc
00000260: f067 9dbd 9238 b4bd 2fa0 9dbc dde5 a5bd
00000270: 8ad7 82bd 8ad3 cb3c f324 0cbd ac1d d5bd
00000280: e6b4 f6bd 815f a7bd b9c3 abbd 1d2c a3bd
00000290: b8bf dbbd 2300 98bd 64bb b73d 7066 57bd
000002a0: 8706 c5bd acd3 18be 16a2 fcbd acf0 68bd
000002b0: 4d3b 153d 3d35 6dbc e55a cfbd ec1d 63bc
000002c0: 3846 00be d82a 13bd 582a 91bd 53a6 02bd
000002d0: da92 fcbc 4c28 53bd a0de 5fbd f761 02be
000002e0: e070 95bd fa36 8bbd 8427 863b c174 7b3c
000002f0: f81d 9ebd 9bcc c2bb b4d9 94bd e37d c9bd
00000300: 6e3e f4bd 9e84 dfbd 6205 a03b 684f 62bd
00000310: 0323 08be 055e 9dbc facc 37bd 8a82 9fbc
00000320: 9b35 e8bd a133 73bd 9675 703e 6d8d ebbd
00000330: 8a37 ccbd f794 d8bd dcf8 ddbd e7be 05be
00000340: af41 c1bd 0f20 04be c55b 143d 4aae 213c
00000350: 78b3 9cbd bbf6 c8bd 95da e4bd fe39 75bc
00000360: 0fe3 09bd fe01 b6bd 2c81 53bd e87a a1bd
00000370: 72ab 23bd e5c7 b7bd 79e2 e9bd 9872 9fbc
00000380: 7f72 cfbd 081f 7abd ae30 8abc cacc 463d
00000390: 811a a6bb 6ad7 4b3d c9c3 bebc 348a 9bbc
000003a0: 35ec 8bbd 63ce 86bd 2f5f 13be 73a1 94bc
000003b0: b70e 273c 0290 fabd 3666 02bd 6c89 61bd
000003c0: 3ad5 bfbd 447c babc 4dcf acbd fde4 e5bd
000003d0: 414a b6bb a202 77bc e07c 6cbc db0a 5bbd
000003e0: 7c22 a2bd b5ad acbd 3243 17bc 6f24 6abd
000003f0: 1911 a9bd ca1c c5bd eb29 c6bc d351 aabc

linear3.weight f4 [2, 300]
-0.30285215 -0.26701245 0.28910956 -0.033033684 0.04137474 -0.14134115 0.2996189 0.07450946
0.34030277 -0.12039985 0.3516478 -0.20883404 -0.4032139 -0.23696005 -0.10865862 -0.19242474
-0.17069145 -0.34957996 -0.11688305 -0.046456933 0.032633964 -0.18271877 -0.365896 0.69374526
-0.024278672 0.22524434 -0.19711328 0.2764328 -0.17107072 0.60536027 0.37458828 0.15725553
-0.1362704 0.31143382 0.14916399 0.3700875 -0.017510926 0.049385834 -0.19796209 -0.42051286
-0.21426775 -0.16067353 -0.05352991 -0.18864071 0.019813163 -0.11354726 0.049220104 0.2903315
0.26147956 -0.18332541 -0.10190155 -0.15760991 0.024407817 -0.13435206 0.63469154 0.34034187
0.13376865 -0.39820856 0.093672745 -0.34437358 -0.18909113 -0.10474959 0.3559488 -0.059915345
-0.1623727 -0.33735064 0.35498694 -0.015232896 0.41212136 -0.49729645 0.14126776 0.21090549
-0.16738911 0.2616769 0.3412804 -0.21681446 -0.007169867 0.024238268 0.23222642 -0.25680378
0.5418324 -0.11738471 -0.107756786 -0.010186973 -0.15101852 0.3792641 -0.12542163 0.23538844
0.041122403 0.3222255 0.2857709 -0.24403949 -0.17787126 0.18205495 0.16472948 -0.1064322
0.084945194 -0.19485654 -0.20872717 0.22820462 -0.19095042 -0.09863064 -0.03361418 0.34356076
-0.10936589 0.4791176 -0.10773599 -0.16515088 -0.18096542 -0.08607269 0.2791847 0.2588064
-0.2569725 -0.07251791 -0.07191652 -0.49389938 0.07914671 -0.005695474 -0.06449282 0.056431927
0.08866492 0.039743993 -0.20700766 -0.102819584 0.025844805 0.3736471 0.27027497 0.41662586
-0.38853335 0.046274215 -0.3799264 0.21686855 0.5287203 -0.18203601 0.3680594 -0.13491759
-0.3019448 0.12530537 0.23993038 0.48779148 0.53857386 -0.12195405 0.5582402 -0.018103836
-0.24453552 0.24306676 0.18641573 0.16054939 0.25140345 -0.10527724 -0.12202382 -0.6146632
-0.1641835 0.2665291 -0.3873932 0.7329333 0.1578663 0.14755973 -0.50897574 -0.034361713
0.28106177 0.008320655 -0.06953281 -0.041837294 -0.17240176 -0.09701825 0.28745872 -0.18324684
0.28694355 0.25048852 -0.12730615 0.54875547 0.56331336 0.4704786 0.5103487 0.4834576
0.24538645 -0.21768793 0.3096358 -0.49435493 0.04986385 0.22122312 0.09870939 -0.07162393
0.41389835 0.25921538 0.33749288 0.23438218 -0.002468719 -0.12542094 -0.23402435 0.16608459
0.020431517 -0.6392538 0.023128038 -0.1254447 -0.26801696 0.39903453 -0.13996698 0.79763895
-0.07776164 -0.03899545 0.22105928 0.35658216 0.33204526 -0.26718578 0.40087858 -0.06927408
-0.13050658 -0.18065691 0.030909128 0.42076173 0.302887 -0.056894355 -0.05428687 -0.49486086
0.11180515 -0.08070097 -0.35544622 0.284973 0.25583655 0.094024464 0.41476035 -0.14301182
-0.13215482 -0.28696314 0.5565558 -0.12636365 0.13622087 -0.6330477 0.40489814 0.11834817
0.07191209 0.1765001 0.15721461 -0.24594514 0.07951839 0.2283081 0.07718205 0.2461619
0.35485867 0.50092936 -0.12401718 0.25295106 -0.028405197 0.4073732 0.32232228 -0.16525905
-0.13123424 -0.1718823 0.20484091 -0.41006395 -0.19401866 0.28274348 -0.048949298 -0.32738423
00000000: 700f 9bbe dbb5 88be 2b06 943e 544e 07bd
00000010: 8f78 293d bcbb 10be a667 993e 6a98 983d
00000020: 2a3c ae3e 3294 f6bd 2e0b b43e 97d8 55be
00000030: 0d72 cebe a8a5 72be 6988 debd fe0a 45be
00000040: bdc9 2ebe 25fc b2be 6160 efbd a049 3ebd
00000050: 31ab 053d a11a 3bbe b856 bbbe 4a99 313f
00000060: 11e4 c6bc 74a6 663e 10d8 49be 9a88 8d3e
00000070: 2a2d 2fbe e4f8 1a3f 09ca bf3e 9807 213e
00000080: 788a 0bbe 4174 9f3e 72be 183e 1c7c bd3e
00000090: 1373 8fbc cd48 4a3d 93b6 4abe 764d d7be
000000a0: 0169 5bbe 9a87 24be 2e42 5bbd 082b 41be
000000b0: 374f a23c 778b e8bd 059b 493d 55a6 943e
000000c0: a6e0 853e a8b9 3bbe c3b1 d0bd 7e64 21be
000000d0: e7f2 c73c 9693 09be 257b 223f 4a41 ae3e
000000e0: a6fa 083e fee1 cbbe 7fd7 bf3d bc51 b0be
000000f0: 1ba1 41be f486 d6bd ec3e b63e cb69 75bd
00000100: 0745 26be 39b9 acbe d9c0 b53e 6693 79bc
00000110: 9201 d33e a49d febe 7fa8 103e 9cf7 573e
00000120: 0d68 2bbe 84fa 853e 4ebc ae3e 9c04 5ebe
00000130: 34f1 eabb 558f c63c c3cc 6d3e c97b 83be
00000140: 87b5 0a3f 6567 f0bd 97af dcbd 43e7 26bc
00000150: 99a4 1abe e72e c23e 876e 00be ab09 713e
00000160: f76f 283d befa a43e 9050 923e 7de5 79be
00000170: e223 36be 9d6c 3a3e d8ae 283e 20f9 d9bd
00000180: bff7 ad3d 7988 47be 93bc 55be 79ae 693e
00000190: 8288 43be dcfe c9bd 06af 09bd 32e7 af3e
000001a0: 39fb dfbd e74e f53e b0a4 dcbd 501d 29be
000001b0: 004f 39be e146 b0bd 4cf1 8e3e 4682 843e
000001c0: e691 83be 4584 94bd f848 93bd 61e0 fcbe
000001d0: ac17 a23d 19a1 babb d014 84bd 2a25 673d
000001e0: f495 b53d 99ca 223d d1f9 53be 1393 d2bd
000001f0: 7cb8 d33c ac4e bf3e 7b61 8a3e fc4f d53e
00000200: d8ed c6be 088a 3d3d b785 c2be ca12 5e3e
00000210: 375a 073f a667 3abe 4872 bc3e d627 0abe
00000220: 8298 9abe 0d50 003e 4fb0 753e cebf f93e
00000230: fadf 093f 0cc3 f9bd d4e8 0e3f 7f4e 94bc
00000240: 8567 7abe 7ee6 783e c4e3 3e3e 0f67 243e
00000250: f4b7 803e 989b d7bd a0e7 f9bd 915a 1dbf
00000260: b81f 28be 8176 883e 6758 c6be 84a1 3b3f
00000270: b4a7 213e e619 173e 3c4c 02bf debe 0cbd
00000280: 54e7 8f3e 5b53 083c 3867 8ebd 955d 2bbd
00000290: 168a 30be 81b1 c6bd ca2d 933e 0fa5 3bbe
000002a0: 44ea 923e 0840 803e 8b5c 02be 3d7b 0c3f
000002b0: 4e35 103f 92e2 f03e 36a6 023f c187 f73e
000002c0: 9646 7b3e 96e9 5ebe 9588 9e3e 171c fdbe
000002d0: 093e 4c3d 5088 623e 2628 ca3d 91af 92bd
000002e0: 7cea d33e e1b7 843e decb ac3e e201 703e
000002f0: 3bca 21bb 596e 00be 14a4 6fbe 1412 2a3e
00000300: ff5f a73c 23a6 23bf 0377 bd3c 9374 00be
00000310: 8539 89be 414e cc3e 8153 0fbe 1132 4c3f
00000320: 7f41 9fbd b1b9 1fbd 5d5d 623e f091 b63e
00000330: d601 aa3e 93cc 88be f53f cd3e 92df 8dbd
00000340: 84a3 05be 20fe 38be 2435 fd3c 156e d73e
00000350: 0114 9b3e 0e0a 69bd e95b 5ebd 675e fdbe
00000360: 19fa e43d 8d46 a5bd 0cfd b5be fbe7 913e
00000370: 02fd 823e e68f c03d 785b d43e b171 12be
00000380: 9853 07be d5ec 92be 717a 0e3f 7965 01be
00000390: 7c7d 0b3e 6a0f 22bf cf4e cf3e 8660 f23d
000003a0: a546 933d 71bc 343e defc 203e 0bd9 7bbe
000003b0: 8ada a23d 99c9 693e 9f11 9e3d dd11 7c3e
000003c0: 09b0 b53e e83c 003f b8fc fdbd cd82 813e
000003d0: 04b2 e8bc 3893 d03e 6d07 a53e ab39 29be
000003e0: 4562 06be ea01 30be d1c1 513e e7f3 d1be
000003f0: d4ac 46be c1c3 903e 0f7f 48bd e89e a7be

linear3.bias f4 [2]
0.017147418 0.08770924
00000000: be78 8c3c e7a0 b33d

norm1.weight f4 [400]
0.17526877 0.72539407 0.7449205 0.22593102 0.39481762 0.38135964 0.7781904 0.5215528
0.16247866 0.5317327 0.44608402 0.37969357 0.12575898 0.65347975 0.35890388 0.3031049
0.8924296 0.43183556 0.08540053 0.7687102 0.8974332 0.651183 0.10100622 -0.17611322
0.94534534 0.6317066 0.3839503 0.35229486 0.15502866 0.5240992 0.4096602 0.07442517
-0.13273509 0.59543 0.17252506 0.33576873 -0.036765724 -0.08448275 0.17480592 0.23645511
0.37566444 0.7172105 0.780231 0.25340807 0.5882172 0.63055474 0.41095915 0.80575657
0.7746876 0.21620429 0.7388483 0.22511844 -0.09275124 0.38953966 0.58151984 0.63892317
0.3466942 0.36593485 0.6639271 0.7397706 0.17311718 0.3403929 0.17610556 0.73951244
0.40835074 0.26648396 0.34597492 0.36590385 0.14519252 0.66420156 0.27526906 0.46551016
0.28906336 0.8106786 0.97007895 0.52100015 0.24163228 0.51114196 0.66027087 0.8662486
0.4351357 0.3690688 0.17077574 0.5524918 0.63798946 0.53155017 0.8471794 0.11708974
0.6542559 0.1724345 0.91553324 -0.05546127 -0.007040842 0.24201463 0.21611524 0.70254624
0.85392183 0.26313627 0.7064115 0.8118471 -0.22195901 0.029720683 0.48572096 0.8571036
0.59358865 0.72093546 0.4376468 0.7267158 0.6085632 0.4592254 0.51103747 0.8964895
0.8758001 0.22208786 0.00517153 0.7454056 0.10481235 0.3025321 0.85222054 0.20987394
0.23147382 0.48950917 0.7891163 0.46495572 -0.07760122 0.45494622 0.8563458 0.8473578
0.54924715 -0.20373456 0.68946856 0.493749 0.22490655 0.12886597 0.35471782 0.48199007
0.9895864 0.030440392 0.3997671 0.48100725 -0.23091057 0.5501445 0.46124342 0.46735385
0.92378366 0.6881446 0.325821 0.8298503 0.8937612 0.455974 0.8759001 0.37446198
0.8524007 0.7453038 0.045334276 0.3576686 0.6788131 0.8415151 -0.005156928 0.56755066
0.839677 0.24052592 0.2566624 0.107993275 0.6762309 0.5012478 0.047472626 -0.0383917
0.273094 0.18284701 0.6290848 0.6861283 0.09200294 0.56827384 0.18576778 0.9434405
0.8970999 0.4175175 1.08031 0.8401836 0.61672515 0.55327535 -0.15665738 0.8071093
0.14218189 0.43741935 0.44064486 0.26005545 0.91058147 0.16462767 0.49146003 0.8047014
0.73645437 0.6681178 0.4212579 0.5805068 0.620048 0.59382915 -0.046949036 0.11461037
0.37576118 0.4438666 0.37642562 0.91008073 0.72165626 0.1356372 0.8411686 0.30939177
0.27723017 0.7262239 0.3012796 0.06714384 -0.07349933 0.46134844 0.20645314 0.13181955
0.7380309 0.583637 0.8020498 0.50978136 0.82170445 0.49712667 0.3994986 0.9469342
0.8727148 0.2574996 0.8626682 0.36792755 0.924921 0.43312478 0.3502138 0.30107543
0.47603515 0.35021624 0.7835384 0.7649408 -0.14313735 0.14875777 -0.11462784 0.556031
0.8097947 0.47789192 0.3318595 0.21666232 0.16995235 0.16913852 0.04225877 0.42388803
0.5083357 0.3955107 0.4383743 0.70922726 0.9345497 0.16558431 0.34504947 0.21268936
00000000: a879 333e 6db3 393f 1cb3 3e3f 765a 673e
00000010: 8925 ca3e 9241 c33e 7c37 473f 7c84 053f
00000020: ce60 263e a21f 083f 2065 e43e 3267 c23e
00000030: f6c6 003e 734a 273f 40c2 b73e 9130 9b3e
00000040: 4476 643f 8d19 dd3e 79e6 ae3d 31ca 443f
00000050: 2fbe 653f eeb3 263f 59dc ce3d 0657 34be
00000060: 2702 723f 86b7 213f 2295 c43e fe5f b43e
00000070: d5bf 1e3e 5d2b 063f fbbe d13e 396c 983d
00000080: b5eb 07be 1a6e 183f 69aa 303e e1e9 ab3e
00000090: a897 16bd 4b05 adbd 5300 333e 4a21 723e
000000a0: 1757 c03e 1b9b 373f 38bd 473f b4be 813e
000000b0: 6795 163f 096c 213f 3d69 d23e 1046 4e3f
000000c0: ed51 463f a864 5d3e 2a25 3d3f 7385 663e
000000d0: 5df4 bdbd be71 c73e 7cde 143f 7890 233f
000000e0: e781 b13e d05b bb3e 20f7 293f 9b61 3d3f
000000f0: a145 313e fa47 ae3e 0455 343e b050 3d3f
00000100: 5913 d13e 9670 883e a023 b13e c057 bb3e
00000110: 59ad 143e 1d09 2a3f 11f0 8c3e 5957 ee3e
00000120: 1d00 943e a288 4f3f 1857 783f 4460 053f
00000130: 746e 773e 33da 023f 8307 293f 78c2 5d3f
00000140: 1bca de3e 96f6 bc3e d6df 2e3e 1a70 0d3f
00000150: 4753 233f ac13 083f c0e0 583f bfcc ef3d
00000160: 517d 273f ab92 303e 6360 6a3f 5b2b 63bd
00000170: ddb6 e6bb afd2 773e 504d 5d3e 12da 333f
00000180: 9f9a 5a3f ccb9 863e 62d7 343f 36d5 4f3f
00000190: 3949 63be ca78 f33c 6bb0 f83e 246b 5b3f
000001a0: 6df5 173f 3a8f 383f 3e13 e03e 0c0a 3a3f
000001b0: ccca 1b3f 971f eb3e 5ad3 023f 5680 653f
000001c0: 6f34 603f 006b 633e f075 a93b e7d2 3e3f
000001d0: dba7 d63d 7de5 9a3e 202b 5a3f 32e9 563e
000001e0: 7907 6d3e f2a0 fa3e 8703 4a3f ad0e ee3e
000001f0: 63ed 9ebd b6ee e83e 7a39 5b3f 71ec 583f
00000200: 769b 0c3f cb9f 50be 0381 303f abcc fc3e
00000210: e74d 663e 71f5 033e 939d b53e 67c7 f63e
00000220: 8955 7d3f 215e f93c 46ae cc3e 9546 f63e
00000230: d273 6cbe 45d6 0c3f 1928 ec3e 0149 ef3e
00000240: 167d 6c3f 3f2a 303f 03d2 a63e 1271 543f
00000250: 89cd 643f 6d75 e93e fd3a 603f 7bb9 bf3e
00000260: ef36 5a3f 3bcc 3e3f 6fb0 393d 5720 b73e
00000270: b2c6 2d3f 896d 573f 73fb a8bb 004b 113f
00000280: 12f5 563f 6d4c 763e 4169 833e 942b dd3d
00000290: 781d 2d3f c751 003f a872 423d 9d40 1dbd
000002a0: fad2 8b3e 3f3c 3b3e b40b 213f 1ba6 2f3f
000002b0: 0a6c bc3d 657a 113f e939 3e3e 5185 713f
000002c0: 57a8 653f dbc4 d53e 9947 8a3f 4616 573f
000002d0: b3e1 1d3f 74a3 0d3f cb6a 20be b79e 4e3f
000002e0: 2198 113e 6ef5 df3e 349c e13e fd25 853e
000002f0: de1b 693f 2894 283e a6a0 fb3e e900 4e3f
00000300: 4688 3c3f c509 2b3f 1eaf d73e 189c 143f
00000310: 77bb 1e3f 3005 183f a24d 40bd d7b8 ea3d
00000320: c563 c03e 7c42 e33e dcba c03e 0dfb 683f
00000330: 77be 383f 7ae4 0a3e d356 573f 9968 9e3e
00000340: 1df1 8d3e cfe9 393f 5241 9a3e b682 893d
00000350: d186 96bd dd35 ec3e 7468 533e b4fb 063e
00000360: 98ef 3c3f 3c69 153f 2353 4d3f 0881 023f
00000370: 395b 523f 6387 fe3e 158b cc3e 486a 723f
00000380: 3d6a 5f3f fdd6 833e d3d7 5c3f 0061 bc3e
00000390: 9fc7 6c3f 88c2 dd3e 394f b33e 8f26 9a3e
000003a0: e1ba f33e 8b4f b33e f995 483f 29d3 433f
000003b0: 9992 12be f553 183e 00c2 eabd 0c58 0e3f
000003c0: b54e 4f3f 40ae f43e 7de9 a93e badc 5d3e
000003d0: fd07 2e3e a632 2d3e 8817 2d3d da07 d93e
000003e0: 4a22 023f 6180 ca3e 9972 e03e eb8f 353f
000003f0: a63e 6f3f ef8e 293e 53aa b03e 3dcb 593e

norm1.bias f4 [400]
0.0015747832 -0.040242087 -0.08271587 0.040454835 -0.10371895 -0.07404884 -0.15124395 -0.21326527
-0.18728796 0.06819628 -0.1363623 -0.16288939 -0.2788118 -0.024403103 0.011894906 -0.08788265
-0.06874348 -0.23138458 -0.23622653 -0.19018263 0.08270915 -0.061490275 -0.26476365 -0.21954268
-0.022859272 -0.023998484 -0.034839995 0.0745872 -0.33697754 -0.14470676 -0.015854415 -0.2060035
-0.2951983 0.050326608 -0.19096473 0.08164464 -0.3152516 -0.22209325 -0.24596131 0.16564459
0.05655081 0.13984308 0.1900245 -0.20613566 0.032154765 0.11280454 -0.12997626 -0.18509656
0.0033028524 -0.16830242 0.014912023 -0.24297099 -0.31303453 -0.18745331 -0.1760998 0.05347571
0.123016864 0.17618015 0.099814706 0.17500326 -0.16594516 -0.241445 -0.19687484 -0.036929365
-0.16835538 -0.072643965 -0.07869182 -0.21493825 0.22102892 0.13387795 -0.29152358 0.087342635
0.027999327 0.109091155 0.116729006 0.12076424 0.13546307 -0.055926185 0.09292228 -0.10038255
-0.15817685 0.048686944 -0.09707241 0.09017986 -0.056273412 0.061061837 -0.11224432 0.21954101
-0.06288807 -0.07925911 -0.08294037 -0.23715165 0.27408102 -0.08762766 -0.04548925 -0.06289032
0.012577387 -0.3171708 0.031851597 -0.27027538 -0.14452429 -0.3427327 -0.04896621 -0.016634759
0.14259693 -0.10561009 0.0072947266 0.109219424 -0.24137191 -0.025642855 -0.04905842 -0.098759785
0.060531903 0.21977322 -0.31285182 0.0912533 -0.2586729 0.12337863 0.07148774 -0.004749344
-0.30978164 -0.13425164 0.049455624 0.19720268 -0.2452957 0.084622234 0.03954506 0.19024692
-0.049421147 -0.2657698 0.05562278 -0.10797998 0.09740313 -0.25234568 -0.18747641 -0.10837612
-0.037249133 -0.29928693 0.09386313 0.08653486 -0.20666178 -0.08905926 -0.08127328 0.024693675
-0.08738507 -0.21022983 -0.03306017 -0.097119644 -0.060516257 -0.23305565 -0.0029439225 -0.295554
-0.0009955728 0.12498598 -0.25700718 0.11518749 0.08969303 0.090812966 -0.22920161 -0.22342381
0.14613277 -0.13525178 -0.095411904 -0.20126794 -0.2572175 0.02748464 -0.28076974 -0.26288372
-0.047357038 -0.00037957387 0.10269835 -0.03756819 -0.23773733 -0.15337469 -0.029585619 -0.069804445
0.20427668 -0.28496894 0.04023569 -0.075565234 -0.0783367 0.117299475 -0.19178899 0.019723447
-0.1826839 0.17582898 -0.035505272 -0.06664774 -0.1872857 -0.29119617 0.20672606 0.069741175
0.0607476 -0.19397461 0.14012322 -0.1528346 -0.0325861 -0.122490026 -0.23212714 -0.14645077
-0.23972487 0.1406543 0.0106778005 0.012069147 -0.15720916 -0.2996488 -0.06851129 -0.28356054
-0.08401022 -0.058838785 -0.11691332 -0.2797037 -0.22977565 -0.05188765 -0.027854364 -0.19693048
-0.073733166 -0.05967816 0.17272834 -0.05994319 0.13824096 0.22089836 -0.07963444 0.15832509
-0.15735455 -0.25581235 -0.0098654125 -0.026625648 0.037429485 -0.25028732 0.04296219 0.026709374
-0.19331944 0.01477699 -0.10505543 0.05373574 -0.20432334 0.11221102 -0.2262268 0.051730964
-0.06641528 0.00036426846 -0.20679115 -0.29044086 0.1774815 -0.016989434 -0.2137376 -0.06956449
0.03450462 -0.058460373 -0.04157742 -0.26451302 -0.109686166 -0.26816162 -0.082132645 0.0027931484
00000000: f568 ce3a e3d4 24bd f066 a9bd f8b3 253d
00000010: 9a6a d4bd eba6 97bd b2df 1abe 3662 5abe
00000020: 6ac8 3fbe 7eaa 8b3d 8fa2 0bbe 7acc 26be
00000030: 6cc0 8ebe 04e9 c7bc dae2 423c d2fb b3bd
00000040: 62c9 8cbd 14f0 6cbe 5ee5 71be 3cbf 42be
00000050: 6a63 a93d 3add 7bbd 1a8f 87be cccf 60be
00000060: 5e43 bbbc 7898 c4bc 62b4 0ebd 2dc1 983d
00000070: 5288 acbe 022e 14be 1ee1 81bc 95f2 52be
00000080: 3b24 97be 4623 4e3d 428c 43be 4e35 a73d
00000090: a868 a1be 6a6c 63be 48dd 7bbe bc9e 293e
000000a0: d2a1 673d 0633 0f3e c895 423e 3a15 53be
000000b0: b7b4 033d 1106 e73d 7f18 05be f489 3dbe
000000c0: ab74 583b 7857 2cbe 8f51 743c 63cd 78be
000000d0: 1046 a0be c3f3 3fbe 8253 34be 5909 5b3d
000000e0: 44f0 fb3d 9268 343e a76b cc3d 0e34 333e
000000f0: 87ed 29be 5c3d 77be 8f99 49be 3f43 17bd
00000100: 5a65 2cbe 5cc6 94bd 2d29 a1bd c618 5cbe
00000110: 6855 623e 4d17 093e 9442 95be b2e0 b23d
00000120: d85e e53c 2f6b df3d 9e0f ef3d 3e53 f73d
00000130: d5b6 0a3e db12 65bd 094e be3d 5e95 cdbd
00000140: 1df9 21be f66b 473d e6cd c6bd 38b0 b83d
00000150: f37e 66bd fa1b 7a3d 5ae0 e5bd 5ccf 603e
00000160: 76cb 80bd 9a52 a2bd a4dc a9bd e2d7 72be
00000170: 5954 8c3e 2176 b3bd f052 3abd a4cc 80bd
00000180: 6211 4e3c 3664 a2be d276 023d 8961 8abe
00000190: 2dfe 13be a97a afbe cb90 48bd 9e45 88bc
000001a0: ee04 123e 1a4a d8bd 9a08 ef3b 6fae df3d
000001b0: 332a 77be f710 d2bc 7bf1 48bd 9242 cabd
000001c0: 4df0 773d 3b0c 613e 1d2e a0be 03e3 ba3d
000001d0: c670 84be efad fc3d 2a68 923d 63a0 9bbb
000001e0: b39b 9ebe 4379 09be fb91 4a3d 80ef 493e
000001f0: cc2e 7bbe 6c4e ad3d 00fa 213d 17d0 423e
00000200: d46d 4abd fb12 88be b6d4 633d 9c24 ddbd
00000210: 4b7b c73d 7433 81be d1f9 3fbe 4df4 ddbd
00000220: 8c92 18bd 233c 99be 503b c03d 3039 b13d
00000230: 259f 53be b464 b6bd 9b72 a6bd 644a ca3c
00000240: f2f6 b2bd 7d46 57be 1a6a 07bd aae6 c6bd
00000250: e5df 77bd 24a6 6ebe d3ee 40bb db52 97be
00000260: e17d 82ba a6f8 ff3d 7296 83be 6be7 eb3d
00000270: fbb0 b73d 26fc b93d d4b3 6abe 36c9 64be
00000280: d4a3 153e 717f 0abe 5167 c3bd 2f19 4ebe
00000290: 03b2 83be 7827 e13c 0dc1 8fbe b298 86be
000002a0: 74f9 41bd 8b01 c7b9 8353 d23d 1ae1 19bd
000002b0: 6a71 73be 410e 1dbe 8a5d f2bc a2f5 8ebd
000002c0: e82d 513e 73e7 91be 2ece 243d f2c1 9abd
000002d0: fe6e a0bd b53a f03d 5564 44be 1193 a13c
000002e0: 7d11 3bbe 830c 343e fa6d 11bd 9c7e 88bd
000002f0: d3c7 3fbe aa17 95be ffaf 533e 76d4 8e3d
00000300: 7ad2 783d 48a1 46be 767c 0f3e ac80 1cbe
00000310: 0179 05bd 0ddc fabd bdb2 6dbe 31f7 15be
00000320: 707a 75be ae07 103e f1f1 2e3c acbd 453c
00000330: 70fb 20be 916b 99be a64f 8cbd d92e 91be
00000340: 8d0d acbd f000 71bd 4070 efbd 5335 8fbe
00000350: 4f4a 6bbe 2588 54bd d62e e4bc 25a8 49be
00000360: 6a01 97bd 1671 74bd b3df 303e fe86 75bd
00000370: 0a8f 0d3e 2e33 623e 6217 a3bd f91f 223e
00000380: 8d21 21be d6f9 82be 8aa2 21bc 081e dabc
00000390: a94f 193d a925 80be 1ff9 2f3d 9ecd da3c
000003a0: 88f5 45be 301b 723c 4d27 d7bd 021a 5c3d
000003b0: 233a 51be e4ce e53d 00a8 67be d9e3 533d
000003c0: bc04 88bd 49fb be39 0fc1 53be aab4 94be
000003d0: b6bd 353e 6d2d 8bbc 08de 5abe d477 8ebd
000003e0: b754 0d3d 2574 6fbd 164d 2abd 406e 87be
000003f0: 24a3 e0bd 7b4c 89be 2935 a8bd 410d 373b

norm1.running_mean f4 [400]
39.18244 6.4377685 24.060543 32.058647 3.8372116 11.9175625 18.600746 3.7814384
10.7422 10.153193 5.686525 23.159552 3.8405273 9.34616 2.102918 45.607933
6.6361265 6.1926265 16.346844 7.2615004 22.19337 7.468284 2.68321 8.573063
17.445974 11.712262 32.02646 21.389687 12.577364 8.688731 10.386305 3.2621136
11.85689 12.948526 14.419038 10.000205 19.413483 21.212284 11.8312845 58.01903
9.811517 35.04855 8.351942 0.5646397 36.254745 0.35765198 17.45637 16.952208
2.903704 32.77923 12.614684 15.6009445 7.920006 4.6260037 1.6951954 46.879272
23.979338 28.87386 9.2843485 27.032742 29.429087 7.973992 8.817264 1.4941227
22.771881 49.750927 66.08354 22.552074 29.712059 14.146294 2.362477 9.619953
17.009329 2.1621656 8.436763 39.247295 20.712559 8.359281 12.656645 3.99561
1.4718746 0.5555926 49.06966 28.730118 35.14701 9.698569 1.0023068 57.214676
18.172483 41.40153 2.688078 18.480137 40.208267 23.403759 38.10399 10.734637
50.991123 6.2566943 45.270824 8.203952 0.77957135 6.1818824 29.733559 69.99159
13.333423 3.6687205 36.046936 2.5914085 20.40382 24.879389 5.3115997 3.138905
14.73808 29.341856 14.87484 10.258997 20.248196 16.796339 1.1654693 15.685211
0.47092304 15.752841 42.914406 21.150038 13.102393 25.807335 14.248686 6.2513714
23.923353 3.9407473 6.004571 1.5611928 10.922007 11.955037 0.8262517 9.4532
4.731304 21.302338 43.084553 19.668987 1.7701377 53.18687 31.128216 23.17957
3.6897092 25.283077 6.260449 19.042559 4.739909 13.807104 29.81569 4.671577
24.938715 30.496367 5.819271 12.059318 36.40609 6.4839725 18.770718 7.3730307
24.695776 65.10861 88.974556 14.021388 4.3668027 19.069557 35.204395 15.479451
10.107786 27.180529 39.033962 0.22857895 42.41214 4.1563215 26.300777 7.5597386
20.20254 10.445059 2.010801 17.229317 13.729161 37.638992 1.0278528 81.88862
13.1939335 20.995014 5.15771 23.48683 0.74849516 8.696355 13.125361 38.279163
0.7480306 21.877396 17.79173 12.834453 46.894897 2.142516 25.293056 16.773333
5.997659 6.656196 4.6550364 18.113579 0.48731717 11.252911 5.5236225 21.266907
9.769591 18.65353 8.995749 6.6899033 14.306401 2.6666317 7.3651876 42.33849
9.595419 9.445586 0.6198071 17.939419 13.992007 15.006065 2.1911492 24.851854
6.2454185 9.823797 4.3125954 13.174394 4.832897 7.2938175 1.5610071 29.214796
8.11367 4.3834915 15.084986 9.129999 22.82966 21.345278 11.395478 1.880605
26.536154 7.11138 12.863948 2.135847 47.63679 13.003382 35.23514 22.409998
55.456604 4.8150325 15.634394 7.1133003 8.495134 15.685565 5.986084 16.102524
00000000: d2ba 1c42 3302 ce40 fe7b c041 0e3c 0042
00000010: e094 7540 56ae 3e41 54ce 9441 1603 7240
00000020: 0de0 2b41 7b73 2241 03f8 b540 c346 b941
00000030: 33cb 7540 df89 1541 3596 0640 866e 3642
00000040: 265b d440 ff29 c640 56c6 8241 365e e840
00000050: 068c b141 2ffc ee40 b6b9 2b40 442b 0941
00000060: 5b91 8b41 6d65 3b41 181b 0042 141e ab41
00000070: e23c 4941 0b05 0b41 4e2e 2641 78c6 5040
00000080: d2b5 3d41 2a2d 4f41 61b4 6641 d700 2041
00000090: d04e 9b41 c2b2 a941 f14c 3d41 7d13 6842
000000a0: f9fb 1c41 b731 0c42 8ea1 0541 3a8c 103f
000000b0: dc04 1142 291e b73e a5a6 8b41 1f9e 8741
000000c0: 49d6 3940 ee1d 0342 bfd5 4941 789d 7941
000000d0: b070 fd40 3908 9440 2afc d83f 6084 3b42
000000e0: afd5 bf41 aafd e641 b18c 1441 0e43 d841
000000f0: c56e eb41 f12a ff40 8313 0d41 6a3f bf3f
00000100: d02c b641 f300 4742 c62a 8442 a66a b441
00000110: 4cb2 ed41 3857 6241 d332 1740 54eb 1941
00000120: 1b13 8841 ec60 0a40 fbfc 0641 3bfd 1c42
00000130: 52b3 a541 9dbf 0541 9e81 4a41 13b8 7f40
00000140: 6366 bc3f 513b 0e3f 5547 4442 48d7 e541
00000150: 8a96 0c42 572d 1b41 974b 803f d4db 6442
00000160: 3f61 9141 2b9b 2542 7809 2c40 52d7 9341
00000170: 44d5 2042 e63a bb41 7c6a 1842 13c1 2b41
00000180: e9f6 4b42 d736 c840 5315 3542 6343 0341
00000190: fd91 473f fbd1 c540 54de ed41 b2fb 8b42
000001a0: b355 5541 51cc 6a40 1030 1042 a3d9 2540
000001b0: 063b a341 fd08 c741 a0f8 a940 d2e3 4840
000001c0: 2dcf 6b41 1fbc ea41 58ff 6d41 da24 2441
000001d0: 4efc a141 e75e 8641 192e 953f a0f6 7a41
000001e0: d31c f13e a30b 7c41 5aa8 2b42 4733 a941
000001f0: 67a3 5141 6c75 ce41 9efa 6341 3c0b c840
00000200: 0763 bf41 3435 7c40 7225 c040 2ad5 c73f
00000210: 8ac0 2e41 d547 3f41 3b85 533f 4f40 1741
00000220: d866 9740 306b aa41 9556 2c42 165a 9d41
00000230: df93 e23f 5bbf 5442 9606 f941 c26f b941
00000240: 3224 6c40 be43 ca41 9955 c840 2957 9841
00000250: 56ad 9740 e6e9 5c41 8886 ee41 8f7d 9540
00000260: 7d82 c741 8ff8 f341 7837 ba40 f7f2 4041
00000270: d69f 1142 b47c cf40 6e2a 9641 deef eb40
00000280: f390 c541 9c37 8242 f9f2 b142 9b57 6041
00000290: d9bc 8b40 748e 9841 4dd1 0c42 d5ab 7741
000002a0: 7eb9 2141 b971 d941 c722 1c42 9a10 6a3e
000002b0: 08a6 2942 9600 8540 fe67 d241 61e9 f140
000002c0: cd9e a141 f61e 2741 f7b0 0040 a4d5 8941
000002d0: a5aa 5b41 548e 1642 ae90 833f f9c6 a342
000002e0: 5a1a 5341 caf5 a741 f60b a540 07e5 bb41
000002f0: 619d 3f3f 4524 0b41 7b01 5241 dd1d 1942
00000300: ef7e 3f3f e804 af41 7755 8e41 eb59 4d41
00000310: 6094 3b42 fb1e 0940 2e58 ca41 c92f 8641
00000320: d3ec bf40 8fff d440 0ff6 9440 9ce8 9041
00000330: a381 f93e ec0b 3441 84c1 b040 a022 aa41
00000340: 3f50 1c41 6e3a 9541 97ee 0f41 b013 d640
00000350: 05e7 6441 18aa 2a40 9eaf eb40 9d5a 2942
00000360: d686 1941 1f21 1741 aeab 1e3f ee83 8f41
00000370: 43df 5f41 d818 7041 ca3b 0c40 99d0 c641
00000380: 78da c740 462e 1d41 c800 8a40 51ca 5241
00000390: 18a7 9a40 f466 e940 15cf c73f e7b7 e941
000003a0: 98d1 0141 9045 8c40 1a5c 7141 7a14 1241
000003b0: 25a3 b641 21c3 aa41 e153 3641 aab7 f03f
000003c0: 0b4a d441 6d90 e340 bbd2 4d41 b8b1 0840
000003d0: 138c 3e42 da0d 5041 c9f0 0c42 ad47 b341
000003e0: 90d3 5d42 bf14 9a40 7a26 7a41 28a0 e340
000003f0: 12ec 0741 13f8 7a41 008e bf40 f8d1 8041
