saved_runs/final_option_3_ddpg_agent_target_actor.pkl (torch_old, 508418 bytes, 14 tensors)

linear1.weight f4 [400, 6]
0	0x3c37587b	0.011190529
1	0x3e92f66c	0.2870363
2	0xbe8093fe	-0.2511291
3	0xbe88f0b3	-0.2674614
4	0xbe1be093	-0.15222387
5	0x3e322bb1	0.1739948
6	0x3bad9ee1	0.005298481
7	0x3ec5297f	0.38508222
8	0xbd2a0f6a	-0.041518606
9	0x3e01753c	0.12642378
10	0x3c9fa2b5	0.019486764
11	0xbd6f3702	-0.05840207
12	0xbebe8506	-0.37210864
13	0xbe951a2a	-0.29121524
14	0xbe5aa014	-0.21350127
15	0xbcb53e1c	-0.022124343
16	0x3dcaf4ac	0.09909949
17	0x3e074110	0.13208413
18	0xbe9944cf	-0.2993531
19	0xbd48cd19	-0.04902372
20	0x3e05cf1b	0.13067286
21	0x3e9d8695	0.3076674
22	0xbe0f6ae7	-0.14005624
23	0x3eb00a28	0.3438275
24	0xbddc7eb9	-0.10766358
25	0xbd4f2de2	-0.050580867
26	0x3eadad6c	0.33921373
27	0xbeb00410	-0.343781
28	0xbe9868b1	-0.29767373
29	0xbe128385	-0.14307983
30	0xbd8489d1	-0.06471599
31	0x3ee5b582	0.44865042
32	0xbe28dc96	-0.16490397
33	0xbe807ffe	-0.2509765
34	0xbe98188f	-0.29706237
35	0xbed4c62d	-0.41557446
36	0xbe517637	-0.20455252
37	0x3e899852	0.26874024
38	0x3e89b378	0.26894736
39	0x3e2700e6	0.16308936
40	0x3d5dfdee	0.054197244
41	0xbe60ae9f	-0.21941613
42	0x3d815df7	0.063167505
43	0xbed87b8b	-0.42281756
44	0xbe88e4f5	-0.2673718
45	0xbe955e95	-0.29173723
46	0x3e8aa712	0.2708059
47	0x3e3c4b46	0.1838809
48	0xbdda6427	-0.10663634
49	0x3d1a79d5	0.037713844
50	0x3e8aa100	0.27075958
51	0x3ed19532	0.4093414
52	0x3e3202e9	0.17383923
53	0xbc2a72d3	-0.010403353
54	0x3e880a9b	0.2657059
55	0xbe963c2d	-0.29342785
56	0xbbbffae7	-0.0058587673
57	0xbedc4524	-0.430215
58	0xbe9087e3	-0.28228673
59	0xbe0ef3b0	-0.13960147
60	0x3e5c3b33	0.21506958
61	0x3e842fda	0.25817758
62	0xbe50f8bf	-0.20407389
63	0x3de7e6f5	0.113233484
64	0x3e72a7d6	0.23696837
65	0xba801c00	-0.000977397
66	0x3cc605c0	0.024172664
67	0x3d29fc6b	0.04150049
68	0x3e2d94df	0.16951321
69	0x3eeb385a	0.4594143
70	0xbeb9ef79	-0.36315516
71	0xbe235e8f	-0.1595404
72	0x3e215d93	0.15758352
73	0x3e704f96	0.2346786
74	0x3eb134f3	0.3461071
75	0x3ee8629e	0.4538774
76	0x3dbcb9e1	0.09215141
77	0xbebb6b90	-0.366055
78	0x3d893989	0.06700427
79	0xbea98c4b	-0.33114848
80	0xbea9c4bc	-0.3315791
81	0x3ebf1daf	0.37327334
82	0x3eb710b9	0.35754946
83	0xbee9edec	-0.45689332
84	0x3ca7d25b	0.020486047
85	0xbdd4f514	-0.103983074
86	0xbd02891f	-0.03186905
87	0xbe455f8a	-0.19274727
88	0x3e5d005a	0.21582165
89	0xbe68e52d	-0.22743674
90	0x3e1522d3	0.14564066
91	0x3e821f4f	0.25414512
92	0x3e70cb04	0.23514944
93	0x3e5b069d	0.21389242
94	0xbede7ebb	-0.43456063
95	0xbe8e35e0	-0.27775478
96	0x3e8ea377	0.2785909
97	0x3df0ebdc	0.117637366
98	0xbe8cc8d4	-0.2749697
99	0xbe9a24c2	-0.3010617
100	0x3eb73e9f	0.35789964
101	0x3e7493a2	0.23884442
102	0xbe383cd1	-0.1799195
103	0xbdf9cec6	-0.12197642
104	0xbec3a9bd	-0.38215438
105	0xbc6e18e8	-0.014532305
106	0xbe9fbaa2	-0.31197077
107	0xbea627f2	-0.3245235
108	0xbca8655e	-0.020556148
109	0x3e553e15	0.20824464
110	0xbd0b6cbc	-0.034039244
111	0x3e616c31	0.22013928
112	0xbea75932	-0.32685238
113	0x3ec7a7d0	0.38995218
114	0x3e75ae2f	0.23992227
115	0xbee2dca1	-0.44308951
116	0xbca6d0ca	-0.02036323
117	0xbb741baf	-0.0037247946
118	0x3cdf8f60	0.027290046
119	0x3de2739e	0.110572085
120	0x3e6500c4	0.22363573
121	0x3d8fcf9c	0.0702202
122	0xbdfb8626	-0.12281446
123	0x3e845c5d	0.25851718
124	0xbecf73fe	-0.40518183
125	0xbe6c0e69	-0.23052372
126	0xbdca5218	-0.098789394
127	0xbe4d48c8	-0.20047295
128	0xbe2baf1e	-0.1676602
129	0xbe9bf3ea	-0.3045953
130	0xbd9910f9	-0.074739404
131	0x3d8dcb27	0.06923514
132	0xbe8a4293	-0.27003917
133	0x3cee3f5e	0.02908295
134	0x3e853f99	0.26025084
135	0xbccb0700	-0.024783611
136	0x3d986b5c	0.07442352
137	0xbd132003	-0.0359192
138	0x3dc55159	0.096346565
139	0x3e331ca9	0.17491402
140	0x3ec16ef7	0.37779972
141	0x3e9bbd25	0.30417743
142	0x3ed51a50	0.41621637
143	0xbc73a214	-0.014870185
144	0xbeb02360	-0.3440199
145	0xbe1bf74c	-0.15231055
146	0x3e72e4cb	0.2372009
147	0x3d0844d4	0.033268765
148	0xbe59a51d	-0.21254392
149	0xbebb155b	-0.3653973
150	0xbe84d178	-0.25941062
151	0xbeb18132	-0.3466888
152	0xbe2024cb	-0.15639035
153	0x3e1a7d62	0.15086892
154	0x3e8a1d1d	0.26975337
155	0xbeb57b78	-0.35445762
156	0x3e447fa6	0.19189319
157	0xbee0520b	-0.43812594
158	0xbd202031	-0.0390932
159	0xbdede122	-0.11615206
160	0xbdeba609	-0.11506278
161	0xbcaa4a7f	-0.020787476
162	0xbee4169d	-0.44548503
163	0xbed412fa	-0.41420728
164	0x3c756e7c	0.014979955
165	0xbe02db1c	-0.12778896
166	0xbe27f3cb	-0.16401593
167	0x3c3b737b	0.011441107
168	0xbee3953e	-0.444498
169	0xbdb42d7d	-0.08797739
170	0x3e98c1ef	0.2983546
171	0xbe52e66d	-0.20595713
172	0x3ec54630	0.3853011
173	0x3d94832a	0.0725158
174	0xbeecccc6	-0.4624998
175	0x3ea09aa3	0.31367978
176	0xbc70df5f	-0.014701693
177	0xbe2703c3	-0.16310029
178	0x3e81f956	0.2538554
179	0xbea9ef83	-0.33190545
180	0x3d47efcb	0.04881267
181	0xbddf4be3	-0.10903146
182	0x3e8ad7f6	0.2711789
183	0x3db9ca34	0.0907177
184	0x3e6ff9e1	0.23435165
185	0x3dbf9e06	0.093563125
186	0xbd822066	-0.06353836
187	0xbdc17161	-0.094454534
188	0xbeaabcf3	-0.33347282
189	0x3e3fa0d5	0.18713696
190	0x3eb12804	0.34600842
191	0x3e6283de	0.22120616
192	0xbe918e62	-0.28428942
193	0xbd3324ec	-0.043736383
194	0xbea3880c	-0.31939733
195	0xbe6aa9f8	-0.229164
196	0xbe45dabb	-0.1932172
197	0x3e15678d	0.14590283
198	0xbea56050	-0.32300043
199	0xbdf4f9c8	-0.119617045
200	0xbd50670d	-0.050879527
201	0x3e5bc871	0.21463181
202	0xbe9dd5d8	-0.30827212
203	0xbe132368	-0.14368975
204	0xbd350b8d	-0.04420047
205	0x3ed57868	0.41693425
206	0xbdb9a10e	-0.09063922
207	0x3e7e9906	0.24863061
208	0x3e0af933	0.13571624
209	0x3d261fa3	0.040557515
210	0xbd03263c	-0.032018885
211	0x3bcc8b1c	0.006242169
212	0x3caffe50	0.02148357
213	0xbe044ec8	-0.12920678
214	0xbd391402	-0.045185097
215	0x3d6b16ae	0.057394676
216	0xbeb05ad5	-0.344443
217	0xbe177a7b	-0.14792816
218	0x3e823285	0.25429168
219	0xbec9b69b	-0.3939713
220	0xbda067c6	-0.07832293
221	0x3ee181c4	0.44044316
222	0x3e0703e7	0.13185082
223	0x3d623e31	0.05523509
224	0xbeb8012a	-0.35938388
225	0x3e7192a6	0.23591098
226	0xbe88dbcd	-0.26730195
227	0xbde4037c	-0.11133477
228	0xbe3eb1c0	-0.18622494
229	0xbd5eebb5	-0.054424006
230	0x3cbbd3b5	0.022928098
231	0x3ee564e5	0.4480354
232	0x3d03d720	0.03218758
233	0x3e870b89	0.26375988
234	0x3e523a14	0.20529968
235	0xbea01deb	-0.31272826
236	0x3e1d7143	0.15375237
237	0xbeb1ee78	-0.3475225
238	0xbe3234bc	-0.17402929
239	0x3de8d9e9	0.11369688
240	0x3dd7fe5d	0.10546563
241	0x3eb8e378	0.36111045
242	0xbd62fc35	-0.055416305
243	0x3d792a33	0.06083126
244	0x3e4bf5fe	0.19918057
245	0xbef64567	-0.48099825
246	0x3e2de529	0.16981949
247	0xbee49b5a	-0.44649774
248	0xbbe9153e	-0.007113128
249	0xbe14fc9c	-0.14549488
250	0xbe323e8d	-0.17406674
251	0x3dc6c824	0.097061425
252	0x3ea96939	0.3308809
253	0xbdb7cb69	-0.08974344
254	0xbea1891b	-0.31549916
255	0xbe02381c	-0.12716717

linear1.bias f4 [400]
0	0x3ef8a195	0.48560777
1	0x3d5dc98f	0.0541473
2	0xbeab7b0c	-0.33492315
3	0x3dd29d73	0.10283937
4	0xbe365991	-0.17807604
5	0x3e54d149	0.20782961
6	0xbe64644e	-0.22303888
7	0xbeab93ae	-0.33511108
8	0xbebcb095	-0.3685347
9	0xbe1af602	-0.15132907
10	0xbe50d027	-0.20391904
11	0x3ec9f0d4	0.3944155
12	0x3b2351fb	0.002492069
13	0xbe11f392	-0.14253071
14	0xbd349c6b	-0.044094484
15	0xbeb3f5ff	-0.35148618
16	0xbe4db23c	-0.20087522
17	0x3e4e1949	0.20126833
18	0xbe88256f	-0.2659106
19	0x3eafc07b	0.34326538
20	0x3e0a6368	0.13514483
21	0xbea31f99	-0.31860045
22	0xbee7c22f	-0.45265338
23	0x3db3c9b9	0.0877871
24	0x3e24da48	0.16098893
25	0xbdf22a1b	-0.11824437
26	0xbe7605fb	-0.24025719
27	0xbdfdd9ea	-0.123950794
28	0xbd132409	-0.035923038
29	0xbd015c50	-0.031582177
30	0xbd322f70	-0.04350227
31	0x3dcc1f80	0.09966946
32	0xbd09cc6d	-0.03364222
33	0x3ea7a82c	0.32745492
34	0x3f15a03b	0.5844762
35	0x3e9775a2	0.29581934
36	0x3ecd3c6c	0.4008516
37	0xbdf94cd0	-0.12172854
38	0xbdebf033	-0.11520424
39	0xbe11dd99	-0.14244689
40	0x3d9413be	0.07230328
41	0x3e9ba7af	0.3040137
42	0xbbe32fd9	-0.006933194
43	0xbe629a99	-0.22129287
44	0xbebe91de	-0.37220663
45	0x3ef4f8ca	0.4784606
46	0xbe552163	-0.20813517
47	0xbdc5a153	-0.09649911
48	0xbe2b2bff	-0.16716002
49	0xbe37ed7f	-0.17961691
50	0x3db954fd	0.09049413
51	0x3db9f42c	0.09079775
52	0xbe8507c6	-0.25982493
53	0xbe8cecc2	-0.27524382
54	0x3ec1e3a0	0.37868977
55	0xbe5fa30c	-0.21839541
56	0xbec3a9d0	-0.38215494
57	0x3d86b716	0.065778896
58	0x3f222ba4	0.6334784
59	0x3e3d64b7	0.18495451
60	0xbca9b5bc	-0.02071654
61	0xbc96a817	-0.018390698
62	0x3ecb1d36	0.39670724
63	0xbe57bfc6	-0.2106925
64	0x3df21e7d	0.118222214
65	0x3deb3e1e	0.11486457
66	0x3d9a7313	0.0754148
67	0x3d8da583	0.069163345
68	0xbe6a551f	-0.22884034
69	0x3f15458a	0.58309233
70	0x3ec15c48	0.37765718
71	0xbea01409	-0.31265286
72	0xbeba039e	-0.36330885
73	0xbd4e44e4	-0.050358668
74	0x3ee4b09a	0.44665986
75	0xbe897801	-0.26849368
76	0x3efc8c5a	0.4932583
77	0xbe652e08	-0.22380841
78	0xbea6e0de	-0.32593435
79	0x3e659c89	0.22422995
80	0xbe6aa040	-0.22912693
81	0xbcb01b8f	-0.021497516
82	0x3dc9d98b	0.09855946
83	0x3dc31769	0.095259495
84	0xbeee326a	-0.46522838
85	0xbede0bb7	-0.43368313
86	0x3de1fa8f	0.110341184
87	0xbdbf35d5	-0.093364395
88	0xbea011f7	-0.31263706
89	0x3cb18077	0.021667702
90	0xbe9a9c04	-0.30197155
91	0x3e45bfaa	0.19311395
92	0x3def57b5	0.11686651
93	0x3ee786ad	0.45219937
94	0xbe872a12	-0.26399285
95	0x3e0a5f3b	0.1351289
96	0x3e8bee19	0.27330092
97	0x3edfe218	0.43727183
98	0xbe8efb2d	-0.27926007
99	0x3e9f1e95	0.3107802
100	0x3dcfe57b	0.10151192
101	0x3ea7324c	0.3265556
102	0xbeb21a04	-0.34785473
103	0x3eba7f68	0.36425328
104	0xbe692871	-0.22769333
105	0xbeb5c098	-0.354985
106	0x3e3d8e60	0.18511343
107	0x3eb68cf4	0.35654414
108	0xbea628b9	-0.32452944
109	0x3e647b7a	0.22312728
110	0xbe38863f	-0.18019961
111	0x3ea4155e	0.32047552
112	0x3e825cbc	0.25461376
113	0x3e16e946	0.14737424
114	0xbe55f2c2	-0.20893386
115	0xbe021361	-0.12702705
116	0x3d12539a	0.03572426
117	0xbeba02b7	-0.36330196
118	0x3dea8446	0.114510104
119	0xbe26bce4	-0.16282994
120	0xbae5d444	-0.0017534574
121	0x3e2ad897	0.16684185
122	0xbebaf2a4	-0.36513245
123	0xbe8072a7	-0.25087473
124	0x3e27aa08	0.16373456
125	0xbec62bcb	-0.38705286
126	0x3f00b199	0.5027099
127	0xbe516f53	-0.20452623
128	0x3b7c0ee9	0.0038461036
129	0x39be602e	0.00036311283
130	0x3e65318d	0.22382183
131	0xbe57c4fa	-0.21071234
132	0x3df979d5	0.12181441
133	0x3d3cf32c	0.046130344
134	0x3e9d22ad	0.30690518
135	0xbe76f4ce	-0.24116823
136	0xbe830ba9	-0.25594833
137	0x3e3a41a7	0.18189107
138	0x3dccdd66	0.10003166
139	0xbe9f9661	-0.31169418
140	0xbed8e23c	-0.42360103
141	0xbed7aa01	-0.4212189
142	0xbecb1dc2	-0.3967114
143	0xbe94eb92	-0.29085976
144	0xbe961b3a	-0.29317647
145	0xbeabc9ba	-0.33552343
146	0x3dd64bd7	0.10463684
147	0x3e1c364d	0.15255089
148	0xbe421ddf	-0.18956707
149	0x3d983b6b	0.07433208
150	0xbe60aa76	-0.21940026
151	0x3e6b7a9c	0.2299599
152	0xbefc8149	-0.49317387
153	0xbd8cb911	-0.06871236
154	0x3eeca20c	0.46217382
155	0x3edc7169	0.43055275
156	0xbefd026b	-0.49415907
157	0xbd1e469c	-0.038641557
158	0x3db6d931	0.08928145
159	0xbe5feaa4	-0.21866852
160	0xbe422481	-0.18959238
161	0xbe22ee2b	-0.15911166
162	0x3eaf40e0	0.34229183
163	0xbde6ab0e	-0.11263095
164	0x3c03f92a	0.008055011
165	0x3e7a4be8	0.24443018
166	0xbef31f70	-0.47484922
167	0x3e2209bf	0.1582403
168	0x3e62289c	0.22085804
169	0xbec9635d	-0.3933362
170	0x3e4ed1e4	0.20197254
171	0x3c92628b	0.017869255
172	0x3ee4550b	0.44596133
173	0x3ee0a64e	0.4387688
174	0x3c8ea89f	0.01741439
175	0x3d5e1a63	0.054224383
176	0xbebec4b9	-0.37259462
177	0x3e94910e	0.29016918
178	0x3e7d4a30	0.24735332
179	0xbe122fdb	-0.14276068
180	0xbeeb6b6e	-0.459804
181	0x3ea488c0	0.32135582
182	0xbcef4dea	-0.029211957
183	0x3e480120	0.19531679
184	0xbe184dec	-0.14873475
185	0x3e87d663	0.26530752
186	0x3ef2675c	0.47344482
187	0x3e8f1514	0.2794577
188	0xbe123a1d	-0.14279981
189	0x3e67634f	0.22596477
190	0x3e88c324	0.2671138
191	0x3c961440	0.018320203
192	0xbed9bd1c	-0.42527092
193	0xbe0018b8	-0.1250943
194	0xbeab74a4	-0.33487427
195	0x3ed4039d	0.41409007
196	0x3f343212	0.703889
197	0x3e9100c6	0.28320903
198	0x3e2e27b8	0.17007339
199	0x3dad6ff1	0.08468617
200	0x3ee8d81a	0.45477372
201	0xbe3483da	-0.17628422
202	0xbe28feb6	-0.16503415
203	0xbefbbe00	-0.49168396
204	0x3ca77e34	0.02044592
205	0x3dde4fb5	0.10855047
206	0x3e0d2d66	0.1378685
207	0xbe4dba61	-0.20090629
208	0xbcf1d24a	-0.029519219
209	0xbeb51922	-0.35370737
210	0xbebfadc5	-0.37437263
211	0xbc2205a8	-0.009889044
212	0xbebe0c9e	-0.37119
213	0x3e0d8078	0.13818538
214	0xbedd8fe6	-0.43273848
215	0xbe98d072	-0.2984653
216	0xbe231503	-0.15925984
217	0xbeae4a45	-0.34041038
218	0x3e780d8e	0.2422392
219	0x3efc43ab	0.49270377
220	0x3c9cbb2e	0.019132223
221	0x3e1c7e08	0.15282452
222	0x3ea66849	0.32501438
223	0x3e7944b5	0.24342616
224	0xbd3b2afd	-0.045695294
225	0xbe774b52	-0.24149826
226	0x3ebcb639	0.36857775
227	0xbe51505b	-0.2044081
228	0x3c57056a	0.013123849
229	0x3cfa17a6	0.030528855
230	0xbe92a2b0	-0.28639746
231	0xbe1a6090	-0.15075898
232	0xbee48ea8	-0.44640088
233	0xbca8430e	-0.020539787
234	0xbe1df5cb	-0.15425794
235	0x3ea64eb9	0.32481936
236	0xbc9c8a2e	-0.019108858
237	0x3ed7e692	0.421681
238	0x3db1597d	0.08659647
239	0xbdc05829	-0.09391815
240	0xbdf0ca64	-0.11757353
241	0x3e08bbf3	0.13352947
242	0xbd52d2ba	-0.051470496
243	0x3d6852e4	0.056719676
244	0x3d86142b	0.065468155
245	0x3e6017c2	0.21884063
246	0xbdb4093d	-0.087908246
247	0x3d761ec4	0.060087934
248	0x3ea19681	0.31560138
249	0x3cc80f8d	0.024421478
250	0x3e5400a5	0.20703371
251	0x3eeeffb9	0.46679476
252	0x3ea6baff	0.32564542
253	0xbebeeb20	-0.3728876
254	0x3e3f2432	0.18666151
255	0xbcd13bda	-0.025541235

linear2.weight f4 [300, 400]
0	0xbc9639a8	-0.01833804
1	0xbc0b0f79	-0.008487576
2	0x3d61edc0	0.055158377
3	0x3bce391a	0.006293428
4	0x3af34dfc	0.001856267
5	0x3ca6caac	0.020360313
6	0x3ced35a9	0.028956251
7	0x3d199cd7	0.03750309
8	0x3ba33bb9	0.0049814847
9	0x3bccfca8	0.006255705
10	0x3b79b038	0.003809942
11	0x3c0d15ba	0.008611137
12	0xbc560b5c	-0.013064232
13	0xbd021d9a	-0.03176651
14	0xbc680270	-0.014160737
15	0xbbc277e6	-0.005934703
16	0xbd9182a0	-0.07104993
17	0xbd125270	-0.03572315
18	0x3cc48ab2	0.023991916
19	0xbcc7ec61	-0.024404706
20	0xbc842d57	-0.016134901
21	0xbd9bc917	-0.07606714
22	0x3b2b93c6	0.002618061
23	0x3c6d490e	0.01448275
24	0x3d2d5a49	0.04232243
25	0xbda1430c	-0.07874116
26	0xbcb4d7f0	-0.022075623
27	0x3d895d13	0.067072056
28	0xbb599b8a	-0.003320428
29	0xbd7778b7	-0.060417857
30	0xbbca43fe	-0.006172656
31	0x3cd75a5d	0.026288206
32	0x3de4e2c8	0.111760676
33	0x3d750ab9	0.05982468
34	0x3ccf33fe	0.025293346
35	0x3c2b0805	0.010438924
36	0xba1aeba7	-0.0005909749
37	0x3c9ff06a	0.019523818
38	0x3d939770	0.07206619
39	0xbbdca4a4	-0.006733494
40	0xbda6d2e0	-0.0814569
41	0xbd41dfe3	-0.047332656
42	0xbb56a794	-0.0032753693
43	0xbd90fefc	-0.070798844
44	0xbb7d3a75	-0.003863958
45	0xbd08da9b	-0.033411603
46	0xbd2e0449	-0.042484555
47	0x3d4e03eb	0.050296705
48	0xbd89cc66	-0.06728439
49	0x3c3057c0	0.010763109
50	0xb98709f8	-0.00025756634
51	0x3c3a50a2	0.011371763
52	0xbd13fcad	-0.036129642
53	0x3c3dc9f8	0.011583798
54	0xbb332845	-0.0027337235
55	0x3c91fe80	0.01782155
56	0x3c75559a	0.014974022
57	0x3c676b37	0.014124683
58	0x3d2427ac	0.040076897
59	0x3d52d0ff	0.051468845
60	0x3cb0a235	0.021561721
61	0x3d07400e	0.03302007
62	0xbb266dba	-0.0025394992
63	0x3d1023ff	0.03519058
64	0x3dfd3df1	0.1236533
65	0x3ca10761	0.019656839
66	0x3d10bbcb	0.035335343
67	0xbd4b211f	-0.049592134
68	0xbdd62eb7	-0.10458129
69	0xbcb53f12	-0.0221248
70	0x3bec31e2	0.007208095
71	0x3d97a107	0.074037604
72	0xbd1c6814	-0.038185194
73	0x3c863555	0.016382853
74	0x3c2947b6	0.010332039
75	0xbd2f431d	-0.042788614
76	0x3bab2549	0.0052229506
77	0xbbab74ce	-0.00523243
78	0x3ca82665	0.02052612
79	0xbcb61e7b	-0.022231331
80	0x3d47be9e	0.04876577
81	0x3d1f8b33	0.03895111
82	0x3d778772	0.060431905
83	0x3c743c65	0.014906977
84	0x3c996df0	0.01872918
85	0x3d9aff87	0.07568269
86	0xbc709184	-0.014683131
87	0x3cb9377b	0.022609463
88	0x3d439c50	0.047756493
89	0x3d794011	0.060852114
90	0x3dff14a5	0.124551095
91	0x3d255f00	0.040373802
92	0xbc110942	-0.008852305
93	0x3ce13240	0.027489781
94	0x3d4da656	0.05020746
95	0x3cc75164	0.024330802
96	0x3c193dec	0.009353142
97	0xbbd0c27b	-0.00637084
98	0x3d51f31f	0.05125725
99	0xbb56d01f	-0.0032777858
100	0x3dff6c89	0.12471873
101	0xbc452f9d	-0.012035278
102	0x3c96d0e0	0.018410146
103	0x3c9f93cd	0.019479657
104	0x3c9894cf	0.018625645
105	0xbaaf495c	-0.0013373303
106	0x3d604b00	0.054759026
107	0x3b9a76f6	0.0047138883
108	0xbb2a6fef	-0.002600666
109	0x3bb6e122	0.005581037
110	0x3bdac3b0	0.00667616
111	0xbd03c6ff	-0.0321722
112	0x3e0f3dc2	0.13988402
113	0xbd3fb1c3	-0.046800386
114	0x3d3584ef	0.04431623
115	0x3cf96348	0.030442849
116	0xbd37f40f	-0.044910487
117	0x3dd5ebeb	0.104453884
118	0xbca74136	-0.020416837
119	0xbc5f4009	-0.013626107
120	0x3d0e46e2	0.034735568
121	0xbc9bca38	-0.019017324
122	0x3e0e7f22	0.13915685
123	0xbdc6fb4e	-0.09715901
124	0xbc2eb1d8	-0.010662518
125	0xbcec2d89	-0.028830307
126	0xbcb24557	-0.02176158
127	0x3dceaa7e	0.100911126
128	0x3d1b1037	0.03785726
129	0x3bb81bd7	0.005618553
130	0x3cf69e56	0.030104797
131	0x3c4c6eec	0.012477618
132	0x3d0f6efa	0.035017945
133	0x3c35187f	0.011053204
134	0xbcb4da42	-0.02207673
135	0xbd141999	-0.036157224
136	0xbd955587	-0.07291704
137	0x3cea9afb	0.028638354
138	0x3d8ce87e	0.06880282
139	0x3cd0c8e2	0.025486413
140	0xbcaaa2e9	-0.020829635
141	0xbd6e90e8	-0.058243662
142	0x3c28204e	0.010261608
143	0x3c513fc1	0.012771548
144	0x3c613e1d	0.013747719
145	0xbdf88bfd	-0.12136076
146	0x3d2139ac	0.03936164
147	0x3c9e670f	0.019336252
148	0xbcba8f97	-0.022773547
149	0xbbae5148	-0.005319748
150	0xbc71beba	-0.014754945
151	0x3cac925c	0.021065883
152	0x3cfc46b9	0.030795442
153	0xbd032430	-0.032016933
154	0x3d424f7e	0.04743909
155	0x3cc62414	0.024187125
156	0xbab9f5ed	-0.0014187671
157	0xbc7961f1	-0.015221105
158	0x3cb0a373	0.021562314
159	0xbd375e6e	-0.04476779
160	0x3d434396	0.047671877
161	0xbc7ab46d	-0.015301806
162	0x3db1ce35	0.08681909
163	0xbe0c9cb6	-0.13731655
164	0x3d9008e3	0.07032945
165	0x3c8ad0cb	0.016945263
166	0x3c99db09	0.018781202
167	0x3d005447	0.031330373
168	0x3ca93698	0.020655915
169	0x3c92979f	0.017894564
170	0x3d2b7020	0.041854978
171	0xbd83e8fa	-0.06440921
172	0x3d824ffe	0.063629135
173	0x3c8a06fe	0.016849037
174	0xbc7db015	-0.015483876
175	0xbb814050	-0.003944434
176	0x3d07b7e9	0.033134375
177	0xbc5b4649	-0.0133834565
178	0xbc31f3d0	-0.010861352
179	0x3d505d43	0.05087019
180	0x3cf712b0	0.030160278
181	0x3c83768f	0.016047744
182	0xbcfb3e3a	-0.03066932
183	0x3a6109f0	0.00085845497
184	0x3d188bcb	0.037242692
185	0x3d151577	0.036397424
186	0x3bfdb01d	0.0077419416
187	0xbd126b0b	-0.035746615
188	0xbca1f9dd	-0.019772464
189	0xbd3c8145	-0.04602172
190	0x3cd10226	0.02551372
191	0xbb151e3b	-0.0022753614
192	0x3c36bcf9	0.011153453
193	0xbd1c2de0	-0.038129687
194	0x3c0a3dd8	0.008437596
195	0xbd09197f	-0.03347158
196	0x3c05dcaf	0.008170291
197	0x3bbf0847	0.005829844
198	0x3bc0a08f	0.005878515
199	0xbb80c9ea	-0.00393032
200	0xbc1e5919	-0.009664797
201	0x3d9c69a4	0.07637337
202	0xbe0cdeba	-0.13756838
203	0x3d1f9160	0.038957
204	0x3de3677c	0.111037225
205	0xbd7e3342	-0.062060602
206	0xbbc43657	-0.005987923
207	0x3d13cc2b	0.03608338
208	0x3d6239d0	0.055230916
209	0x3c1bc65f	0.009507745
210	0x3d388caa	0.045056023
211	0xbb40fb40	-0.0029446632
212	0x3bed3f21	0.0072401916
213	0x3ce0cbee	0.027440991
214	0xbd0e20ff	-0.034699436
215	0x3d722169	0.059113894
216	0x3d6afc68	0.05736962
217	0xbc1166b5	-0.008874585
218	0x3cb246f4	0.021762349
219	0x3d0d8a9a	0.03455601
220	0x3cd03582	0.02541614
221	0x3c413c7b	0.011794205
222	0x3bfe9e0d	0.007770306
223	0x3ca8df98	0.02061443
224	0x3c7b0768	0.01532159
225	0x3d4cd492	0.05000741
226	0x3d400dc5	0.04688813
227	0xbc8c7d6b	-0.017149648
228	0x3a7a952a	0.00095589703
229	0xbc6afbc8	-0.014342256
230	0x3cb8142e	0.02247056
231	0xbc9f02e0	-0.01941055
232	0x3ce8540d	0.028360391
233	0xbc21ea56	-0.00988253
234	0xbd122e91	-0.03568894
235	0x3ca3a6d0	0.019977003
236	0xbcac6d27	-0.021048142
237	0xbcaf4179	-0.021393524
238	0x3d386939	0.045022223
239	0x3d9f2090	0.07769883
240	0x3d86d632	0.06583823
241	0x3c5d8e9c	0.01352277
242	0x3af9f435	0.0019069972
243	0xbccda0df	-0.025101123
244	0x3d9738bb	0.07383867
245	0xbc826cdd	-0.01592105
246	0xbd893dd2	-0.067012444
247	0x3c845ab1	0.016156526
248	0x3d4e830a	0.050417937
249	0xbc876005	-0.016525278
250	0x3b62433a	0.0034524933
251	0x3cf18015	0.02948002
252	0x3cb18b3a	0.021672834
253	0x3cec3124	0.028832026
254	0x3d816026	0.06317167
255	0x3c3611e4	0.011112664

linear2.bias f4 [300]
0	0xbddb0ccf	-0.106958024
1	0x3bb65d56	0.0055653257
2	0xbdf24bed	-0.11830888
3	0xbd2ce385	-0.042209167
4	0xbd7e265b	-0.062048297
5	0xbdbec4f6	-0.09314911
6	0xbd114b15	-0.035471994
7	0xbd656753	-0.05600674
8	0xbdb011d3	-0.0859715
9	0xbdd37ed4	-0.10326925
10	0xbda77d95	-0.0817825
11	0xbdab60e5	-0.083680905
12	0xbd8cce5c	-0.068752974
13	0xbcc963bd	-0.024583692
14	0xbddacd24	-0.10683659
15	0xbd73a6b6	-0.05948516
16	0xbd6e252b	-0.058140915
17	0xbd94b3e5	-0.07260875
18	0xbde24284	-0.11047843
19	0xbdd0d404	-0.10196689
20	0xbda9be1e	-0.08288215
21	0xbd3930a5	-0.045212407
22	0xbda8f981	-0.08250714
23	0xbd8940f3	-0.06701841
24	0xbe08bedf	-0.13354062
25	0xbdc72edf	-0.09725737
26	0xbd8cc1d3	-0.068729065
27	0xbd0be411	-0.034153048
28	0xbdafabb9	-0.08577675
29	0xbdda4b10	-0.10658848
30	0xbd52cd93	-0.051465582
31	0xbdd18303	-0.102300666
32	0xbd52c597	-0.051457968
33	0xbda7060d	-0.08155451
34	0xbc9a7477	-0.018854363
35	0xbe0f20db	-0.13977377
36	0xbcb8105b	-0.022468736
37	0xbd77082a	-0.06031052
38	0xbdccf761	-0.10008121
39	0xbdd8dd0c	-0.10589036
40	0xbdd80120	-0.105470896
41	0x3ae34a74	0.0017340914
42	0xbbaf8639	-0.0053565768
43	0xbcf48202	-0.029847149
44	0xbd80e904	-0.06294444
45	0xbdbd753e	-0.09250878
46	0xbdc96926	-0.098345086
47	0xbc9322a4	-0.017960854
48	0x3c024da4	0.007953081
49	0xbe09ac5f	-0.1344466
50	0xbcbdb72b	-0.02315863
51	0xbd605be6	-0.05477514
52	0xbd11aaeb	-0.03556339
53	0xbcb8a696	-0.022540372
54	0xbd5a72b6	-0.053332053
55	0xbdbb52ee	-0.09146677
56	0xbd7ef502	-0.062245376
57	0xbe011090	-0.12603974
58	0xbda81af4	-0.08208266
59	0xbd80c752	-0.06288017
60	0xbdd278ac	-0.102769226
61	0xbd6b068e	-0.057379298
62	0xbd46127f	-0.048357483
63	0xbdb68feb	-0.08914169
64	0xbdb8e446	-0.09027915
65	0xbd3dafe7	-0.04631033
66	0xbc4ffa0b	-0.012693892
67	0xbdda78c4	-0.106675655
68	0xbd7093c2	-0.058734663
69	0xbde5e36d	-0.11225019
70	0xbca5ab29	-0.020223217
71	0xbdc0f32b	-0.094213806
72	0xbd8afcf3	-0.067865275
73	0xbd4433fb	-0.047901135
74	0xbcf8d5ba	-0.03037535
75	0xbdfa8ace	-0.12233506
76	0xbd76fd8e	-0.060300402
77	0xbc927475	-0.017877797
78	0xbe077747	-0.13229094
79	0xbcb3f242	-0.021966103
80	0xbcca60e1	-0.024704399
81	0xbe028ef7	-0.1274985
82	0xbd237fb9	-0.039916728
83	0xbdd5739c	-0.10422441
84	0xbdc9dec2	-0.09856941
85	0x3d849bfa	0.06475063
86	0xbd64c9c9	-0.0558565
87	0x3cdefe44	0.027220853
88	0xbd7b6e12	-0.061384268
89	0xbd3e8676	-0.04651495
90	0xbdb7ea46	-0.08980231
91	0xbe004cdb	-0.12529318
92	0xbdad1920	-0.08452058
93	0xbdac1cc9	-0.08403928
94	0xbdb0ab64	-0.0862644
95	0xbc1a1551	-0.009404496
96	0xbc8c6a15	-0.017140428
97	0xbdd31c00	-0.10308075
98	0xbdb09eb2	-0.08624019
99	0x3b89e993	0.0042087524
100	0xbcba41cb	-0.02273645
101	0xbdb20eaa	-0.08694203
102	0xbc0bec6c	-0.008540254
103	0x3c754ebb	0.014972384
104	0xbd8c193e	-0.06840752
105	0xbd7e4472	-0.062076993
106	0xbe1a1675	-0.15047629
107	0xbd824bc1	-0.06362105
108	0xbe134e93	-0.14385442
109	0xbdd01212	-0.10159697
110	0xbc83383c	-0.016018026
111	0xbd3f4017	-0.04669198
112	0xbc016c75	-0.007899393
113	0xbd75e5ee	-0.06003373
114	0xbdb8316d	-0.08993802
115	0xbd91a050	-0.07110655
116	0xbdb3e7b6	-0.0878443
117	0xbdc30111	-0.09521688
118	0xbe04a7ff	-0.1295471
119	0xbdcb361f	-0.09922432
120	0xbde9efd0	-0.11422694
121	0xbd3babec	-0.045818254
122	0xbd8bb513	-0.068216465
123	0xbdba0171	-0.09082306
124	0xbdf94f4e	-0.12173329
125	0xbdc1cf7b	-0.09463402
126	0xbdba7700	-0.09104729
127	0x3c7a353e	0.015271483
128	0xbdb0e594	-0.086375386
129	0xbe2052d1	-0.15656592
130	0xbdc56df4	-0.096401125
131	0xbda0a097	-0.0784313
132	0xbd19fbc4	-0.037593618
133	0xbd21b83d	-0.039482344
134	0xbdb029ed	-0.08601747
135	0xbda94ae5	-0.08266238
136	0xbd16e19f	-0.036836263
137	0x3d083736	0.03325578
138	0xbd7f6080	-0.06234789
139	0xbcb69c0c	-0.022291206
140	0xbca00a14	-0.019536056
141	0xbdb2f9dc	-0.08739063
142	0xbd6ab3a3	-0.05730022
143	0x3de6fd67	0.112788014
144	0xbd89f034	-0.06735268
145	0x3b09cd04	0.002102674
146	0xbd86883f	-0.06568956
147	0xbce5fea2	-0.02807552
148	0xbd9c3951	-0.0762812
149	0xbdd07ce8	-0.10180074
150	0xbcccf2a6	-0.025018048
151	0xbb916fc9	-0.0044383747
152	0xbd94ce60	-0.072659254
153	0xbd07bb8e	-0.03313785
154	0xbb4f3f3f	-0.003162339
155	0xbdbacee6	-0.09121494
156	0xbdc0dedb	-0.09417506
157	0xbbc4d3bf	-0.0060066874
158	0xbd642bf9	-0.055705998
159	0xbd3de21a	-0.046358205
160	0xbd884c92	-0.0665523
161	0xbd6db0b3	-0.05802984
162	0xbdd1f984	-0.102526695
163	0xbdc058de	-0.0939195
164	0x3ae127c5	0.001717799
165	0xbdba336d	-0.0909184
166	0xbd775fea	-0.060394205
167	0xbcf64502	-0.030062202
168	0xbdeed3dd	-0.116615035
169	0xbd4cd4f7	-0.050007787
170	0xbcafc8d3	-0.021458065
171	0xbd9775ac	-0.07395491
172	0xbd8a6bc7	-0.06758838
173	0xbe034cd0	-0.1282227
174	0xbd061a47	-0.032739904
175	0xbda9d851	-0.08293212
176	0xbddb6af4	-0.10713759
177	0xbd653aac	-0.055964157
178	0xbdcf471c	-0.10120985
179	0xbde62764	-0.11237982
180	0xbd9f4cb4	-0.07778302
181	0x3ae1c2ca	0.0017224189
182	0xbd65eccd	-0.056134034
183	0xbd1f51c8	-0.038896352
184	0xbdb8a9c6	-0.09016757
185	0xbbfbbf92	-0.007682749
186	0x3adc3b42	0.0016802328
187	0xbd38040d	-0.044925738
188	0x3bd27881	0.0064230566
189	0xbd7ed721	-0.06221688
190	0xbcce160f	-0.025157003
191	0xbd72d0f0	-0.05928129
192	0xbd0095b6	-0.031392775
193	0xbddac22e	-0.10681568
194	0xbd5fdd31	-0.054654304
195	0xbd3d9f36	-0.046294414
196	0xbd511168	-0.05104199
197	0xbd4d953d	-0.050191153
198	0xbd911607	-0.070842795
199	0xbd4b731c	-0.049670324
200	0xbd5a6924	-0.053322926
201	0xbe11d1ec	-0.14240235
202	0xbd8ef27e	-0.069798455
203	0xbccc0106	-0.024902832
204	0x3c9fe22a	0.019517023
205	0xbde7c956	-0.11317699
206	0x3a7f0a19	0.00097289827
207	0xbdb6b2af	-0.089208
208	0xbdcd1724	-0.10014179
209	0xbdd09414	-0.10184494
210	0xbba78809	-0.005112652
211	0xbd7d405f	-0.061828967
212	0xbd9134bd	-0.07090137
213	0xbdc2808a	-0.09497173
214	0xbdaaf15d	-0.08346818
215	0xbd9d4c8f	-0.07680618
216	0xbddfd377	-0.109290056
217	0xbce88c9a	-0.028387357
218	0xbd1f923c	-0.03895782
219	0xbd7865b6	-0.060643874
220	0xbd8b22d0	-0.06793749
221	0xbdbe77b0	-0.09300172
222	0xbd8a1b59	-0.067434974
223	0xbc943a25	-0.018094132
224	0xbd022a91	-0.031778876
225	0xbdb8c9b1	-0.090228446
226	0xbd9f06c8	-0.07764965
227	0xbd832fcf	-0.06405603
228	0xbdc839ab	-0.09776624
229	0xbdc3da23	-0.09563091
230	0xbdfcefd2	-0.123504296
231	0x3d088502	0.03332997
232	0x3cefaf30	0.02925834
233	0xbcf6a331	-0.030107113
234	0x3d091a31	0.033472244
235	0xbce6881d	-0.028141076
236	0xbdaace98	-0.08340186
237	0xbd838960	-0.064226866
238	0xbddfbc6c	-0.109246105
239	0xbe0205c7	-0.12697516
240	0xbdc52ec3	-0.0962806
241	0xbcfd210a	-0.030899543
242	0xbd904638	-0.07044643
243	0xbd74137c	-0.059588894
244	0xbd92cfd4	-0.07168546
245	0xbda42181	-0.08014203
246	0xbdd733a8	-0.105078995
247	0xbd81c4ef	-0.0633639
248	0x3cc609b8	0.024174556
249	0xbddbdf96	-0.10736005
250	0xbe0b21a3	-0.1358705
251	0xbdbc15d9	-0.091838546
252	0xbd0f6f79	-0.035018418
253	0xbdc1d335	-0.09464113
254	0xbe067a24	-0.1313253
255	0xbd92c829	-0.07167084

linear3.weight f4 [2, 300]
0	0xbe4f0eb6	-0.20220456
1	0xbe8260cd	-0.25464478
2	0x3d008b34	0.031382754
3	0x3ce2bc54	0.027677692
4	0x3e2952db	0.16535513
5	0x3daf3c9b	0.085564815
6	0x3dd7afb9	0.10531563
7	0x3e428848	0.189973
8	0x3ebb21e3	0.3654929
9	0x3e371b46	0.17881498
10	0xbe108147	-0.14111815
11	0xbe785d42	-0.24254325
12	0x3d2257b6	0.03963443
13	0x3ef30642	0.47465712
14	0xbe10a79e	-0.14126441
15	0x3e64af84	0.22332579
16	0xbdf527d5	-0.11970488
17	0x3e3ac9f7	0.18241106
18	0xbe10ac0a	-0.14128128
19	0x3e89968f	0.2687268
20	0x3f21e571	0.63240725
21	0xbe1c2957	-0.15250145
22	0x3da98698	0.08277625
23	0xbe8085e9	-0.25102165
24	0x3c177c4b	0.009245942
25	0x3c4bc989	0.012438186
26	0xbc2598a8	-0.010107197
27	0xbe9c27c0	-0.30499077
28	0x3e9d4365	0.3071548
29	0xbd603aa2	-0.054743417
30	0x3da0a42b	0.078438126
31	0xbddaac2c	-0.106773704
32	0x3dfdea3c	0.12398192
33	0xbe711c5e	-0.23545977
34	0x3da14e8f	0.07876312
35	0xbcbe8b04	-0.023259647
36	0xbe3506df	-0.17678402
37	0x3e1b3235	0.15155871
38	0xbd37bf38	-0.044860095
39	0xbe61b2c4	-0.2204085
40	0xbe3246c4	-0.17409807
41	0xbf08f541	-0.5349923
42	0xbe0dfa7f	-0.13865088
43	0xbebbb91e	-0.3666467
44	0x3e140aef	0.14457296
45	0x3e83b7fd	0.2572631
46	0x3de86e71	0.1134919
47	0x3e6e2fe6	0.2326046
48	0xbdd493bc	-0.103797406
49	0x3ca69fe3	0.020339912
50	0xbed73194	-0.42030013
51	0x3db98197	0.090579204
52	0x3d7676bc	0.060171828
53	0xbf00271f	-0.50059694
54	0xbddb35e4	-0.10703638
55	0xbd0b1371	-0.033954088
56	0xbe89e893	-0.26935253
57	0xbd99a8b8	-0.07502884
58	0x3ec2a717	0.38018104
59	0xbe20ab73	-0.15690403
60	0xbe5a2fef	-0.21307348
61	0xbd88fe50	-0.06689131
62	0xbe31aea1	-0.17351772
63	0x3e3d87d3	0.18508844
64	0x3e0a3865	0.13498075
65	0xbd209a96	-0.039209925
66	0xbe3898f3	-0.18027095
67	0xbe843001	-0.25817874
68	0xbdfa02d3	-0.1220757
69	0xbda19221	-0.078892
70	0x3dea895e	0.11451982
71	0xbdf33f24	-0.118772775
72	0x3cee478e	0.029086854
73	0xbe923854	-0.285586
74	0xbd92e017	-0.07171648
75	0xbe397840	-0.18112278
76	0xbe40efa8	-0.18841422
77	0xbf26944e	-0.65070045
78	0xbcfe0a64	-0.031010814
79	0x3e81f69a	0.25383455
80	0x3e0e3258	0.13886392
81	0xbcbb345d	-0.022852117
82	0xbd000b62	-0.031260855
83	0x3e5fad89	0.21843542
84	0xbe4fee41	-0.2030573
85	0xbe355b22	-0.17710546
86	0xbb2f7a6a	-0.0026775845
87	0xbe8cce2e	-0.27501053
88	0xbe79ef1e	-0.24407622
89	0x3da87a46	0.08226447
90	0xbe3ec29a	-0.18628922
91	0xbd9b7114	-0.07589927
92	0xbde3972a	-0.11112817
93	0xbe00d9f2	-0.1258314
94	0x3edd5fed	0.43237248
95	0xbdefd25f	-0.11710047
96	0xbdc1197f	-0.09428691
97	0x3c8dde86	0.017318022
98	0xbdfe6e0a	-0.12423332
99	0xbda7f90e	-0.082018
100	0xbeb3289d	-0.34991923
101	0xbe2791eb	-0.16364257
102	0xbde7b27c	-0.1131334
103	0x3d0e5017	0.03474435
104	0x3b729d7c	0.0037020138
105	0xbd6c3a11	-0.057672564
106	0xbd1c2bec	-0.038127825
107	0x3bf022dd	0.007328375
108	0x3e8c9ce9	0.27463463
109	0xbc44812c	-0.011993688
110	0xbe490dfd	-0.19634242
111	0x3dc8ae30	0.09798849
112	0x3ee386fe	0.44438928
113	0xbde81102	-0.11331369
114	0x3e84e07b	0.25952515
115	0xbe0225f5	-0.12709792
116	0xbd88c5b1	-0.06678332
117	0x3e15c45e	0.1462569
118	0x3e4473f1	0.19184853
119	0x3e618b1d	0.22025724
120	0xbe26661c	-0.16249889
121	0x3edf92af	0.43666598
122	0xbe0f3581	-0.13985254
123	0x3e744e8c	0.23858088
124	0xbd156c7c	-0.036480412
125	0xbe0ee7c5	-0.139556
126	0xbeb1453e	-0.3462314
127	0xbb63d578	-0.0034764688
128	0xbda125f9	-0.07868571
129	0x3de5a512	0.11213125
130	0x3e454e79	0.19268216
131	0xbde88e6d	-0.113552906
132	0x3cc451e2	0.023964826
133	0xbe61e0de	-0.22058436
134	0x3e91cfe1	0.28478912
135	0xbe3b93ff	-0.18318175
136	0x3d923987	0.07139879
137	0xbee8ca72	-0.45466954
138	0x3e455c9f	0.19273613
139	0xbf114f58	-0.56761694
140	0xbe46f855	-0.19430669
141	0x3ea513f1	0.32241777
142	0x3da28d1e	0.07937072
143	0xbe6cca97	-0.23124157
144	0xbd139273	-0.036028337
145	0x3e240a4c	0.16019553
146	0x3da91a74	0.08256999
147	0x3de5af83	0.11215117
148	0x3d54b3d4	0.05192931
149	0xbe7b5f3a	-0.24548045
150	0xbea56646	-0.3230459
151	0xbe27e90c	-0.16397494
152	0xbe12c75a	-0.14333859
153	0x3e2a2146	0.16614255
154	0x3d79993c	0.06093715
155	0xbdb450cc	-0.08804473
156	0xbe5666f3	-0.2093771
157	0xbd101cd1	-0.03518373
158	0xbe431fc2	-0.19055083
159	0xbf0d9f10	-0.55320835
160	0xbe6ff082	-0.2343159
161	0x3bb3b55b	0.0054842657
162	0xbd237bfc	-0.039913163
163	0xbc918ab2	-0.01776633
164	0x3dd3c1e9	0.1033972
165	0xbe782d7e	-0.24236104
166	0x3e8e1234	0.27748263
167	0xbed275d9	-0.41105536
168	0x3d872d64	0.066004544
169	0xbeaf62d2	-0.3425508
170	0x3e382f5c	0.17986816
171	0xbe2de335	-0.16981204
172	0xbcf1e26a	-0.029526908
173	0x3d89927f	0.06717395
174	0x3db5035a	0.0883853
175	0x3e58cc79	0.2117175
176	0xbd277d8b	-0.04089121
177	0x3df8f47c	0.12156007
178	0x3d6d13cb	0.057880204
179	0xbea3d777	-0.32000324
180	0xbd306666	-0.043066405
181	0x3ec3ef60	0.38268566
182	0x3e2a7811	0.16647364
183	0xbd93eaca	-0.07222517
184	0x3d220554	0.039555863
185	0x3ed5faab	0.41792807
186	0x3d973b56	0.07384364
187	0xbe9061ce	-0.2819962
188	0xbe24755e	-0.16060397
189	0xbe6ede1b	-0.23326914
190	0x3e803595	0.2504088
191	0xbd307799	-0.043082807
192	0xbe1d38a8	-0.15353644
193	0xbdf70475	-0.12061397
194	0xbeeaf724	-0.45891678
195	0xbdf8ebde	-0.12154363
196	0xbe13ca78	-0.14432704
197	0xbe10a0c1	-0.14123823
198	0xbeaa2e71	-0.33238557
199	0xbe227850	-0.15866208
200	0x3d4cd2f5	0.05000587
201	0xbaaed475	-0.0013338464
202	0x3cc19250	0.023629338
203	0x3ef726ea	0.48271877
204	0x3ef2e9f5	0.4744412
205	0x3d914647	0.070934825
206	0x3d9a61f6	0.07538216
207	0x3db70bca	0.089377955
208	0x3e2fba95	0.17161019
209	0x3df7774c	0.12083301
210	0x3b3fc182	0.0029259627
211	0x3de27d0f	0.11059009
212	0x3e5d5a25	0.21616419
213	0xbde9796c	-0.114001125
214	0x3de0b5e5	0.10972194
215	0x3ddd48d5	0.10804907
216	0x3dfc3b5b	0.12316009
217	0x3eaf653b	0.3425692
218	0x3e260d0f	0.16215919
219	0xbe2061f0	-0.1566236
220	0x3e2c94d9	0.16853656
221	0x3e50fa05	0.20407875
222	0xbef19567	-0.47184297
223	0xbe9a3f9f	-0.30126664
224	0x3d2449c4	0.04010941
225	0xbe0dd6cd	-0.13851471
226	0x3e3deeb7	0.18548094
227	0x3cad93e5	0.021188686
228	0x3e2984e2	0.16554597
229	0xbecacc6b	-0.39609084
230	0x3e31c44b	0.17360036
231	0xbe479ff9	-0.19494618
232	0xbf15e564	-0.5855315
233	0x3e330afe	0.17484662
234	0x3e938484	0.2881204
235	0x3d52d2cb	0.05147056
236	0x3d290516	0.041264616
237	0x3ec0df48	0.3767035
238	0x3d8d9734	0.06913605
239	0x3d9e338b	0.07724675
240	0x3dded383	0.108801864
241	0x3e284f8b	0.16436593
242	0xbe006c80	-0.1254139
243	0xbdf72bc3	-0.12068894
244	0x3e51423c	0.20435423
245	0x3d634a58	0.05549082
246	0xbcf230f9	-0.029564368
247	0xbe87df76	-0.26537675
248	0xbe20638c	-0.15662974
249	0xbe32c9b5	-0.17459758
250	0x3e8c17c4	0.27361882
251	0xbeb25070	-0.34826994
252	0xbf278c25	-0.6544822
253	0xbe0097c5	-0.12557895
254	0xbd2a19ae	-0.041528396
255	0xbdcea2c3	-0.10089638

linear3.bias f4 [2]
0	0x3e0006c1	0.12502576
1	0x3cbc3e7c	0.022979014

norm1.weight f4 [400]
0	0x3f22dd7d	0.63619214
1	0x3e83f957	0.2577617
2	0x3ef9a29f	0.48756883
3	0x3e470191	0.19434191
4	0x3f691032	0.9104034
5	0x3f499daf	0.7875623
6	0x3e7291bd	0.23688407
7	0x3f41268a	0.7544943
8	0x3f129369	0.5725618
9	0x3f037d21	0.51362807
10	0x3f434f56	0.7629293
11	0x3f1112ff	0.5666961
12	0x3e598466	0.21241912
13	0x3f596a4f	0.8492784
14	0x3e99844a	0.2998374
15	0x3ec37aa0	0.38179493
16	0x3eb7a933	0.35871276
17	0x3eca6c95	0.39535967
18	0x3eacd3d9	0.33755377
19	0x3e70656e	0.23476192
20	0x3eb0c3a3	0.3452426
21	0x3edd4ed7	0.43224213
22	0x3eda24e0	0.42606258
23	0x3f000286	0.5000385
24	0x3f4c9daf	0.79928106
25	0x3f29f9b6	0.66396654
26	0x3f3371ac	0.70095325
27	0x3e78a649	0.24282183
28	0x3ebb38aa	0.3656667
29	0x3e8dc2e1	0.27687743
30	0x3eddadb5	0.4329659
31	0x3eb7a6c8	0.35869431
32	0x3da5a54a	0.08088167
33	0x3efaf3ba	0.49014074
34	0x3f7129c9	0.94204384
35	0x3f520eb1	0.8205367
36	0x3f4bf24a	0.7966658
37	0x3ee3e160	0.44507885
38	0x3f4f5a16	0.80996835
39	0x3f3a23f5	0.72711116
40	0x3df61636	0.12015955
41	0x3ed46780	0.41485214
42	0x3c2970cc	0.010341834
43	0x3f79e7da	0.976194
44	0x3e59f622	0.21285298
45	0x3f229a86	0.63517034
46	0x3f6d6522	0.9273244
47	0x3ee98aaf	0.4561362
48	0x3f33caeb	0.70231503
49	0x3d194663	0.03742064
50	0x3f00d7f6	0.5032953
51	0x3f2182ef	0.63090414
52	0x3f1b002b	0.6054713
53	0x3eb883aa	0.36037952
54	0x3ec6b553	0.38810214
55	0x3ed91b2e	0.4240355
56	0x3f35a882	0.7096025
57	0x3d14f3fa	0.036365487
58	0x3f5dcb40	0.8663826
59	0x3f4fec20	0.81219673
60	0x3f667360	0.900198
61	0x3ebaefaa	0.36510974
62	0x3f218c1a	0.63104403
63	0x3d8d95f5	0.06913368
64	0xbdc18e37	-0.094509535
65	0x3d2ce221	0.04220784
66	0x3e6063e9	0.21913113
67	0x3f4ead29	0.8073297
68	0x3e81c7fe	0.25347894
69	0x3f4f4b5a	0.8097435
70	0x3dda49c3	0.106586
71	0x3f581bc7	0.84417385
72	0x3dbf5147	0.09341674
73	0x3e809d24	0.2511989
74	0x3e8fdf2a	0.28099948
75	0x3f191de8	0.5981126
76	0x3f4b0335	0.7930177
77	0x3ec15074	0.37756693
78	0x3f2a2eaf	0.66477484
79	0x3efc020b	0.4922031
80	0x3ee7ff9c	0.45312202
81	0x3f25eda3	0.6481573
82	0x3ce4ad06	0.027914535
83	0x3e78d188	0.2429868
84	0x3f7acc0c	0.979676
85	0x3f6cbfbf	0.9248008
86	0x3f0e3808	0.55554247
87	0x3f66b6d7	0.9012274
88	0x3eb19cef	0.34690043
89	0xbd5830e2	-0.052780993
90	0xbdfe5bac	-0.12419829
91	0x3f455eeb	0.7709796
92	0x3f0cfdcd	0.5507477
93	0x3e9c1d68	0.30491185
94	0x3e303569	0.17207874
95	0x3f2605a0	0.64852333
96	0x3f416bf3	0.7555534
97	0x3f640bb5	0.89080364
98	0x3f1bb548	0.6082349
99	0x3f59da02	0.8509828
100	0x3d1e39e2	0.03862942
101	0x3ee90865	0.45514217
102	0x3ebd715d	0.37000552
103	0x3e523d1d	0.20531125
104	0x3e675d3e	0.22594163
105	0x3e459ee3	0.19298892
106	0x3f2a0aa2	0.66422474
107	0x3d601af5	0.05471321
108	0x3f315c68	0.69281626
109	0x3f3cea8f	0.7379541
110	0x3f28113a	0.65651286
111	0x3eb68c8a	0.35654098
112	0xbdd2c4f5	-0.10291473
113	0x3f3ad5f2	0.72982705
114	0x3ef6d2a8	0.48207593
115	0x3f2da837	0.678348
116	0x3ea38f6c	0.3194536
117	0x3e651cb8	0.22374237
118	0x3f1b9b17	0.60783523
119	0x3f74ca96	0.9562162
120	0x3f0c1a53	0.5472767
121	0x3f372d76	0.7155374
122	0x3b1827c8	0.002321707
123	0x3ed0b910	0.4076619
124	0x3f74da28	0.9564538
125	0x3f1780aa	0.591807
126	0x3ef2b503	0.47403726
127	0xbc2443f9	-0.010025972
128	0x3ea6d1e4	0.3258201
129	0x3ec3d3fa	0.38247663
130	0x3f4c81a1	0.798853
131	0x3ebf890a	0.3740924
132	0x3f3d42ee	0.7393025
133	0x3db96124	0.09051731
134	0x3f056d42	0.5211984
135	0x3ef04aef	0.4693217
136	0x3e0e5e19	0.13903083
137	0x3eafb216	0.34315556
138	0x3d07f3dd	0.03319155
139	0x3ec8953f	0.39176366
140	0x3f53f6a8	0.8279824
141	0x3e2d6e79	0.16936673
142	0x3eec48e7	0.4614937
143	0x3f534bdd	0.82537633
144	0x3f5112ee	0.8166951
145	0x3e525516	0.2054027
146	0x3e85d891	0.2614179
147	0x3f1c22eb	0.6099078
148	0x3ed6e185	0.41968933
149	0x3f38104e	0.7189988
150	0x3f0d38f1	0.5516501
151	0x3f5002f9	0.81254536
152	0x3e86df48	0.26342225
153	0x3e18d67e	0.14925572
154	0x3f4ea683	0.80722827
155	0x3f2ff933	0.6873962
156	0x3f2595af	0.64681524
157	0x3f3f9cbf	0.7484855
158	0x3ec58420	0.38577366
159	0x3f6295fb	0.885101
160	0x3dc67722	0.096906915
161	0x3e5ba816	0.21450838
162	0xbd4f80bb	-0.050659876
163	0x3e5d6477	0.21620356
164	0x3e6ce26a	0.23133245
165	0x3e3725cc	0.17885512
166	0x3f67efe2	0.9060041
167	0x3efb7412	0.49111992
168	0x3f70120e	0.9377755
169	0x3f2b5ec1	0.6694146
170	0x3d8a92da	0.06766291
171	0x3ed43c70	0.4145236
172	0x3d85936e	0.065222606
173	0x3f2ca7a6	0.6744331
174	0x3ef41714	0.47673857
175	0x3deda889	0.11604411
176	0x3ee30049	0.44336155
177	0x3eba688a	0.36407882
178	0x3f60ff02	0.8788911
179	0x3cd66e32	0.026175592
180	0x3f576eba	0.8415333
181	0x3f022ace	0.50846565
182	0x3f419f1c	0.75633407
183	0x3e98f3b2	0.29873425
184	0x3cdfa786	0.027301561
185	0x3e8c30e1	0.27381042
186	0x3dcd902d	0.10037265
187	0x3f54ca23	0.83120936
188	0x3f25f66e	0.64829147
189	0x3df1791e	0.117906794
190	0x3ec40e52	0.38292176
191	0x3e652168	0.22376025
192	0x3f094a48	0.5362897
193	0x3f3b4ee6	0.73167264
194	0x3f776f4c	0.966542
195	0x3f3870cf	0.7204713
196	0x3f071e29	0.52780396
197	0x3d84fffc	0.06494138
198	0x3f78bf7a	0.9716717
199	0x3d046beb	0.03232948
200	0x3eff24e9	0.49832848
201	0x3e1fbf04	0.1560021
202	0x3e7b707f	0.24554633
203	0x3eeed842	0.46649367
204	0xbbb369ce	-0.0054752594
205	0x3ebe065e	0.37114233
206	0x3f51eae3	0.81999034
207	0x3e2b203a	0.16711512
208	0x3e39acae	0.18132278
209	0x3dfb599e	0.122729525
210	0x3e338150	0.17529798
211	0x3f2da3aa	0.67827857
212	0x3eb4b060	0.35290813
213	0x3f0a12fc	0.5393522
214	0x3eb10251	0.3457208
215	0x3ea4920f	0.32142684
216	0x3e85f066	0.26159972
217	0x3e81e412	0.25369316
218	0x3f0ef13d	0.5583685
219	0x3f32e59d	0.6988161
220	0x3f38afe6	0.721434
221	0x3f488e53	0.7834217
222	0x3eaa2f12	0.33239037
223	0x3cb02dc1	0.021506192
224	0x3f0ff134	0.5622742
225	0xbc878196	-0.016541284
226	0x3f316c33	0.69305724
227	0x3f34ea8b	0.70670384
228	0x3f6b9e0a	0.92038023
229	0x3f10f29b	0.56620187
230	0x3f5d9f3b	0.8657109
231	0x3f0b4c5e	0.544134
232	0x3efc825a	0.493182
233	0x3eaef96c	0.3417467
234	0x3f5e4e3e	0.8683814
235	0x3f14730d	0.57988054
236	0x3dcb4e45	0.09927038
237	0x3f4eedca	0.8083159
238	0x3eac1e98	0.3361709
239	0x3e1ba115	0.15198167
240	0x3e88782a	0.26654178
241	0x3f3bfddd	0.7343424
242	0x3f3ac234	0.7295258
243	0x3f3f155b	0.7464196
244	0xbd4e15c1	-0.050313715
245	0x3f5d9839	0.865604
246	0x3dddb915	0.10826317
247	0x3eecc1b1	0.46241525
248	0xbc3cc88b	-0.011522423
249	0x3e7e2b8c	0.248213
250	0x3ee2720d	0.4422764
251	0x3ea78428	0.32718015
252	0x3e6bb0d3	0.23016672
253	0x3f5d1069	0.86353165
254	0x3df2d4d3	0.11856999
255	0x3f40d618	0.7532668

norm1.bias f4 [400]
0	0x3d9c2efe	0.076261505
1	0xbe4a33a2	-0.19746259
2	0xbe33cf0a	-0.17559448
3	0xbdbcdaa5	-0.09221391
4	0xbdb0de36	-0.086361334
5	0x3dcdfc83	0.100579284
6	0xbe124be9	-0.1428677
7	0xbe13fc76	-0.14451775
8	0xbdb8f8fb	-0.09031864
9	0xbdbc09e2	-0.091815725
10	0xbd50f7a7	-0.05101743
11	0xbe03b905	-0.12863548
12	0xbe0e668c	-0.13906306
13	0x3e5bc0a9	0.21460213
14	0xbdd715ea	-0.10502227
15	0xbdcf79e2	-0.10130669
16	0xbca2b8a9	-0.019863443
17	0x3d430db8	0.047620505
18	0xbcf00ab8	-0.029301986
19	0x3da84e08	0.08218008
20	0x3d5948fa	0.05304811
21	0x3e75cbce	0.24003527
22	0xbe0c609b	-0.13708727
23	0xbdd7d991	-0.105395444
24	0xbd494038	-0.04913351
25	0x3e59dac1	0.21274854
26	0xba7b5d97	-0.0009588836
27	0xbdc3b070	-0.09555137
28	0xbd2acd8f	-0.041699942
29	0x3ddb4267	0.107060246
30	0xbdf24d81	-0.11831189
31	0xbde779f3	-0.11302557
32	0xbe5f30da	-0.21795979
33	0xbd4f16b2	-0.050558753
34	0x3e00caaa	0.1257731
35	0xbcd1fa42	-0.025632028
36	0xbcd31402	-0.025766376
37	0xbdf41810	-0.11918652
38	0xbe5f6aca	-0.2181808
39	0xbe01d540	-0.12679005
40	0x3e5cffef	0.21582006
41	0x3c2cde51	0.010551051
42	0xbe117acd	-0.14207001
43	0x3e186f32	0.14886168
44	0xbdfb6d96	-0.12276761
45	0x3dc5e6a7	0.09663134
46	0xbdd7e86e	-0.10542379
47	0xbe2e889c	-0.170443
48	0x3e53d07a	0.20684996
49	0xbe2de13b	-0.1698045
50	0xbe2cb940	-0.16867542
51	0xbd818f09	-0.0632611
52	0xbdc5e1fc	-0.09662244
53	0xbda1f6bc	-0.07908389
54	0xbda273ed	-0.07932267
55	0xbd9c10f7	-0.07620423
56	0xbde62d5b	-0.112391196
57	0xbe1bbcdd	-0.15208764
58	0x3e0be69e	0.13662192
59	0x3d2d5764	0.04231967
60	0xbd27ddb8	-0.04098293
61	0xbe0fe874	-0.14053518
62	0xbd985dad	-0.07439742
63	0xbe14e0e5	-0.14538915
64	0xbe75c53b	-0.24001019
65	0xbe5ba208	-0.21448529
66	0xbbd2e901	-0.0064364676
67	0xbd2683b2	-0.04065294
68	0x3e531a9b	0.20615618
69	0xbd310956	-0.043221794
70	0xbe240f46	-0.16021451
71	0xbe3e6b4d	-0.1859562
72	0xbe34fdcb	-0.1767494
73	0xbe1b5479	-0.15168943
74	0xbdf9f729	-0.12205345
75	0xbdc66fb6	-0.09689276
76	0x3d4acbd0	0.049510777
77	0xbe0cdaeb	-0.13755386
78	0xbd723a3c	-0.059137568
79	0xbdc602bd	-0.09668491
80	0xbe3a4999	-0.18192138
81	0xbddf5e4a	-0.10906656
82	0xbe2f0c3f	-0.17094515
83	0xbd4f0610	-0.05054289
84	0xbe004172	-0.12524965
85	0xbdfe31ae	-0.124118194
86	0xbd08b617	-0.03337678
87	0xbe15918c	-0.14606303
88	0xbe353a2c	-0.17697972
89	0xbe49a9b5	-0.19693644
90	0xbe53db08	-0.20689023
91	0x3bdb37e6	0.006690013
92	0xbe3b0a84	-0.1826573
93	0xbcccf2dc	-0.025018148
94	0xbe3577c1	-0.17721464
95	0xbc915bf8	-0.01774405
96	0xbe316065	-0.17321928
97	0x3d69e9f9	0.0571079
98	0xbe5b998d	-0.21445294
99	0x3e186414	0.14881927
100	0xbe5e628d	-0.21717282
101	0xbd89ba59	-0.06724996
102	0xbdc7d72b	-0.09757837
103	0x3cdbe90f	0.02684453
104	0xbe01e000	-0.12683105
105	0xbe3f15b1	-0.18660618
106	0xbe0be781	-0.1366253
107	0xbdafc2ae	-0.08582054
108	0x3dd6ea57	0.104939155
109	0xbdfc9839	-0.12333722
110	0xbccba9b6	-0.024861198
111	0xbc27f302	-0.010250809
112	0xbe687201	-0.22699739
113	0xbd9dde7b	-0.077084504
114	0xbe69ca04	-0.22830969
115	0xbd8b8889	-0.068131514
116	0xbd1aa323	-0.037753236
117	0xbe387da1	-0.18016674
118	0xbe77805d	-0.2417006
119	0xbb1f3422	-0.0024292548
120	0xbc799ad4	-0.015234668
121	0xbd32e2b4	-0.043673232
122	0xbe4c0ef6	-0.19927582
123	0x3e5642bf	0.20923899
124	0xbd401317	-0.046893205
125	0xbe0339cb	-0.12815015
126	0xbbceb2cf	-0.0063079367
127	0xbe4bc727	-0.1990019
128	0xbd9bf8a1	-0.076157816
129	0xbdb0286e	-0.08601461
130	0xbe276716	-0.16347918
131	0xbe3a7656	-0.18209204
132	0x3b37200d	0.0027942688
133	0xbdc112f6	-0.09427445
134	0xbdd60a15	-0.10451142
135	0xbd8c2d65	-0.06844596
136	0x3e523350	0.20527387
137	0x3c625c40	0.013815939
138	0xbe63845b	-0.22218458
139	0xbe1df50c	-0.15425509
140	0xbddab3b9	-0.106788106
141	0x3e2bc5e9	0.16774715
142	0xbdbbae62	-0.0916412
143	0xbdcb1770	-0.0991658
144	0xbe697819	-0.2279972
145	0x3e5635e4	0.20918995
146	0xbb5846a1	-0.0033001082
147	0xbdcb0f08	-0.09914976
148	0xbd777d2c	-0.060422108
149	0x3e589a14	0.21152526
150	0xbdc90266	-0.098149106
151	0xbd844d4a	-0.06460054
152	0xbd7a0529	-0.061040077
153	0xbced9b52	-0.029004727
154	0xbe0af8b4	-0.13571435
155	0xbd14bd3e	-0.036313288
156	0xbdb728f4	-0.08943358
157	0x3d828cc9	0.06374509
158	0xbe45ec55	-0.19328435
159	0x3dc3434f	0.095343225
160	0xbdd1a35d	-0.10236237
161	0xbe14c099	-0.14526595
162	0xbe3f0e07	-0.18657695
163	0x3e53298d	0.20621319
164	0xbe400509	-0.18751921
165	0x3ce52c45	0.02797521
166	0x3cf733d9	0.03017609
167	0xbd330863	-0.04370917
168	0xbcc45cf3	-0.023970103
169	0xbdb798ba	-0.08964677
170	0xbde87313	-0.11350074
171	0x3e3f8ac3	0.18705277
172	0xbdf0e785	-0.11762909
173	0xbcd38fa9	-0.025825338
174	0xbd62e80f	-0.05539709
175	0xbe5e9d7a	-0.2173976
176	0x3c39af3c	0.011333283
177	0xbdbdd58f	-0.09269249
178	0x3d0f2251	0.034944836
179	0xbe259ebf	-0.16173838
180	0x3cb23701	0.021754744
181	0x3d497bc5	0.0491903
182	0x3df2fc1f	0.118644945
183	0xbd8ce6f0	-0.06879985
184	0xbe477c6b	-0.19481055
185	0xbcdc981f	-0.026928006
186	0xbe064996	-0.13114008
187	0x3e7a6dac	0.24455899
188	0x3de3b8ee	0.11119257
189	0x3e4d22ad	0.20032759
190	0xbdb09c41	-0.08623553
191	0xbd849b6b	-0.06474956
192	0xbdc41652	-0.0957457
193	0xbe02ea11	-0.12784602
194	0xbde8eee8	-0.11373693
195	0x3da00a76	0.07814495
196	0x3d9f660c	0.07783136
197	0xbe5c12d4	-0.21491557
198	0xbdc721d4	-0.09723249
199	0xbe299774	-0.16561681
200	0xbe36a8fc	-0.178379
201	0xbe73867b	-0.23781769
202	0x3e56d065	0.20977934
203	0xbc3d4a69	-0.011553385
204	0xbe3c80b5	-0.18408473
205	0xbcddffe5	-0.02709956
206	0xbd78d296	-0.060747705
207	0xbe472e3f	-0.19451235
208	0xbdd342e1	-0.103154905
209	0xbe2e9bbc	-0.17051595
210	0xbe075283	-0.1321507
211	0xbdb4cfeb	-0.0882872
212	0xbe19a9c1	-0.15006162
213	0xbdbdecea	-0.092737034
214	0xbcf2220e	-0.029557254
215	0xbdc2fd8f	-0.09521019
216	0xbe08bdeb	-0.13353698
217	0xbe1f6b66	-0.15568313
218	0xbd97ccc3	-0.07412102
219	0x3d713a1c	0.058893308
220	0xbd100e6a	-0.035169996
221	0xbc1e2ca2	-0.009654196
222	0x3cafa555	0.021441141
223	0xbe347b85	-0.17625244
224	0xbe0306d1	-0.12795569
225	0xbe475fda	-0.19470158
226	0xbde896c6	-0.11356883
227	0xbdf63c05	-0.120231666
228	0x3e03a0be	0.12854287
229	0xbc08448d	-0.008317125
230	0xbd2b1c3a	-0.041774966
231	0xbd1a4658	-0.03766474
232	0xbdf5df1a	-0.12005444
233	0xbd67c996	-0.05658873
234	0xbbba1af9	-0.005679485
235	0xbde8fe1d	-0.11376593
236	0xbe5985de	-0.21242473
237	0xbd6550ff	-0.055985447
238	0xbdec51ba	-0.115390256
239	0xbe8a8ea9	-0.27061966
240	0xbe46935c	-0.1939215
241	0xbdc3749c	-0.09543726
242	0xbd96dd33	-0.07366409
243	0x3c2322c5	0.00995702
244	0xbe3a2593	-0.18178396
245	0xbe03c390	-0.1286757
246	0x3e538735	0.20657046
247	0xbdd48787	-0.10377412
248	0xbe5c740d	-0.21528645
249	0xbe0e4bc9	-0.13896097
250	0xbe0a18bb	-0.13485996
251	0x3d88f63f	0.06687593
252	0x3d827a41	0.06370974
253	0xbe039ecf	-0.1285355
254	0xbe2636ea	-0.16231886
255	0xbdae9044	-0.0852361
